trained_models/54.pth (torch, 158514 bytes, 17 tensors)

cnn.0.weight f4 [32, 11, 3]
00000000: a51e d5bd 0fb2 b3bd b7f2 1bbe 857b a3bd
00000010: 3d43 103e 2755 14bc e075 bbbd 80d2 c83d
00000020: dcff ea3d 5a2e af3d 69ee 43bc 5644 edbd
00000030: ed5c 843d 0b95 0f3d 5447 3fbe d883 023d
00000040: 7c12 583d fd45 b2bd 05d1 333d 01b6 abbe
00000050: 5626 b83d f199 70be 8bee da3d 858f 133e
00000060: 5161 48be b135 b5bc 769d 5a3e 389c 373e
00000070: 3185 31be a41c 713e c74a 673e fd3f fe3d
00000080: b474 48be 3a74 063e 2842 cabd a4f3 283e
00000090: 422f f53d 2afd cc3a 90d1 a73c b466 00be
000000a0: bcc5 b23c d573 aebc cde7 04bd 14e6 1b3d
000000b0: 3144 933e 7c47 f73d 5121 673c 32b8 bd3d
000000c0: 5172 e23c b5fe a33b 9017 49bd 55b2 323e
000000d0: 8ac9 d93d 8fc2 b93d 1407 a9bd b6d1 9d3d
000000e0: f75a 303d 8731 37be a6f0 29be 38a5 a6bd
000000f0: 6d71 4f3e 5eb4 bfbc 6973 34bd bcba b8bd
00000100: 0852 423e 71f1 83bd b8f7 1c3e f90e fbbd
00000110: 9fb9 4abe 83c2 5f3d 0b05 3d3e 6b94 053e
00000120: d352 6f3e 8f7b 5e3e c07a 85bd 5c5a 5abd
00000130: a9d5 b03c d35b 02be d06b 4d3e 329b 313c
00000140: 39a0 fe3d 33db 93be a198 9dbe 3056 3b3d
00000150: 90d2 febc 8c0a 223e e256 c53c 5de7 163c
00000160: 0ad5 0fbb 1d9b 19be 7b80 91be 7e5f 4b3e
00000170: eaf9 003e 641c 0e3d 5dbf 873c e623 283e
00000180: 31f5 4f3d 57f5 a13c 94f1 233e 0271 d9bd
00000190: 4e7c 16be f597 493c 3c9c a5bd 56e3 e83d
000001a0: 4d38 c63c a7d1 81bc 942b ac3d 9f7c 2b3d
000001b0: 0a72 fabc 07fb b13c e7f5 9e3d 99be 69be
000001c0: 5039 6cbe 0b26 93be 7c76 563e d6cd b1bd
000001d0: be37 22be 4b9f d5bd 237e 3bbe 987d 5fbe
000001e0: 5b9f c7bc 99fe d8bd f832 343e 1655 96bd
000001f0: 275d 053c ac20 25be d620 cdbd e6d6 e3bc
00000200: 241f 27be 0e2a 17be 6966 8cbe 0832 1fbe
00000210: 7c28 dabd c1a0 933d e657 dfbd 3777 60be
00000220: 58eb 10be 9e47 94bd 34ec 5f3e 1a58 b33d
00000230: 872e 403e 25df 873c 6110 47be 165a 6f3d
00000240: a192 343e b296 1a3d 9a0b a23e 4518 2ebe
00000250: e748 2c3d 68dd 4cbe 1f9f 653e 9067 b8bd
00000260: 55f2 043e 25d6 d53e bdc0 303e cd45 9d3e
00000270: cd80 20be 039e d8bd cee8 cd3c 6282 a8bd
00000280: ed6e 0abe 6587 d9bd 3044 d93d 9c4e bfba
00000290: 591d 593e 7ce4 d13d 5031 30bd bae2 91bd
000002a0: 66c6 acbc b2c9 c6bd 8544 d6bc d2b1 49be
000002b0: 8447 92be 0aa9 0bbe e74d 14bd 43fe dbbe
000002c0: ee0f d1be 1829 36be 647a 8ebd 8f91 4cbe
000002d0: ee6a c13b 8a4c 93bd 1568 dcbd 97fa f4bd
000002e0: e648 a4bd 3902 73be e857 4abe 9e28 76be
000002f0: f960 e1bd 40d2 f0bd 48a8 23bc 0878 263d
00000300: 43e4 8c3d 2fa3 223e e892 8f3e 737e 013d
00000310: ebb5 d13d c524 373e f765 a9bd 7aa0 0bbe
00000320: 7fda 1d3e bbdd 4f3d 302e 99bd 74fc ff3d
00000330: 4713 583e ee86 45bc 74da f13d 1480 e23d
00000340: 53aa 5f3d 1965 48be c9a3 923e b246 eb3d
00000350: 9a3b b7bd db7d 55bc 70d4 c73c bcf5 7bbd
00000360: 0928 9c3d bf32 3fbe f30e 953c d37e 893e
00000370: 1749 513e 000e 053d 6b54 0ebe d5e0 21be
00000380: fe24 60be ba9d 0c3c e1f9 093e e701 12be
00000390: c6de 83be 72d8 79be 5840 4cbe 9002 84bd
000003a0: b13e 6cbd c027 94ba 07c4 dfbc 3f07 4fbe
000003b0: 0f2d 3cbe 125a 7a3d 5695 863d 27f7 943d
000003c0: eadf dfbc dfad 0f3e a43b d13c 0c09 23be
000003d0: 779a 02be a086 c53d f2ca 9dbe 38e2 5abe
000003e0: e711 903d d7ed e7bd 600e 83be c7b7 e3bd
000003f0: 9700 68be 9027 543e 624e c4bc 624b babd
-0.104062356 -0.08774196 -0.15229307 -0.07982544 0.1408815 -0.009053505 -0.09153342 0.09805775
0.114745826 0.08553763 -0.011958697 -0.115853 0.06463037 0.035054248 -0.18679553 0.031864017
0.052752003 -0.087047555 0.04390051 -0.33537295 0.08991687 -0.23496224 0.1069003 0.14410217
-0.19568373 -0.022120329 0.21349129 0.17930686 -0.17335965 0.23546082 0.22587119 0.124145485
-0.19575769 0.13130274 -0.098758996 0.16499192 0.11971904 0.0015639414 0.02048567 -0.12539178
0.021822803 -0.021295467 -0.032447625 0.038061216 0.28762963 0.120741814 0.014107064 0.09263648
0.027642401 0.0050047287 -0.049094737 0.17450841 0.10634144 0.09070312 -0.08253303 0.07706015
0.0430555 -0.17889987 -0.16595706 -0.08136982 0.20258112 -0.023401435 -0.044055376 -0.09019992
0.18976605 -0.06442536 0.15328872 -0.12258715 -0.19797371 0.05462886 0.18458955 0.13044898
0.23371439 0.21726821 -0.06517553 -0.05330883 0.021586256 -0.1273034 0.20060658 0.010840224
0.12432904 -0.28878173 -0.3078051 0.04573649 -0.031106263 0.15824336 0.02408928 0.009210435
-0.002194705 -0.15000577 -0.28418335 0.19860646 0.12595335 0.034695044 0.016570741 0.16419944
0.050770942 0.019770307 0.16010123 -0.10617258 -0.14695856 0.012304296 -0.0808644 0.11371486
0.024196768 -0.01584704 0.08406749 0.041866895 -0.030571956 0.021726144 0.07761746 -0.22826613
-0.23068738 -0.28739962 0.20943636 -0.08681838 -0.15841576 -0.10430773 -0.18309836 -0.21825254
-0.024367979 -0.10595436 0.17597568 -0.073404476 0.008139885 -0.16125745 -0.100160286 -0.027812432
-0.16320473 -0.14762136 -0.27421883 -0.15546429 -0.10652253 0.07208396 -0.10905437 -0.21920477
-0.14152277 -0.072402224 0.21867448 0.087570384 0.18767749 0.016585896 -0.19439842 0.058435522
0.1763406 0.03774137 0.31649476 -0.17001446 0.042061713 -0.20006335 0.22423981 -0.09004128
0.12983067 0.41764942 0.17261024 0.30717316 -0.15674134 -0.10577013 0.025135424 -0.082279935
-0.13518877 -0.106215276 0.10608709 -0.0014595571 0.21202601 0.10248658 -0.043015778 -0.07123323
-0.021090697 -0.09706439 -0.02615572 -0.1969674 -0.28570187 -0.13638702 -0.036207106 -0.42967424
-0.40832466 -0.17789114 -0.06956938 -0.19977401 0.0059026396 -0.07192333 -0.107620396 -0.11961859
-0.08021717 -0.23731317 -0.19760096 -0.24038932 -0.11004824 -0.11758852 -0.009988852 0.040641814
0.06879475 0.15882562 0.28041768 0.031614732 0.10239776 0.1788512 -0.082714014 -0.13635436
0.15415381 0.050748568 -0.07479513 0.124993235 0.21101104 -0.0120560955 0.11809245 0.11059585
0.054605793 -0.19569816 0.28640583 0.114880934 -0.08946915 -0.013030495 0.02439329 -0.061513647
0.076248236 -0.18671702 0.018195605 0.26854572 0.20438038 0.032484055 -0.1389939 -0.15808423
-0.21889111 0.008582527 0.13474227 -0.14258538 -0.257559 -0.24398974 -0.1994642 -0.06445801
-0.057676975 -0.001130335 -0.027315153 -0.20217608 -0.18376563 0.061121054 0.06571452 0.07273703
-0.02732845 0.1403117 0.025541134 -0.1592142 -0.12754236 0.09644818 -0.30818897 -0.21375358
0.070346646 -0.11324661 -0.25596905 -0.11119037 -0.22656475 0.20718217 -0.023963157 -0.090964094

cnn.0.bias f4 [32]
00000000: 7458 54be c1b8 74bd c6f0 493d c6db 5dbe
00000010: 117a eb3c 5989 ee3c 9f8f f93d 79e2 253e
00000020: 69bc 8bbe 993e 5cbc c872 ee3d 11da 7cbc
00000030: c106 2cbe 0bbf b3bd 219a 073d 17e9 84bd
00000040: 3845 c73c 4072 d8bd afcc 34be 36d5 e0bd
00000050: 2428 18be 94fe ae3d 1754 1fbe 99fe 24be
00000060: 016b 32be ffbc f6bc 77dc 43bd e46b a4bd
00000070: a3e3 643d 4c1e 2abe 4142 1abe acc4 1fbe
-0.20736867 -0.059746508 0.049301885 -0.21665868 0.02874473 0.029118227 0.12185597 0.16199674
-0.27292183 -0.013442659 0.116429865 -0.01543285 -0.16799451 -0.08776673 0.033105973 -0.06489771
0.024324998 -0.105686665 -0.17656206 -0.10978167 -0.14859062 0.08544651 -0.15559421 -0.16112746
-0.17423631 -0.030119417 -0.047817674 -0.08028391 0.055881154 -0.1661312 -0.15064336 -0.15602368

cnn.2.weight f4 [64, 32, 3]
00000000: df8d f1bc 6c32 bcbd 599d aabd 579c 12be
00000010: d3cd 8abe d297 83be 362f d8bd 1fd1 083e
00000020: 2e86 04bd bdfb 11bd 40db 8ebd 0b08 ac3d
00000030: deb6 d83d 62b6 5e3e 0b76 053e d1d7 21be
00000040: 6504 05bd ba9a 583d 2dcf 2e3d 0a47 e63d
00000050: 388c 013e 7621 00bc e86e fdbc c764 89bd
00000060: 1db1 6ebe 04b0 72be 20d9 a1be bd5f ba3d
00000070: d91e ffbb 8226 313b 9430 493e f63f 333e
00000080: 11be 893d 7cfc 94bd 867b 23bc 8a67 5fbd
00000090: 0cb9 fc3d 91c1 f03d 474d 8bbd 9874 c0bd
000000a0: 99bd 613d 324d 8dbd 097a efbd b1a9 e1bd
000000b0: 43db 15bd 5cbc 883d 3016 673d 1806 d9bc
000000c0: c7f2 373e f9f2 223e 3dbf c73d ef2e b43d
000000d0: b17f a43d 98f3 93bc bc4b 2abd ee11 493e
000000e0: 60ed 243e 61d5 533d 01fa c83c 7966 483e
000000f0: 295a da3d c267 453c 88ef 653d 0913 843e
00000100: 3c75 523e d3d4 0c3e e9b6 7cbc 00f7 c23d
00000110: cd35 0e3e 9396 babd dd5e 00be 98dd 413d
00000120: 1c1b 313d 3517 063e 21c2 1e3e 649f 1abd
00000130: e0a0 82bd ef21 f7bd 2a52 02be b755 f03d
00000140: 933a 0e3e d1b4 89be 7490 5fbe 156c 9abe
00000150: 602a 133d ea3e ab3d 0354 ce3c e787 c93d
00000160: 5e5e 0bbd 826f 573c c2e9 143c 3d40 e43d
00000170: 446c cd3d b73c 03be 67a2 5a3d 514b 8fbd
00000180: df3e 153e ac1d 983e 9e76 803e 02de 003d
00000190: e183 263d 81d4 333c d0e5 7b3d accf 8e3d
000001a0: ac88 35bd 45e9 82bd 5fe2 363c 8602 133e
000001b0: 41e7 e9bd 4a1d dcbd b4db 56be 66cc bcbc
000001c0: 5fb2 d83d 2a2b 133e 60e2 853d 67a5 5d3e
000001d0: f832 263d 0f1b 7d3c c5a6 1b3e 8fe8 373e
000001e0: c6ee 363d 0e2d 033e a297 18bc 1012 983d
000001f0: 1cb8 b43d 8278 d9bc c527 bcbd ae60 b6bb
00000200: 8d89 013d 20c4 b33c f4bf bdbd 8f66 243d
00000210: 4420 1e3c f97c c43d d260 573d ea53 c23c
00000220: 10e4 9e3d dd01 233e a969 763d 883e ecbd
00000230: 1fe9 79be fd9d d0bd 8420 d1bd 32f3 033d
00000240: 8457 08bd 079b d2bd 9db8 0b3d cd50 a6bd
00000250: 06e2 73bd bf2a 0abe a9e4 81bd ce9b 0ebd
00000260: 1340 203d c9d0 3ebd 87d3 943b 6e41 4bbe
00000270: 9e6d 9abe 7980 7dbe 9c0a 53be 39dd 12be
00000280: bea7 5ebe 5a6f 58be 0c1c 4bbe e316 1fbe
00000290: 789b 02bd 1a1a 63be 9807 b8bd c87d 93bc
000002a0: 225b b6bd b8ad 8cbd c9fc 663c c609 373e
000002b0: 84ed 7fbc 4c9f 6abd 1ea7 dfbd 0413 7d3c
000002c0: 7834 213d 4cc5 9d3d 5907 333e 3563 f23c
000002d0: f77e 8bbd 005e 3f3d d7d1 013d a96a 81bc
000002e0: 3188 a43c f030 96bc cc74 78ba aead 7ebd
000002f0: cf5e 6d3c 0782 a6bd 4003 af3d fbea 003e
00000300: 4a41 fcbd 104d 98bd c7e5 cbbc 6117 26be
00000310: f564 debd 0d10 b1bd 6e2d b1bd fab5 913d
00000320: a5bc fa3d 90bb 7d3b 7f74 563d ec33 833d
00000330: 4c63 103e 2adf 183d c37c ec3d 7038 663d
00000340: 00e4 b0bd 475c 2fbe 5ced 073e 1b64 7cbd
00000350: 7f18 91bd 61e4 8c3d 2c48 8e3c 810d a13d
00000360: 6360 0a3e 5f1c e83d ecc5 86bd 53be a23d
00000370: 199c f43c 216a 43bd d750 e7be 96d7 babe
00000380: 64d9 05bd 0647 88be c2a3 88bd 5e24 42bd
00000390: 16b3 11be 3f6c b5bd 09ab 4f3d 1b16 363e
000003a0: fb98 053d 8763 babb 65cb 01be 0fe6 c4bd
000003b0: 0422 b03c 8d42 79bb 531c f3bd 4c54 273c
000003c0: 87d4 0f3e fee8 a1bd ddf9 653c 6590 3dbe
000003d0: 2b43 4cbd 6393 18bd 7068 c0bd dabe b1bc
000003e0: 3d80 5abc dbd8 47be e0f3 9ebe e2e1 3ebe
000003f0: ab4b 21be 2c19 08be dea1 74be d3b1 fd3d
-0.029486595 -0.09189305 -0.08330793 -0.14317451 -0.27110156 -0.25701767 -0.1055588 0.13361023
-0.032354526 -0.035640467 -0.06975412 0.083999716 0.10581754 0.21749261 0.13033311 -0.15804984
-0.032474894 0.052881934 0.042678047 0.112440184 0.12651145 -0.007820478 -0.030936673 -0.06708675
-0.23309751 -0.23699957 -0.31610966 0.09100292 -0.0077856597 0.002703101 0.19647437 0.17504868
0.067257054 -0.0727472 -0.009978181 -0.054542102 0.123399824 0.1175567 -0.06801849 -0.093972385
0.055112455 -0.068994895 -0.11693198 -0.11018694 -0.036586057 0.06676552 0.056417644 -0.026492164
0.17963706 0.15912999 0.09753273 0.087980144 0.08032168 -0.01806049 -0.041576132 0.19635746
0.16106176 0.051717166 0.024533274 0.1957034 0.10661728 0.012048664 0.056136638 0.25795773
0.20552534 0.13753061 -0.015424469 0.09519768 0.13887711 -0.09110751 -0.12536187 0.04733047
0.043238744 0.1309479 0.15503742 -0.037749663 -0.06378341 -0.12067019 -0.12726656 0.11735099
0.13889532 -0.26895764 -0.21832448 -0.30160585 0.035929084 0.08361609 0.025186544 0.098403744
-0.034025542 0.013149144 0.009088935 0.11145065 0.10030416 -0.1281613 0.053377535 -0.06996787
0.14574765 0.29710138 0.25090498 0.031461723 0.040653113 0.010975958 0.061498463 0.06973204
-0.044319794 -0.06392149 0.0111623695 0.14356431 -0.11421061 -0.10747774 -0.20982248 -0.023046684
0.105808966 0.14371935 0.06537318 0.21645127 0.04057595 0.015448346 0.15200336 0.17959808
0.044661306 0.12810156 -0.009313496 0.0742532 0.088241786 -0.02654672 -0.09187273 -0.0055657243
0.03162532 0.021944106 -0.09265128 0.04013687 0.009651247 0.09594149 0.05258257 0.023721654
0.07758343 0.1591868 0.06015936 -0.115353644 -0.24405335 -0.10186384 -0.1021128 0.03221435
-0.033286586 -0.10283475 0.034111608 -0.0812088 -0.059541725 -0.13492869 -0.063424416 -0.034816556
0.039123606 -0.04658583 0.0045418176 -0.19849178 -0.30161756 -0.2475604 -0.20609516 -0.14342202
-0.21743676 -0.21136227 -0.19834918 -0.15536074 -0.031886548 -0.22177926 -0.089858234 -0.018004313
-0.08904101 -0.06869072 0.014098355 0.17874822 -0.015620593 -0.057280824 -0.10920547 0.015446428
0.03935668 0.07703647 0.17483272 0.029588321 -0.06811326 0.046720505 0.03169426 -0.01579793
0.020084472 -0.018333882 -0.00094778533 -0.062177353 0.014487936 -0.081302695 0.08545542 0.12589638
-0.123171404 -0.074365735 -0.02488984 -0.16219856 -0.108591 -0.086456396 -0.08651243 0.071147874
0.12243012 0.0038716532 0.052357193 0.06406388 0.14100379 0.0373222 0.11547234 0.056206167
-0.086372375 -0.17125045 0.13274139 -0.061618906 -0.070847504 0.06879497 0.017368399 0.07863904
0.13513331 0.11333536 -0.06580719 0.07946458 0.02985959 -0.047708634 -0.45178863 -0.36492604
-0.032678023 -0.26616687 -0.06671859 -0.047397964 -0.14228472 -0.08858537 0.05070022 0.1778187
0.032616597 -0.005688134 -0.12675245 -0.09614193 0.021500595 -0.0038034052 -0.11870637 0.010212969
0.14045916 -0.07905768 0.014036623 -0.18512113 -0.049868744 -0.037249934 -0.0939492 -0.02169745
-0.013336238 -0.19516318 -0.31045437 -0.18640855 -0.15751521 -0.13290852 -0.23889872 0.12387433

cnn.2.bias f4 [64]
00000000: 3430 a1bd cc9d 0d3d 9ca5 1e3c b525 e73d
00000010: a1ae a83d 6065 46bd ed74 c4bd c194 89bd
00000020: 4b57 d0bd d8a5 803c 2db7 9dbd d7c4 d2bc
00000030: e99b ea3d 09f7 32bd de81 e5bc eb9b 7a3d
00000040: e00a 5e3c c25e e93d ee0f 0b3e 028a 4a3c
00000050: 429a 53bd dcf1 473d 01e0 df3d 306d b33d
00000060: 4dd9 2cbd 4191 6dbd 3153 c1bb 72c0 f93d
00000070: 8451 473d 4227 6f3d 1619 a4bc 6e67 c83d
00000080: c950 4a3d 96bb 1e3e 315a 563c 9f9d ea3d
00000090: 612b 7e3d a571 c4bd cdd7 be3d 4bb6 0fbd
000000a0: 7533 25bc 77e4 f23c 505c 7ebd cbce 503d
000000b0: 0f7d 603a 208f 5fbd 61b3 05be 4f49 bc3c
000000c0: 7a8c 3c3e b74e 4dbd 807b 9bbb 61f6 14bd
000000d0: 67e2 5ebc bdd0 04bc fecb 2f3d a548 74bd
000000e0: bf25 28bd e089 9abd 0c82 a43c 648d f73d
000000f0: a7be cebb fdf0 cc3d 4f5d 86bc a9f1 dfbc
-0.07870522 0.034574315 0.009683039 0.11286489 0.08236433 -0.048436522 -0.09592614 -0.06717826
-0.101729 0.01570408 -0.07700954 -0.025728626 0.11455519 -0.043692622 -0.028016027 0.06118385
0.0135523975 0.11395027 0.13580295 0.012362005 -0.051660784 0.04881464 0.10931397 0.0876106
-0.04219942 -0.057999853 -0.0058998098 0.12194909 0.048661724 0.05838705 -0.020031493 0.09785353
0.04939345 0.15501246 0.013083027 0.11455845 0.062053088 -0.095919885 0.093185045 -0.035085957
-0.010083069 0.029649956 -0.062099755 0.050978463 0.0008563557 -0.054579854 -0.13056709 0.022984175
0.18412963 -0.050123896 -0.004744947 -0.036367778 -0.013603783 -0.008106408 0.04291915 -0.05963959
-0.041051622 -0.07545829 0.020081542 0.12087515 -0.0063093486 0.10006902 -0.016401915 -0.027336912

lstm.weight_ih_l0 f4 [132, 64]
00000000: 10f4 2dbe 22c9 673e 3aec 01bc a1b0 343e
00000010: e779 303e 5510 de3a e0c6 cebc b95b 5fbd
00000020: a381 8b3e c9aa c5bd b370 273e f48f 323d
00000030: 17ad 943e cc2d a7bd b8ef 15be d504 11be
00000040: c0ff cc3d e108 6e3d a5aa c43e ad5a 92bc
00000050: bd89 55be d83e cd3e 8044 8dba d613 b1bd
00000060: 1b62 55bd dd83 94bd 94e1 1e3e fc40 233c
00000070: 9757 99bc f584 f43d a83d 3dbe 5209 0e3e
00000080: e1a5 a1bd d4a1 9cbc 4fac 303b 548a cbbd
00000090: 9655 4cbd e442 30be 787a 6b3e 04f7 ecbd
000000a0: 51c0 113e ac8f 6c3d c330 8abb 7d6a 183e
000000b0: d918 e13d 4502 ef3c 756a adbb 452b dfbc
000000c0: 1720 9fbb d16d 0dbe 3b30 de3e ead5 203e
000000d0: 641c 09be 5481 433e 1be0 4f3e e93b 25be
000000e0: 307e c73e 95d1 0fbe 4414 293e 049a c83e
000000f0: cd34 df3b 5507 3f3e dfe0 973d dd12 83be
00000100: 8746 2d3b 753e 7e3e ad07 c9bc 7a1c 823e
00000110: 8cfb 953a 9a11 7c3d ed14 b73e 7836 80be
00000120: 7004 e8bd 7321 01be f2f6 433e fc16 e73d
00000130: dd00 11bd 7667 423e b270 87bd 4546 8ebd
00000140: 758e 263e 2ade cabd 79c2 e6bd 2ad5 70bd
00000150: 069f e43d d33b abbe c47a ec3d 1140 333e
00000160: b9c3 15bd b49d c9bd ff3d b2bd 4633 86be
00000170: 2ed1 9fbc 27a5 6a3e e596 b03d 4f8f 073e
00000180: db52 84bd 6d7c eb3d 4682 5fbe 67ef 8d3d
00000190: 1547 69be db32 813d 5b6f 533d 7bb2 13be
000001a0: 0efb 553e dfe4 7cbe 54e7 f4bd 17b5 f43b
000001b0: 559d f5bc 4106 39be c221 59be 5c16 603d
000001c0: 3666 4abe 35c5 5d3e f3ba 39be b710 643e
000001d0: a74e 2c3e 6c18 313e 3071 aabe 67fb 11bd
000001e0: cc11 8b3d 3bad 963d c9b1 123d 513c c43c
000001f0: e972 b8bd 2a8c 28bd 26a5 4fbe 6a83 523e
00000200: c3c4 893e 578d 843c 0a6a d03d feec 8f3d
00000210: 06d4 97bc 2e78 693e 35d9 88be 8232 d3bd
00000220: 44b6 89be 888c c73c 8009 903c 9e88 173e
00000230: 97f0 96bc 7baf 9d3e a61f adbc ee93 8fbe
00000240: 9022 2a3e 5c82 1bbe 6adf d63d 4a9f a03b
00000250: b783 983e 87a5 4fbe 2a74 9a3c 5874 ae3d
00000260: 30c8 1abe c3c7 19bd ed59 2e3d 16eb 063e
00000270: e07e 253e e7c5 1e3d cde3 833e 83e6 a3bd
00000280: 8e8c 683e 85ea 2d3d 7524 ba3e 59f9 d13d
00000290: 0818 9ebd 14e3 aabd c711 2f3e dbce 463e
000002a0: d9d7 2cbe e7aa 2dbe dff1 e73d 5f4c 92bd
000002b0: f1d1 6abd 5bae e63d d3dd 7e3d d3a5 4cbc
000002c0: f194 b0be 2cd6 73be 9efe 063e 1cb5 523e
000002d0: d219 c23e 2a1d 083d 14e8 e9bb 4ad5 643d
000002e0: a749 3e3e bc3a 203e 33eb cbbd 5465 87bd
000002f0: d3a2 7a3e 2bab babc 4356 ba3c 1ba2 823e
00000300: f166 c3bd d1de 253e 3f21 0e3e 41ef 2f3d
00000310: 9e3d 793e 5fda db3d 6b5c fd3b 2547 b63e
00000320: f79b ebbd 1b05 3dbe 82a0 023e 1ee5 243e
00000330: 1d87 083f b9dc 123e f1a6 6b3e f97a 013e
00000340: 2a53 da3d c14a 1d3e 09c8 a23e ad9e 6dbe
00000350: 028b 2a3b 0ad5 033d 9017 c93d b85c e93d
00000360: 706f b2bd b7e4 1abe 8a12 bf3d 5982 b63d
00000370: e5ea 383e e3b3 cfbd a9b1 d0bc 8fea 2d3e
00000380: 186c 063e ea9a 443d e28a 5a3d 107e ee3d
00000390: 78d1 8f3c f127 483d bc91 e33d 6fbf bebd
000003a0: 445c b03c f637 d1bc 8146 a53d 24c0 4cbe
000003b0: dda8 c83e 26ac 483e 6f29 38bd 3d32 383f
000003c0: f81e f2bd 52f4 b9bd 3111 9bbe 163b e33d
000003d0: ae65 afbd 029d 413d ff00 c63e 43c8 bf3c
000003e0: f2f7 03bd 4b39 7a3e dc55 a43e 5a9b 8abe
000003f0: 0c03 b93e 509a 553e 451f 8f3e bbbd 403e
-0.16987634 0.2263532 -0.007929856 0.17645504 0.17234002 0.0016942123 -0.025241315 -0.054530833
0.27247342 -0.09651715 0.16351585 0.043594316 0.29038307 -0.08163032 -0.14642227 -0.14162
0.10009718 0.058113936 0.3841144 -0.017865503 -0.20853324 0.40087008 -0.0010777861 -0.086463615
-0.052095514 -0.072517134 0.15515739 0.009964224 -0.018718524 0.11939422 -0.18480551 0.13870743
-0.07892967 -0.019120134 0.0026958173 -0.09938493 -0.04988631 -0.17213017 0.22995937 -0.11570552
0.14233519 0.057754204 -0.0042172386 0.14884372 0.109910674 0.029175887 -0.0052922317 -0.027242312
-0.0048561203 -0.13811423 0.43396172 0.15706602 -0.13389736 0.19092304 0.20300333 -0.16136135
0.3896346 -0.14044793 0.16511637 0.39180005 0.0068117143 0.1865514 0.07415938 -0.2560033
0.0026439743 0.24828513 -0.024539793 0.2541235 0.0011442765 0.061540224 0.35758153 -0.25041556
-0.113289714 -0.12610416 0.19137171 0.11283681 -0.035401214 0.1898478 -0.06613292 -0.069469966
0.1626528 -0.09905656 -0.112675615 -0.05879704 0.11163144 -0.3344408 0.11546853 0.17504908
-0.03656361 -0.098445326 -0.08703231 -0.26210994 -0.019508924 0.22914563 0.08622531 0.13238262
-0.06461116 0.11498342 -0.21827039 0.06930428 -0.22781022 0.06308528 0.05161987 -0.14423554
0.20896551 -0.24696682 -0.11958185 0.0074678767 -0.029982248 -0.18068792 -0.21204284 0.054708824
-0.19765553 0.2165726 -0.18137722 0.22272001 0.16826878 0.17294472 -0.3328948 -0.035640147
0.06790504 0.0735726 0.03581408 0.023954542 -0.090062924 -0.041149296 -0.20277843 0.20557943
0.2690793 0.016180677 0.10176475 0.070276245 -0.018533718 0.22799751 -0.26728216 -0.10312368
-0.2689687 0.024359003 0.017582655 0.14798209 -0.018425269 0.30797943 -0.021133255 -0.2804255
0.16614747 -0.15186447 0.104918316 0.0049018012 0.2978799 -0.20277987 0.01885422 0.085182846
-0.15115428 -0.037544023 0.04256623 0.13175616 0.1616168 0.038762953 0.25759736 -0.08002951
0.22709867 0.042459983 0.3635594 0.102526374 -0.07719427 -0.08344093 0.17096625 0.19414847
-0.16879214 -0.16959725 0.1132543 -0.07143473 -0.057329122 0.112637244 0.062223267 -0.012490707
-0.34488633 -0.23812169 0.13183066 0.205769 0.37910324 0.033230938 -0.0071382616 0.05586747
0.18582784 0.15647405 -0.0995697 -0.06611124 0.24476175 -0.022786697 0.02274621 0.25514302
-0.09541119 0.16198279 0.1387987 0.04295278 0.24339911 0.1073501 0.0077319643 0.35601154
-0.11504357 -0.18458979 0.12756541 0.16103026 0.53331167 0.14342012 0.23012902 0.12644567
0.106603935 0.15360548 0.3179324 -0.23205061 0.0026022797 0.03218559 0.09818947 0.11394638
-0.08712661 -0.1512631 0.09329708 0.089115806 0.18058355 -0.101417325 -0.02547534 0.16984008
0.13127172 0.0479993 0.053355105 0.11645138 0.017555937 0.048866216 0.11111781 -0.09313857
0.02152837 -0.02553938 0.08070088 -0.19995171 0.39191332 0.1959692 -0.04496139 0.7195166
-0.11822313 -0.090798035 -0.30286554 0.11095254 -0.08564316 0.047268875 0.38672635 0.023410922
-0.03221888 0.24435918 0.32096756 -0.2707165 0.36135137 0.20859647 0.27953544 0.18822376

lstm.weight_hh_l0 f4 [132, 33]
00000000: 4323 e7bc cce4 993d e65c dfbd ec35 043d
00000010: 01f1 c3bd e703 5d3d 00b1 48bc 876f 2f3e
00000020: c733 883d b87c 41be 3c73 d2bd b6ef e4bd
00000030: 1072 123e 7156 16bc 9b3d 1cbd 0586 aabd
00000040: 9736 da3b 9948 c9be 62d1 91be 5d4b 5e3d
00000050: 38eb 013e b25d 6f3c 2d40 c7bd d23f d5be
00000060: 93a3 c73d 01b2 2a3e 08d9 4ebd 27d4 0b3e
00000070: 9468 443d 7704 bdbc 86ca 143e 8f92 ffbc
00000080: d35a 91be 8614 b0be 0775 013e 46e7 af3e
00000090: 5c5c 863d d7b8 da3d b829 9b3c 85a8 983d
000000a0: 7c55 9fbe c911 66be d63d fcbd 3916 423e
000000b0: d136 07be ee3c a3bd cb98 543e 5286 40be
000000c0: 3385 823d 85ca 133e b06d 7c3e ead1 be3e
000000d0: 2e5d a83e af74 ecbc ce33 b93e f34d 843e
000000e0: bb53 7fbd 56fb 3a3e 4410 793e ef0f 35be
000000f0: 89ac 31be 35c9 143e 1d72 b63c 2a33 e5be
00000100: fb17 10be ea2b edbd 8890 e0be a71b 2dbd
00000110: 9e41 153d 62be f8bd 8b33 7ebd fb60 6f3c
00000120: 04e7 a23e cd14 103e 85a7 b7bd fd67 a13e
00000130: 359c dfbd e67a 4d3e f28c 4f3e dbd1 983d
00000140: 9d47 08be 9b82 19bd 492d be3e 239f 8a3d
00000150: 8794 e73c e360 87bd 19da a43c 1dea 00be
00000160: 5711 ffbc 1320 3d3e de12 f0bd 4e0d 50bd
00000170: 26a1 2f3e 2c52 96be 1f5f 6ebe ba35 37be
00000180: 575e 31be f7aa 1fbe 590b f43d 7784 363e
00000190: a047 423e bef7 7d3d 023e b0bc 079c a0bd
000001a0: 3bf6 f73d 88dd 8cba e5cc 2e3e 856d 83bc
000001b0: 56dc aa3e 8775 fc3d 2c22 e0bd fe2a 5a3e
000001c0: 87d8 423e 9393 b8bd 9b96 04bd c1a6 953e
000001d0: 9889 b53d afda 8a3c e421 923c f7c9 9b3e
000001e0: 249c 14be 83b2 433e 53da e63d f5f4 bd3c
000001f0: 2b86 6d3e 866c 783d 554b d53d 1100 f33c
00000200: 115b 013e f182 de3d a2b0 363e 148c 0e3e
00000210: 8083 903d a3c3 03be fb2d e2bd 8d9d 633e
00000220: 290e 173e 2e16 7b3e 021f 1dbe ff2a 4fbd
00000230: 322b ae3e 6279 91bd 3655 843d 5adc ee3c
00000240: 1c01 69be 0f42 223e f5b2 bbbe 47e0 4cbd
00000250: 4ff2 a33e 7deb c13e 5866 61bd 34d4 5f3e
00000260: 4fc0 b93d b887 14bd 7e86 453a 8a65 943d
00000270: 35a4 50be 8afb 02bd 2500 abbc b493 d23e
00000280: 5661 12be efdb 93bd bd0d 603e 6b5b b4bb
00000290: 5848 bfbc 8df2 bebc 71a8 603e 8f8e 893d
000002a0: 266a 813d ba75 26be 3ed4 84be 2000 723e
000002b0: b5bc 163d 28a7 95be 9c48 063b d104 473e
000002c0: b71e 873d 897d 80bd 768b 0c3d ecb2 64be
000002d0: ec2d bdbd 02af ea3d 7e28 113e 4ac2 533e
000002e0: 1da9 c13d 3cdc 313e 2d56 62bd 06b7 533e
000002f0: 9b50 c03e 4ba2 05be 8458 81bd d065 8b3c
00000300: be91 97ba f298 debd cdb2 053f 72b8 c8bd
00000310: 605c e3bb f575 f53e c55a 213e 5479 12bd
00000320: f710 f5be d742 863d de00 473d ac14 823d
00000330: 8b3b 1b3e 8e61 5c3e 3ea0 2cbd db79 c7bd
00000340: fa51 573e 7af2 213d 0379 a2be ac2b 91be
00000350: 1391 2a3d 34fd d7bd 1e90 92be adb8 eabb
00000360: c808 92bd 605f 93bb fe29 d73b 1fce 61bc
00000370: 86f4 33be 6dd0 553e 6097 f9bd 7cf3 6cbc
00000380: 092e 55bc 2139 7c3e cf76 0b3e 202c 073d
00000390: fd76 383e 3fec 953e 3cfc 593e 8252 d53d
000003a0: 45d8 133d 1f99 4fbe fee9 8bbd d597 17bf
000003b0: da55 c63e 0537 873e 825a abbd 81d4 a3ba
000003c0: f4e7 a33e c843 8ebb 85d5 d3bd a326 cb3e
000003d0: 5e48 16be 2cc4 3bbe 752a 993e 89b3 fb3d
000003e0: a031 193f 43f5 be3e 38d4 083e 3e0b 69be
000003f0: f42e 913c 2b93 2fbe 7ef0 c9bd e2cf 5f3d
-0.028215056 0.07514343 -0.10906391 0.032277986 -0.09567452 0.0539588 -0.012249231 0.17132388
0.06650501 -0.18895233 -0.102758855 -0.11178534 0.14301324 -0.009175883 -0.03814469 -0.083263434
0.0066593396 -0.393132 -0.2848006 0.05427109 0.12687385 0.014609741 -0.097290374 -0.41650254
0.09747996 0.16669466 -0.050499946 0.13655148 0.047951296 -0.023073418 0.14530382 -0.031197814
-0.28389606 -0.34390658 0.12642299 0.34356135 0.06560585 0.10679787 0.018940791 0.074540175
-0.31119907 -0.22467722 -0.12316482 0.1895379 -0.13204505 -0.07970606 0.20761411 -0.18801239
0.06373062 0.14432724 0.24651217 0.37269527 0.3288359 -0.028864233 0.36172336 0.2584072
-0.06233571 0.1825994 0.24322611 -0.1768186 -0.17350973 0.1452988 0.02227121 -0.44765598
-0.14071648 -0.115806416 -0.4386027 -0.0422627 0.03643953 -0.12145688 -0.062060874 0.014610524
0.31816876 0.14070435 -0.08967499 0.3152465 -0.10918466 0.20066413 0.2026861 0.07461902
-0.13308568 -0.03747807 0.37143925 0.06768634 0.028269066 -0.066102766 0.020123528 -0.12589307
-0.031136198 0.18469267 -0.11722349 -0.05079394 0.17151317 -0.29359567 -0.23278473 -0.17891589
-0.17321144 -0.15592562 0.11916227 0.17823969 0.18972635 0.062003843 -0.021513943 -0.0784226
0.121075116 -0.0010747174 0.17070349 -0.016043434 0.33371228 0.12327104 -0.10944018 0.21305463
0.19027911 -0.090125225 -0.03237019 0.29228786 0.088641346 0.01694998 0.017838426 0.30427524
-0.14512688 0.19111066 0.11272111 0.023188094 0.23195712 0.06065037 0.10414759 0.029663118
0.12632395 0.10864819 0.17840818 0.13920623 0.07056332 -0.12867598 -0.11043926 0.2222807
0.14751495 0.2452018 -0.1534386 -0.050578114 0.3401733 -0.0710323 0.06461565 0.029157806
-0.2275433 0.15845512 -0.3665997 -0.050018575 0.32020804 0.37874976 -0.055029243 0.21858293
0.09069883 -0.036262244 0.00075349945 0.072459295 -0.2037514 -0.031978168 -0.020874092 0.41128314
-0.14294943 -0.072196834 0.2188024 -0.005504062 -0.023349926 -0.023309017 0.21939255 0.06716644
0.06319074 -0.16255847 -0.25943178 0.2363286 0.03680106 -0.29229093 0.0020490056 0.19435431
0.06597655 -0.06273944 0.034312688 -0.22333878 -0.092372745 0.11459161 0.14175603 0.20679584
0.09456084 0.17369169 -0.055257965 0.20675287 0.37561497 -0.13050191 -0.06315711 0.017016321
-0.001156382 -0.10869016 0.52225953 -0.09800805 -0.006938502 0.47941557 0.15757282 -0.03576024
-0.47864506 0.065557174 0.04858481 0.06351599 0.15159433 0.21521589 -0.042145006 -0.09740039
0.21027365 0.039537884 -0.3173295 -0.28353631 0.04164226 -0.105463415 -0.28625578 -0.0071631283
-0.07130581 -0.0044974536 0.006566285 -0.013782053 -0.17573747 0.2088029 -0.121870756 -0.014462348
-0.013011464 0.24631168 0.1361954 0.033001065 0.1801414 0.29281804 0.21287626 0.10416128
0.036094923 -0.20273255 -0.0683174 -0.5921605 0.38737375 0.26409164 -0.08366872 -0.0012499244
0.32012904 -0.0043415762 -0.1034346 0.39677915 -0.14676043 -0.18336552 0.29915205 0.12290103
0.59841347 0.37296495 0.13362205 -0.22758195 0.017722584 -0.17145984 -0.09860323 0.054641612

lstm.bias_ih_l0 f4 [132]
00000000: 6050 e53d fd6f 41bc 26a9 2d3e 5f93 2a3e
00000010: 4ed4 8cbd 7678 ae3d fe01 303e 764c 35be
00000020: 2683 e33c b5b8 4b3d 7d86 353d 8547 3bbd
00000030: dad1 223e 4cad 1c3e 844e ed3c 97cb 513d
00000040: 4713 a53e 9562 9b3d 6228 8fbd dccc 4f3e
00000050: 4de1 e7bc 85ed d3bd db4e 633e db29 1abc
00000060: 2d4d 97bd 1d60 fd3d 6d83 713e 7050 223e
00000070: 98a6 7d3c 6338 b83c 5a2c 423e 6a6f f43d
00000080: ec0c 983c b4fd 3bbe b82d 05bd 7daf f7bd
00000090: 264b 233e c9f4 603e f2a1 113e dd42 11bd
000000a0: ce7b 603c 889d 403e a418 a5bc 680a d4bc
000000b0: 6026 cbbd 68ae 473d 9820 20bd 7f07 543c
000000c0: cde5 7c3d d8d8 6e3e d0f9 f63d 2fc3 0e3e
000000d0: 1e24 c23d 23f6 28be 1043 5ebd 3730 aa3c
000000e0: e43e a3bd f5a0 f9bc e1f4 b03d 68ae 543d
000000f0: b5d9 cfbc ce2b a83d cf74 f33c a330 f83d
00000100: 2dec 263e fa45 6fbd 95d0 1dbe 97e4 e9bd
00000110: 4b5a d83d 76ac 3ebd 3f32 c9bd 418f 8f3d
00000120: ffee dc3b 0ad0 1b3d a84e 663e a9a1 13be
00000130: bc6f 5d3d 54f8 023d 5b00 443e 6679 953d
00000140: d82e af3b 6786 0cbe c780 ec3d 7a3c 4c3c
00000150: 9d3b 17be 3d90 d73d e6dd 70bd f737 2a3d
00000160: 5a0b aa3d 5b57 62bc a7d2 853d fb36 4fbd
00000170: 3b1d 1d3e c3a5 42be 7f49 ffbd 2162 08be
00000180: 2d70 b83d 1a28 45bd e26f df3d ab32 de3d
00000190: 560e 693d 0c99 e33c 7bc8 353e 55db 69bd
000001a0: ea85 873d 6e1a cb3c edd5 f1bd d879 103e
000001b0: 34fa a13e bd11 bf3d a03d bb3d 1da9 2a3d
000001c0: 1fd0 233e 0078 e23e 3b94 0f3c cd90 3c3e
000001d0: eccc 933e 1395 823e f552 e83d 4cc2 923e
000001e0: 4d5b cdbd 7df1 263e 1925 60bd 35d6 dfbd
000001f0: 59ad e13c bc9e 573e 1e77 493e 01e3 733e
00000200: e308 103d 6ed9 7ebc 7878 95bd e480 453e
0.11196971 -0.011806485 0.16959056 0.1665778 -0.068764314 0.0851907 0.1718826 -0.17704949
0.027772497 0.049736697 0.04431771 -0.045722503 0.15900365 0.15300483 0.028968103 0.05121955
0.3224127 0.075871624 -0.06990124 0.20292991 -0.028305674 -0.10348038 0.2219805 -0.009409393
-0.07387767 0.12371848 0.23585291 0.15850997 0.015481614 0.022487825 0.18962231 0.11935313
0.01856085 -0.18358499 -0.032514304 -0.120940186 0.15946636 0.21968378 0.14221933 -0.035464156
0.013701392 0.18810093 -0.020153351 -0.025883868 -0.09919429 0.04875031 -0.039093584 0.01294124
0.061742593 0.23324907 0.12059367 0.13941644 0.09479545 -0.16500144 -0.054263175 0.020774944
-0.0797098 -0.030472258 0.08640457 0.05192414 -0.025372365 0.0821148 0.029718785 0.12118652
0.16301031 -0.058416344 -0.15411599 -0.11420553 0.10564097 -0.04655119 -0.09824037 0.070097454
0.0067423577 0.0380402 0.22490942 -0.14417137 0.054061636 0.031975105 0.1914076 0.072985455
0.0053461604 -0.13723145 0.11548 0.012465591 -0.14768834 0.10525558 -0.05880537 0.04155728
0.083029464 -0.0138147725 0.06534319 -0.050589543 0.15343182 -0.19008546 -0.1246519 -0.13318683
0.09005771 -0.048133947 0.10910012 0.10849508 0.056898437 0.02778294 0.17752258 -0.057093937
0.06617339 0.024792876 -0.11808381 0.1410898 0.31636202 0.09329555 0.091426134 0.041665185
0.1599736 0.44232178 0.008763368 0.18414612 0.2886728 0.2550436 0.11343948 0.28663862
-0.1002718 0.16303058 -0.05472288 -0.109295286 0.027548479 0.21056646 0.19674346 0.23817064
0.035164725 -0.015554769 -0.07298368 0.19287449

lstm.bias_hh_l0 f4 [132]
00000000: 2622 a5bd eeb8 883c 2ab1 a2bc cb19 b7bd
00000010: f2fc babd 881c 253e 1f33 de3d 2a81 32bd
00000020: f4b6 a83c 8e26 72bc fda7 4abd 2e22 323e
00000030: a1fa ddbc 26d6 1c3d e485 d13d 1a99 613d
00000040: 5cdb 1b3d 034b b23e 8f49 72bd dfd9 6a3c
00000050: 8366 243d 89b7 aebd 7ddf 783e 26e5 083e
00000060: 038e b8bd 19f9 9ebd 0683 1e3d ea5e 9bbb
00000070: 8d0d 3f3e 5739 3abc b41f 2c3e 9aa3 cbbd
00000080: 1670 b83d f750 bcbd ce21 2c3e 913c dbbd
00000090: 4e0b 4cbd cad3 bc3d 0b0a 3b3d be98 03be
000000a0: d70f 113e d4df fab9 96f4 d8bc 98ce e83d
000000b0: d4c0 adbd ca70 7a3e dd6e e1bd 7a01 4d3b
000000c0: d72d 283e 44db 643e 2a72 023e a3d2 4f3d
000000d0: 25f6 543e 7ac8 29bc 38f9 2b3e 09b7 1b3e
000000e0: d703 403e f9b1 003e 0dd2 0dbe 4624 8c3e
000000f0: 0838 713e 2e60 033e 6bf3 e23d 1270 943d
00000100: 2f14 43bd 2d52 193e 6088 c53c 7220 32bc
00000110: e44f cb3b 38a5 f1bd 73b5 423d bbb9 053e
00000120: 47db 913c 3a44 7c3e 6ee2 8a3c fdcb 5fbe
00000130: cff9 00be 3369 b8bd 5ffa f8bd 2814 bb3d
00000140: 272b 09be 8b2d 1fbe 89ae b0bd a8fd f83d
00000150: bb8c aebd 6665 37bd d0e2 c93d 0604 b1bd
00000160: 1ed1 8d3d 75d1 e63d 5a6a 363e b791 18be
00000170: 7b96 1b3e 24b7 8abd f049 b1bd 5cf0 e83c
00000180: 4ebf 0cbe 519c a3bd 0c16 163d df2c d43d
00000190: fd20 54ba f6c7 9cbd 0093 95bc ed95 773e
000001a0: 9402 31bd 997b 803e 6261 bebd f65f 0b3e
000001b0: 0251 8e3e b935 c13d ccca abbb c178 953c
000001c0: 1a91 fcbd a6c3 bc3e a3d7 2abc f9f5 393e
000001d0: 2ae4 8a3e 2043 413d 2a08 243e b897 843e
000001e0: 085f 273e 0f6b 443e 0dd7 713d b52d 09bd
000001f0: e810 72bd 303b 5a3e 4bd3 053d 777c 613e
00000200: c19b 743e 11b0 133d c3fa 343e 7f9e af3e
-0.08063154 0.016689744 -0.019859869 -0.089404665 -0.09130277 0.16124165 0.10849594 -0.04358021
0.020595051 -0.0147797 -0.049476612 0.17395851 -0.027097048 0.038290165 0.10230616 0.05507765
0.038050994 0.34822854 -0.059152182 0.014334171 0.040136825 -0.085311 0.24304004 0.13368663
-0.090114616 -0.07762355 0.038699172 -0.0047415392 0.18657513 -0.01136621 0.16808969 -0.09943314
0.09005754 -0.0919513 0.1680977 -0.107049115 -0.04981547 0.09220083 0.045663875 -0.12851235
0.14166199 -0.0004785048 -0.026483815 0.1136753 -0.08484045 0.24457088 -0.110074736 0.0031281398
0.16423737 0.22349268 0.12738863 0.05073799 0.20797022 -0.010362739 0.16794288 0.15206541
0.18751465 0.12567891 -0.1384966 0.27371424 0.2355653 0.12829658 0.110815845 0.07247938
-0.04762667 0.14972754 0.02411288 -0.010871993 0.006204592 -0.11799091 0.047536325 0.13059132
0.017804755 0.24635401 0.016953673 -0.21855159 -0.12595294 -0.0900444 -0.121571295 0.09134704
-0.13395368 -0.15544717 -0.0862704 0.12157756 -0.08522936 -0.044774435 0.09857714 -0.086433455
0.069246516 0.112704195 0.17814007 -0.14899336 0.15194122 -0.067732126 -0.086566806 0.028434925
-0.13744852 -0.07988799 0.03664212 0.10360121 -0.0008092074 -0.07655327 -0.018258572 0.24178286
-0.04321535 0.25094298 -0.09295918 0.13610825 0.2779618 0.09434075 -0.005242681 0.018246057
-0.123323634 0.36868018 -0.010427388 0.18160237 0.271272 0.047183156 0.1601874 0.25897002
0.16344845 0.19181465 0.05904298 -0.033490855 -0.059098154 0.2131164 0.032672208 0.22020136
0.2388754 0.036056582 0.17673783 0.3430061

lstm.weight_ih_l1 f4 [132, 33]
00000000: 09ca a93e 134a a03e 4ac0 8bbd 0e99 50bd
00000010: 91a8 4abe 249b 6abe 80ed e43e bffd a73e
00000020: 17e2 743e 3337 ef3d 6380 90be 44ae f9bd
00000030: 3607 8c3c b0c2 023d a8d6 1f3e aff0 dcbd
00000040: b633 2abc c37f e23c 6481 43be 0731 8fbe
00000050: cba3 00bf 6a7c b7bd f5f0 d6bd 169c 8c3e
00000060: 6975 56bd 3131 393d ecac a2bd d9a3 863d
00000070: 323a 2e3e 441b 893b 0460 563e cca2 a43d
00000080: 5934 b83d aed0 f83d 2c20 a73e 5e14 923e
00000090: 8861 b2bd e150 7a3e 378c 3abe c957 13bd
000000a0: 6f09 19be 4bc3 583e 6342 863e 19dc 1e3e
000000b0: 5a9c c93e 3373 343d ddfc e7bd 41cf d83e
000000c0: db65 8abd 88ae 5b3e 698a 4bbe 5740 3dbd
000000d0: 9e64 eb3d 5904 56bd 720e 72be ca98 9c3d
000000e0: c1c6 4a3e ae46 8e3e b33b 7cbe 3c82 6cbc
000000f0: d67a 133d e1ac 85be f0ef 91be b6ee 90bd
00000100: 7f2a c23d 0907 1dbb c04e c83a af6d a9bd
00000110: 8959 bc3e bb57 1e3e 11b8 cb3e 04a2 e5bd
00000120: e79c 20be eabb 79bc d1d5 25bc 71d5 563e
00000130: e672 dfbc 888b 12bd eb29 693c a3da 6d3e
00000140: 5792 84bc 38d6 d13d b7f5 183e 0837 cb3c
00000150: 3c10 fbbd 220a 71be f4ea 96be e021 54be
00000160: 69bf 7e3d aabf 31be 42cf d33b fbc0 173e
00000170: 81b9 c53d 8cee f63d 6f09 38be e30a 453e
00000180: acb3 8b3c c010 d1be 3c90 e03d aeff 343e
00000190: c04a 703d bd0e 113e 8c49 99bb bc5b 793e
000001a0: 4596 df3d 34f7 7ebd 7d1c d03e 75af f23c
000001b0: 34a5 2c3e 66e9 acbb b0c3 873e b35f 12bc
000001c0: 005e bb3c 7af5 23bd 2b14 e03d f6b1 163e
000001d0: b106 fe3c d545 81be 391b 3f3e ec49 8dbc
000001e0: 9bf4 fd3d bf08 bdbd 6168 0b3d a372 9c3b
000001f0: c6a6 713d 3534 873e 4b28 613e 4de4 d6bb
00000200: 1ce9 16bd 3d1e b53e c436 113e 942b 23bc
00000210: 3be7 8bbe 7354 fc3d df7d 6cbd cc5f a83d
00000220: 80f7 443e 8900 1cbe ac89 5a3e f907 da3d
00000230: 2a14 013e d8b6 b4bd b041 b73c 7a5f f6bc
00000240: bcdd fcbc accb 523b 53e4 173d 232a 27be
00000250: 99a2 023e 309b 65be 0d8a 91be 8f16 d53b
00000260: c30d a63d 25bf 463e 3aee bc3d a621 df3d
00000270: 54d3 733e a6d3 813d d6d8 6c3e c4df c4bc
00000280: c54a e53d 9944 b3be 6d61 babe f9c5 013e
00000290: 9868 3bbe 9df2 013d f03e 443e 478f b83e
000002a0: 45f1 a63e 69c4 27bd 6eab d3bd 16c7 d13e
000002b0: 565f 283e b10f 9abd 0e70 013e 3850 0a3f
000002c0: d65a 6b3d 5f76 39be 039a 443e 99fe 97be
000002d0: 2d93 9a3d f2f6 99bd 3403 16bd 821e a4bd
000002e0: d761 f73c 0088 89bd 2122 453e 22ee e33c
000002f0: 07ca a83d 361e 33be 9178 a33d f070 6e3e
00000300: b335 3e3d 521d ee3d c99e 27be ba5c 9f3e
00000310: 98b9 95be 394a 0f3e 5987 2f3d 83eb a43d
00000320: 0e09 8b3d 2d10 94be 2745 013e ec6e 02be
00000330: 8ae0 b7be 3dc6 483d 663e 9c3a 9ff5 59bc
00000340: 2cb7 d43b 09c1 e93d c5e1 9bbe fbf5 9cbd
00000350: ee2f 2abe c885 d6bd 5c28 72bd 04eb 40bd
00000360: a5df 2dbe 2af0 b4bd 0498 1bbe 6e35 433e
00000370: 738e bdbe f78f 58be 72f2 433d 6d68 353e
00000380: a59c 573e 4d83 c83d 1d84 493e d147 7b3d
00000390: df8e 8bbe d0bf b13e 0faa 8c3d 3c20 6b3e
000003a0: dda8 003e 10a5 a73e a555 96bc 0fec 9a3e
000003b0: 762b 553d 4476 c13e 3f01 f33b 288b 17be
000003c0: ef64 953e 5b19 1bbd 7e68 b8bb 7a25 79be
000003d0: 8da9 973e f928 1abd a8c4 6f3d f0cc 55bc
000003e0: e177 d53d 08b6 8a3d 43ba 53bd 2597 22be
000003f0: 40e9 203e 9a5f 013e 63e3 863d 1f37 36be
0.33161953 0.31306514 -0.068237856 -0.050927214 -0.19790865 -0.22910744 0.44712448 0.3281078
0.23914371 0.1168045 -0.2822295 -0.12191442 0.017093282 0.03192395 0.15609229 -0.10788094
-0.010388305 0.027648812 -0.19092327 -0.27967092 -0.5024993 -0.08959277 -0.10495178 0.27462834
-0.052358065 0.04521293 -0.079431385 0.0657422 0.17014387 0.0041841585 0.20935065 0.080388635
0.089943595 0.121491775 0.32641733 0.28531164 -0.08710009 0.24444915 -0.1821755 -0.03597239
-0.14945005 0.21168248 0.26222524 0.15513648 0.393771 0.044055175 -0.11327527 0.42345622
-0.06757709 0.21453297 -0.19877018 -0.046203937 0.114938006 -0.05225024 -0.23638323 0.0764633
0.19802381 0.277883 -0.24632148 -0.014435347 0.036005817 -0.2610846 -0.2850337 -0.070767805
0.09480762 -0.0023960492 0.0015282258 -0.082728736 0.3678706 0.15463154 0.3978887 -0.11212543
-0.15684853 -0.015242556 -0.010121779 0.20979859 -0.027276468 -0.0357776 0.014231185 0.23227935
-0.016183062 0.10245937 0.14937483 0.024806514 -0.12258956 -0.23539022 -0.2947613 -0.20716047
0.06219426 -0.1735827 0.006463916 0.1481971 0.09654523 0.12057218 -0.17972349 0.19242434
0.017053448 -0.40833092 0.109650105 0.17675659 0.058665037 0.14165778 -0.004677957 0.243514
0.109173335 -0.06224747 0.40646735 0.02962468 0.16859895 -0.0052768467 0.26516485 -0.008933949
0.022871971 -0.040029027 0.10941347 0.14716324 0.03100905 -0.2524859 0.18662728 -0.017247163
0.124001704 -0.09230184 0.03403509 0.004774408 0.05899694 0.26407018 0.21988027 -0.0065579773
-0.036843404 0.35374632 0.14181048 -0.00995912 -0.27324852 0.12320795 -0.057737228 0.08221397
0.19235039 -0.15234579 0.2134158 0.10646052 0.12605348 -0.08823937 0.02237019 -0.030074824
-0.03086745 0.0032164855 0.03708298 -0.16324668 0.12757339 -0.2242248 -0.28425637 0.0065029333
0.081080936 0.19408853 0.092251256 0.1089509 0.23811084 0.06339197 0.23129591 -0.024032481
0.11195902 -0.35013273 -0.36402455 0.12673177 -0.18301618 0.031725515 0.19164634 0.36046812
0.3260595 -0.040958796 -0.10335432 0.40972203 0.16442618 -0.07522524 0.12640402 0.54028654
0.057459675 -0.18111561 0.19199376 -0.2968643 0.07547603 -0.07517804 -0.03662415 -0.080136314
0.03019802 -0.06715393 0.192513 0.027823512 0.08241659 -0.17491993 0.079819806 0.2328527
0.04643793 0.11626686 -0.16369165 0.31125432 -0.2924316 0.13993157 0.042853687 0.08052733
0.067888364 -0.2891859 0.12624036 -0.12737626 -0.35913497 0.04901718 0.0011920452 -0.01330319
0.0064915624 0.11413772 -0.30445686 -0.076641046 -0.16619846 -0.104747355 -0.05912052 -0.04709913
-0.16979845 -0.0883487 -0.15194708 0.1906335 -0.37022743 -0.21148668 0.047838636 0.17715617
0.21055849 0.09790669 0.19679303 0.061347786 -0.2725744 0.34716654 0.068683736 0.22961515
0.12564416 0.3274312 -0.018351385 0.30258223 0.0520434 0.37785542 0.00741592 -0.14799178
0.2917857 -0.037865978 -0.005627691 -0.24330702 0.29621544 -0.03763673 0.058537155 -0.013049349
0.10423256 0.06773001 -0.051691305 -0.1587797 0.15713978 0.12634125 0.06586339 -0.17794465

lstm.weight_hh_l1 f4 [132, 33]
00000000: 0d3c 12bb d64b 4fbe 8a09 383e 980b bb3e
00000010: 6d4a 333e 4531 c33c 87d3 52be 3607 d13d
00000020: f2b3 1b3e a2f8 8abc 6fa9 6a3d 3cdc 103e
00000030: e93a d9bc 3f55 74be eb74 b53d a3ef 953d
00000040: 3cce 983d 1e43 c9bd bb1a 473e 0296 2fbe
00000050: b352 8c3d de32 1fbe 5f78 863e 3353 303b
00000060: 28a0 23be 45c3 793e 1bec c6bd 2a1b 5dbe
00000070: 7caa 693d 40ca dbbc 7c55 a33d cd26 943e
00000080: 9bdb 8b3d ed1a 123e cba4 33bd f8e2 a1bd
00000090: de99 073e 8b13 05be adbc 1c3f 8a21 d3bd
000000a0: d671 c8be 1a20 183e 4e53 76be 22aa 53bd
000000b0: e9f1 36be 69cb 3dbe c59d 22bd cd03 133d
000000c0: 2f17 9d3d 218d 523e 667a 2ebe efb6 ac3d
000000d0: 999d e9bc 0a06 6c3d e970 3fbe cef0 353d
000000e0: aa8f ba3d 70ba a63d bb12 adbc 647c 93bd
000000f0: 26db 5bbe ebc5 3fbe 3b3b 593e 74c7 483b
00000100: 2ea9 d03d b5f0 703e 11f1 c63d f670 01bc
00000110: f6fa 3dbd c7fe 203e ce67 9a3d d3e9 21be
00000120: 1a6c 21be a9d3 db3d c5c1 ba3e 66fb 1e3a
00000130: 3ba9 16bd 317a 8cbe d665 503e 23e6 cebd
00000140: 9445 4dbd bbaf edbc 7d26 8c3e 8da4 b13d
00000150: 3342 bfbd 5201 d33d be06 193d af19 cebc
00000160: 6ba4 a0bd a3a8 74bb 29d6 d4bd e843 323e
00000170: fbe7 803e 34af 6d3c 23e0 e93c dc15 833e
00000180: 43eb d03c 2671 0bbd a68e 623c 4bb3 48bd
00000190: ae93 44be e8f7 ab3e 6589 99bd 7f52 8f3d
000001a0: ddbc 013f 4004 503c 19e8 35be 0e23 583e
000001b0: ccb8 323e 0582 abbe f0e0 3fbe fdd0 48be
000001c0: a6dd 0cbe bb94 693e 2e0d eb3e a9cb 933e
000001d0: 457f b8b9 eb5f 8b3e df2b 803e 0050 49bd
000001e0: 4d77 073e 1440 083d 3b53 ffbd 52e2 a43c
000001f0: 8ba2 e6bc 81c8 313e 0ed2 1cbf 4ff0 82bc
00000200: 3870 893d 3a88 b5bc 9ad0 c33d 5b6f 873e
00000210: 6171 e73c 4242 9f3e 074d 96bd dc6f 98be
00000220: 6ee5 34be e35e dfbc 1a57 b1be 9e30 58be
00000230: 4b03 053e 554f ff3c 950d 7dbd a3ba 81bd
00000240: acd0 e5be 5cf5 233e 7f2c d9bd 1fb9 713d
00000250: 7cc3 c03e 28a1 cf3e 59d5 81be 7962 493e
00000260: 96a6 013e 535e 95be edc8 923c cafc 11be
00000270: 68e6 c0bd 66a8 1a3e decc 963e 0d26 4f3d
00000280: 8fc8 00bd 0167 c93d 6db2 e23d 6e1a 2f3e
00000290: c00d a13d 69ca 763e 7c32 a3bc 7f1f 85be
000002a0: 65f4 05be ad0d e0bd 15ea 573d fce1 cbbd
000002b0: 61a2 823e 84df 8f3d c96e bebc 20c9 babe
000002c0: b460 4abc df7d 913c 100a 1d3c e406 8fbd
000002d0: 1fa4 35be a5e7 bfbd 92e0 c33d 375d 58be
000002e0: 7e05 8c3e d097 383e 9e3f c2bd 6d6a 6abd
000002f0: bb1b 893b 9719 b03c 2c31 7abc 59e4 413e
00000300: 9bcf 40be 9816 01bc 4366 973d 5b65 f63d
00000310: 9a8b 2c3e 73a6 103d 4189 ef3d 5dd5 7a3e
00000320: b9d2 0c3e 38bf b7bd 7f66 183e f4bc 513d
00000330: 741a 97bc 4ae2 b5bc 5175 793d 27d3 443c
00000340: ad68 4ebe 7951 183e 61d0 4cbe ee58 5f3d
00000350: 8adf 8d3d 79bd fc3d 3e5b 9d3e fa4a 143e
00000360: f982 44bd 4b85 0c3f 12a0 bcbd d83c 253e
00000370: d997 95bd f864 33be 7b22 17be 1f69 ebbb
00000380: 633f 073e 1247 90be e48f 80bc f5af ccbd
00000390: 451a f83d 3d71 f4bd 79c5 0c3e 4e5e 5c3e
000003a0: c910 9bbd 075e 793e de89 34bd b4d2 d9bd
000003b0: 1e80 c83e 17a9 55be 0e33 a8bc ed85 31bd
000003c0: d85a 7dbe 93cd 5cbe 7a73 a73c 772c 40be
000003d0: 5f3b a73e f86c 8bbe 9f5e 533d c9a5 e23b
000003e0: 67bd 74bd 5e4a 30bd e848 b8bc 792c bdba
000003f0: 2247 ccbd c0a4 1bbd 6c59 d23e 91f5 cebd
-0.0022313625 -0.20243773 0.17972389 0.36532283 0.1750886 0.023827204 -0.20588504 0.102064535
0.15205362 -0.01696426 0.05729049 0.14146513 -0.026517348 -0.23860644 0.08860191 0.07321098
0.07461211 -0.09827255 0.1944379 -0.17147067 0.06851711 -0.15546748 0.2626371 0.002690506
-0.15979064 0.24390896 -0.09713002 -0.21592394 0.057047352 -0.026829839 0.07975289 0.28935853
0.06828996 0.14268084 -0.04385833 -0.07904619 0.1324229 -0.12995736 0.61225396 -0.103091314
-0.3914935 0.14855996 -0.24055216 -0.051675923 -0.17865719 -0.18534626 -0.039701242 0.035892297
0.076704375 0.20561649 -0.17038879 0.08433329 -0.028517531 0.057622947 -0.18695416 0.044419102
0.09109433 0.08141029 -0.021127095 -0.0720146 -0.21470317 -0.18727843 0.21214001 0.0030636461
0.101885185 0.23529322 0.097139485 -0.007900467 -0.046381913 0.1572219 0.075393304 -0.15811853
-0.15763894 0.1073373 0.3647596 0.0006064683 -0.036782485 -0.27436975 0.20351347 -0.10102489
-0.050115183 -0.029014459 0.27373114 0.08673964 -0.093387984 0.10302986 0.037359945 -0.025158731
-0.0784386 -0.003733196 -0.1039241 0.17408717 0.25176987 0.014507104 0.02854926 0.25602615
0.025502807 -0.034043454 0.013827955 -0.048999112 -0.1919696 0.33587575 -0.07496909 0.06998157
0.5067881 0.012696326 -0.1776432 0.21107122 0.17453307 -0.33497635 -0.1873815 -0.19610973
-0.13756427 0.22810642 0.45908493 0.28866318 -0.00035190038 0.27221617 0.2503347 -0.04914856
0.13229103 0.033264235 -0.12467047 0.02012745 -0.028153678 0.17361642 -0.6125802 -0.015983729
0.06710857 -0.022159684 0.09561272 0.26452145 0.028252305 0.31105238 -0.073389105 -0.29772842
-0.17665645 -0.027266925 -0.34636766 -0.21112296 0.12989537 0.031165758 -0.06178053 -0.06334426
-0.44885767 0.16011566 -0.1060419 0.059014436 0.37649143 0.4055264 -0.25358084 0.1966647
0.12661204 -0.29173526 0.017918075 -0.14256588 -0.094189465 0.15103301 0.29453176 0.050573397
-0.031441268 0.098340996 0.11069188 0.17099926 0.07863951 0.24100651 -0.019921534 -0.26000592
-0.1308151 -0.109401084 0.052713472 -0.099552125 0.2551451 0.07025054 -0.023246186 -0.3648157
-0.012352157 0.017760215 0.009584919 -0.06983736 -0.17738388 -0.093703546 0.09564318 -0.21129309
0.2734794 0.18026662 -0.0948479 -0.0572304 0.004184214 0.021496577 -0.015270513 0.18934764
-0.18829195 -0.007878922 0.07392552 0.12031051 0.16850129 0.03531499 0.11696101 0.24495454
0.1375226 -0.08972019 0.14882849 0.05120559 -0.018445231 -0.02220263 0.060902897 0.012013233
-0.20157118 0.1487483 -0.20001365 0.05452817 0.06927402 0.123408265 0.30733675 0.14481726
-0.047976468 0.5489089 -0.092102185 0.16136491 -0.07304353 -0.17518985 -0.14759247 -0.0071841623
0.13207774 -0.28179222 -0.015693612 -0.09994499 0.121143855 -0.11935661 0.13747205 0.2152035
-0.07571561 0.24352275 -0.044076793 -0.106358916 0.39160246 -0.20865284 -0.020532157 -0.043340612
-0.24741685 -0.21562795 0.020440806 -0.18766962 0.32662484 -0.27231574 0.05160391 0.006916736
-0.05975094 -0.043039672 -0.022495702 -0.001443281 -0.09974505 -0.037998915 0.41083848 -0.10105432

lstm.bias_ih_l1 f4 [132]
00000000: 162c 3f3d d9e5 be3d 84ec 973d 522c 3c3e
00000010: 4ffc 5cbd b090 8e3e 7af2 923d 4f1b 9d3e
00000020: a813 a03e 6469 bc3e 2766 903d 9eb9 c83d
00000030: 8650 bb3e 2476 ae3e 4845 9bbd 59c6 d13e
00000040: a0a1 823e 2bc9 cc3c a49a d73e 3875 c73d
00000050: 7bc7 393e 89a7 ec3d 014b f13d a7d6 9b3e
00000060: c77d b03e 2ad2 683d 3527 2a3e e1a8 d23e
00000070: 2ef8 153e cfcf 373d c73f 9d3e 4cb7 fdbd
00000080: c88f 78bd 16cf cc3d 1459 233e a653 b93d
00000090: 7f02 0e3e 89db f23d 2d1a 973d 3941 4ebd
000000a0: 009f cf3c 9d59 64bc d2a4 afbd 9b60 0ebd
000000b0: 5384 4a3c 92ad 9f3e dbf5 9d3d 8e45 fdbc
000000c0: 6576 bd3d 061e f23d 9a94 333d bb7a aa3b
000000d0: bd8a 9f3d 9bb8 8d3d a5b8 533e 0278 c53c
000000e0: a985 f7bc 4555 fe3d f8f5 4b3e e820 d13d
000000f0: 8de6 b53d 82db 17bd 8b9e 413e 9bb5 ebbd
00000100: c052 193e eef4 063e 3a47 193d 0434 13bd
00000110: 4bb7 b93d 8873 223c 7f42 eabc 7d29 93bd
00000120: e80e 69be 782f 093d 1cb2 e03c da04 473c
00000130: 0127 263e fa19 263e aad7 d6bd 72ca e93d
00000140: 5571 583d d37e 123e 06bc 9abd 0284 d63d
00000150: c0fa 16be 4607 c03d 1551 14bd 1dc0 c83c
00000160: d814 173e 909c 483d b99b e13d fca3 2bbc
00000170: 2f7b b0bd cfd0 a8bc 6c71 0f3e 3e38 f0bd
00000180: 50dc 2dbd 2045 1cbc cd22 2a3e e3a5 41bd
00000190: 188d ef3c d4c3 b43d 32f6 783e 2928 883e
000001a0: e9b2 433d dd20 3a3e ea4f 483e 007c f53d
000001b0: fbdc e13e 6e8a 883e a98c bd3e 35ef e73d
000001c0: 38a0 00bd 71cd 273e 72cd d03e 2413 e73c
000001d0: 61aa cf3d 775a 163e dac6 203e 545c f03d
000001e0: c70e a4bd 100c babd 430c 833e e4ac a73e
000001f0: f22f 6e3e 7746 1b3d 0ad6 e13e 7e90 d43e
00000200: 1ad4 873e dfa6 ac3e 1b6e a3bc 026e 733d
0.046672903 0.09321184 0.07418159 0.18376282 -0.053951558 0.27844763 0.07175155 0.30684897
0.31264997 0.36799157 0.07050734 0.09801029 0.36584872 0.3407451 -0.07581574 0.4097164
0.25513935 0.024998268 0.4211017 0.097391546 0.18142502 0.11555392 0.11781884 0.30437204
0.3447096 0.056841053 0.16616519 0.4114447 0.14645454 0.044875916 0.3071272 -0.12388477
-0.060683995 0.10000436 0.1595195 0.09049158 0.1386814 0.11858279 0.073780395 -0.05035517
0.025344372 -0.013937381 -0.08576359 -0.0347601 0.01236065 0.3118711 0.07712909 -0.030916955
0.092510976 0.11822133 0.04384289 0.005202619 0.07790134 0.06919976 0.20675905 0.024105076
-0.030215101 0.124186076 0.19918048 0.102113545 0.08881865 -0.037074573 0.18908136 -0.11509248
0.14972973 0.13179371 0.037421443 -0.035938278 0.090681635 0.00991524 -0.028596161 -0.07185648
-0.22759593 0.033492535 0.02742868 0.012147153 0.16225816 0.16220847 -0.104903534 0.114155665
0.052842457 0.14306192 -0.07555394 0.10474397 -0.14744091 0.09376387 -0.03621014 0.02450567
0.14754045 0.048977435 0.1101603 -0.010476109 -0.086172454 -0.02060738 0.14008111 -0.11729477
-0.042446434 -0.009537965 0.16614838 -0.047277343 0.029242083 0.08826414 0.24312666 0.2659314
0.047778044 0.18176599 0.19561735 0.11986542 0.44113907 0.26668113 0.37021378 0.11324922
-0.031402797 0.16386963 0.40781742 0.02820737 0.10139919 0.14682947 0.15700856 0.1173636
-0.08010631 -0.09084332 0.25595292 0.32749093 0.23260477 0.037908997 0.4410861 0.4151649
0.26529008 0.33721063 -0.019949963 0.059431084
