trained_models/55.pth (torch, 269650 bytes, 21 tensors)

cnn.0.weight f4 [32, 11, 4]
000000 be f4 80 3c 85 25 b6 bd 96 fb 00 be 81 95 db bd
       0.015741702 -0.08893875 -0.12595972 -0.10721875
000010 86 93 b1 bd 2e 9e 93 3d e5 83 f0 bd 94 a1 84 bd
       -0.08670716 0.07207905 -0.11743907 -0.06476131
000020 48 8a 71 bc 95 d1 d8 3d be 6b 60 3e 26 4c 2a bd
       -0.0147424415 0.105868496 0.219161 -0.041576527
000030 ca e3 02 3e fe 96 43 3e f7 b9 ba 3d d0 f4 2d bd
       0.12782207 0.19100568 0.09117501 -0.0424698
000040 2f 46 7d bb 9c e1 bf 3c f8 d2 87 be fe 74 4f be
       -0.003864657 0.023423009 -0.26528144 -0.20259473
000050 96 0b 31 3e 33 5a f8 3d 35 51 2c 3d dc d4 59 3d
       0.17289576 0.12126579 0.042069633 0.053181514
000060 06 7f d2 bc 16 ab 8a be 83 37 5e 3a 1b 04 7c 3e
       -0.025695335 -0.27083653 0.00084769 0.24610941
000070 57 65 d8 3e d6 3b de 3c a5 17 30 3e c1 78 ed 3d
       0.42264816 0.027128141 0.1719652 0.115952976
000080 d5 39 0d 3f 58 27 13 3f 36 7d 8a bd 45 d6 6a be
       0.5516637 0.5748191 -0.06762163 -0.229333
000090 ef 99 85 3c 58 7f b3 3e 47 ac f1 3e 3b 4d 12 3f
       0.016308753 0.35058093 0.4720175 0.57149094
0000a0 00 76 7b be 93 fe d2 be 13 f1 b7 be 35 e4 5a bd
       -0.24556732 -0.4120985 -0.35926113 -0.05344029
0000b0 ba d5 01 3d 52 c6 fe bd 60 77 03 3d f4 1d b4 3d
       0.031697966 -0.1244017 0.032096267 0.087947756
0000c0 52 20 d8 bd d2 c4 42 3d 84 7d 82 bd ae d8 5f bd
       -0.105530396 0.047550984 -0.063715965 -0.05465
0000d0 2b 9d 8e be 6d 1c 27 3b 03 ef b7 3e c9 17 30 bd
       -0.27854285 0.002549912 0.3592454 -0.042991433
0000e0 8b cc 3f be 70 73 c1 bd 25 03 1f be 7c 57 a9 bd
       -0.1873037 -0.09445846 -0.15528543 -0.082686394
0000f0 ec c7 ef 3d 8a 54 1f 3e 4d fc 96 be 4b 5d 75 be
       0.11708054 0.15559593 -0.29489365 -0.2396137
000100 3d 80 de 3e bc d0 81 3e 32 d6 bd be 8a 0a 46 be
       0.43457213 0.25354564 -0.3707748 -0.19339958
000110 49 f7 c8 3c 69 b7 68 be 40 eb 05 be b1 73 e1 be
       0.024531977 -0.22726215 -0.13078022 -0.44033578
000120 19 b6 0b be e9 0f fb 3e a9 df 19 3f 88 28 96 bd
       -0.13643683 0.49035576 0.60106903 -0.073319495
000130 bf 73 a5 be 97 b9 6a 3c 11 e3 92 3d fa 36 a6 3e
       -0.3231487 0.014326475 0.07172216 0.3246382
000140 95 b8 82 3e bf 84 30 3e 64 ff 6c 3d 1e b0 7d be
       0.2553145 0.17238139 0.057860747 -0.24774215
000150 35 15 5a bf ab ed 29 bf c5 47 6b be 36 d7 13 3e
       -0.8518861 -0.6637828 -0.22976597 0.14437565
000160 83 69 22 bc d3 63 87 bc 7e 37 f0 bd 26 fb c7 3d
       -0.009912851 -0.016527092 -0.11729334 0.097647
000170 73 80 fa bd 9f 2b 5a bd b0 0a 5c 3c ed 2d ac 3d
       -0.12231531 -0.053264257 0.0134302825 0.08407197
000180 52 16 96 bc 23 d1 07 be e5 11 a1 bd 6c 40 3c bd
       -0.01832119 -0.13263373 -0.07864741 -0.045959875
000190 0b 73 18 bf c9 ff 1d bf 70 f0 8d be 08 b8 44 3e
       -0.5955054 -0.6171842 -0.27722502 0.19210827
0001a0 fe 10 a6 be fd f3 59 be 57 74 2e be 8a f2 26 be
       -0.3243484 -0.2128448 -0.17036568 -0.16303459
0001b0 ff 44 0b be 9b 4f 14 bd d8 41 6c bb 17 c1 90 bd
       -0.13600539 -0.03620873 -0.0036049988 -0.07068079
0001c0 13 95 c4 3d de c6 c1 be b9 77 30 bf bc 9f fe be
       0.09598746 -0.37847036 -0.6893268 -0.49731243
0001d0 55 71 ea bd 16 0e 95 3e fb 34 af be dd c1 01 bf
       -0.114473976 0.2911231 -0.34220108 -0.50686437
0001e0 a8 f5 49 3f bb 33 20 3f a6 a8 08 3f 38 68 2d 3f
       0.78890467 0.62578934 0.5338234 0.6773715
0001f0 92 69 0e 3e 31 22 26 be bd cd 69 bd 1a c9 09 bf
       0.1390746 -0.1622398 -0.057080973 -0.5382248
000200 90 a1 a4 bd 51 f7 08 bf f6 74 7f bd 7a 20 b1 be
       -0.08038628 -0.53502375 -0.062367402 -0.3459509
000210 87 11 a3 3c 3a a8 bb 3d 7e 87 77 bd f8 8b 02 3e
       0.019905819 0.09162946 -0.06043195 0.12748706
000220 a5 a7 79 bd fb 9b 38 3d e2 53 97 bd 95 a6 08 3e
       -0.060950894 0.04507063 -0.07389046 0.13344796
000230 2f 82 21 3e 2d 7d 17 be 75 19 0c 3d 04 ad 45 be
       0.15772317 -0.14793845 0.034203965 -0.19304281
000240 04 4e 91 be 25 0c dc be b1 34 f7 be 80 33 03 bf
       -0.28379834 -0.42978016 -0.48282388 -0.5125046
000250 fa b7 82 be 0b 86 a2 be dd 84 84 be 02 a0 19 be
       -0.25530988 -0.31742892 -0.25882617 -0.15002444
000260 69 eb 49 be 44 84 6b be 9a 62 0f be a8 38 f8 3c
       -0.19718708 -0.22999674 -0.14002457 0.030300453
000270 a5 6f 80 3e e6 2c 4c 3d 4d b5 9a 3b e9 5a e6 bd
       0.25085178 0.049847506 0.00472132 -0.112478085
000280 b4 73 8e be 69 ee b5 be 9a 97 a3 be 1c cc c5 be
       -0.2782265 -0.35533455 -0.319516 -0.38632286
000290 6c ef 44 3e d2 22 29 bf a1 4e 4b bf 09 c6 22 bf
       0.19231957 -0.66068757 -0.79416853 -0.6358343
0002a0 00 cd af be 65 f1 8b 3c 65 9b 25 be 7e a4 f2 bc
       -0.3433609 0.01708288 -0.1617256 -0.029619452
0002b0 1b 49 39 be 05 2c 5f be a3 bb e4 3d d7 ae 39 3d
       -0.18094294 -0.21794136 0.11168601 0.045332756
0002c0 a8 c0 0b bd ea bd ee bd d5 34 d2 bd e7 32 53 3d
       -0.03411928 -0.11657317 -0.10263983 0.051562216
0002d0 a9 01 01 3e 25 30 88 bd c7 32 ce 3d 3c 25 18 3b
       0.1259829 -0.06649808 0.10068279 0.0023215553
0002e0 f5 60 b9 be ec 9e 2a be 59 a2 d5 be 54 87 85 be
       -0.36206785 -0.16662186 -0.41725424 -0.2607981
0002f0 5c 28 cf be 30 15 f3 be e5 d1 22 bf 56 30 02 bf
       -0.4046048 -0.47477102 -0.63601524 -0.50855005
000300 7e 05 ae 3d ad 10 ca 3d e0 31 89 ba 92 b5 83 3b
       0.08497141 0.09866462 -0.0010467134 0.0040194476
000310 2f 73 52 3e b9 6b 26 3e 88 55 d3 3d 48 68 44 bc
       0.20551752 0.1625203 0.10319048 -0.011987753
000320 4a 54 d1 3e ab eb df 3e 66 23 07 3f 54 94 df 3d
       0.4088462 0.43734488 0.5278839 0.10916963
000330 84 53 16 be 7c 32 0f 3c 8b c7 6b bc 61 80 68 bd
       -0.14680296 0.008740064 -0.0143908365 -0.056763057
000340 c7 01 9c 3d 88 dd 19 3e 43 3c 79 3d 55 ba 91 3d
       0.076175265 0.15025914 0.060848486 0.07115618
000350 68 ef 9c be 62 be a5 bd 67 61 21 3e 8f 93 9e 3d
       -0.30651402 -0.08092953 0.15759812 0.07742988
000360 2b 49 55 3b 2a 71 52 3e de 95 cf 3d b1 31 82 3e
       0.0032544832 0.20550981 0.10136007 0.25428537
000370 95 d1 b6 bd 26 2f 6d 3d 3e eb e8 bd eb 29 93 bd
       -0.08926693 0.057906292 -0.11372994 -0.071857296
000380 64 34 fd 3d 02 02 f3 bc 2d 97 08 3d fe 8d 07 be
       0.12363508 -0.029664043 0.033347297 -0.1323776
000390 4f f4 70 3e 1f 88 3b 3e 35 bc c8 3d 79 c7 09 3e
       0.23530696 0.18313645 0.09801523 0.13454999
0003a0 22 f3 1a 3f d0 f3 08 3f 49 10 0d 3c 5b 43 3b be
       0.6052724 0.5349703 0.00860984 -0.18287413
0003b0 28 33 93 3e f7 81 e5 bd 99 db ba be c9 5d 5f be
       0.28749967 -0.112064295 -0.36495665 -0.2181312
0003c0 8d 08 ba 3e f7 3e 73 bd 5f 9b aa bd db 86 17 be
       0.3633465 -0.05938622 -0.08330416 -0.14797537
0003d0 6e 4c 84 bb ba bb eb 3b c9 ac 33 3d d1 e3 99 be
       -0.0040374314 0.0071940096 0.043865953 -0.30056623
0003e0 c4 49 29 3f 0e c3 36 3e 86 4f d8 bd d8 60 b0 be
       0.6612818 0.17847845 -0.10562043 -0.34448886
0003f0 3a e2 71 bd b2 5b 22 be f3 7b 11 3e 66 dc c2 3e
       -0.059053637 -0.15855291 0.14207439 0.38058776

cnn.0.bias f4 [32]
000000 c7 24 c7 be d8 5e 11 bf 06 bd 72 be 0b 03 90 be
       -0.38895246 -0.56785345 -0.23704919 -0.28127322
000010 94 a5 33 bc df ab 43 bf c0 c4 1f bf 77 45 b3 be
       -0.01096477 -0.7643413 -0.6240959 -0.35013935
000020 c9 77 00 bf 67 c6 b8 be e8 de 1e bf ec e8 8e be
       -0.5018278 -0.3608887 -0.6205888 -0.2791208
000030 e1 8a fb be d5 30 92 be a9 3c 08 bf a7 e6 71 be
       -0.49129394 -0.2855288 -0.5321756 -0.23623143
000040 54 5d 9b be 12 c9 ae be 6c 22 6e be 05 eb 3f be
       -0.3034464 -0.3413778 -0.23255318 -0.18741997
000050 16 69 3c be 2b 82 c0 be 75 c9 aa be 94 a0 c3 be
       -0.18399462 -0.3759931 -0.33356825 -0.3820845
000060 97 aa 20 bf 30 23 cb be 1a 2d 33 bf 26 01 4e bf
       -0.627603 -0.39675283 -0.69990695 -0.804705
000070 40 53 81 be fe d1 77 be 77 ca 97 be bc a3 c7 be
       -0.25258827 -0.242012 -0.29646656 -0.38992107

cnn.2.weight f4 [64, 32, 4]
000000 ae 20 77 be 1c 33 c3 be 01 70 1e be 2d 4b 91 be
       -0.2413356 -0.3812493 -0.15472414 -0.28377667
000010 ba ac 60 3d 23 bd 31 3d 51 15 3b be 5f 6c 76 be
       0.054852225 0.043393265 -0.1826985 -0.24064778
000020 64 87 a4 3c 90 c7 94 3e b5 05 01 3e 84 b5 dc 3e
       0.02008409 0.29058504 0.12599833 0.43107235
000030 3a 24 4a ba 18 96 a6 bd 51 1a aa be 4f aa be bd
       -0.00077110867 -0.08134097 -0.33223203 -0.093098275
000040 7a 0e c6 3e ac 20 28 3e 49 a7 63 bd 0f 54 e5 3b
       0.3868292 0.16418713 -0.055579457 0.006998546
000050 d3 cd 74 be e0 1c ec be df 61 1d bf d7 61 01 bf
       -0.2390664 -0.4611578 -0.61477464 -0.50539917
000060 f4 48 2b bd 3c ea 81 3d e1 73 ac 3e 00 59 c2 3e
       -0.04181762 0.06343505 0.3368216 0.37958527
000070 1d 63 81 bf bb 2b 42 bf 4b a9 aa be 21 9f 98 bd
       -1.0108372 -0.7584798 -0.33332285 -0.074522264
000080 75 52 6d 3e 84 78 27 3e 95 d1 85 be b6 18 4e be
       0.23175986 0.16354567 -0.2613646 -0.20126614
000090 3e a0 53 be 3d 77 9f 3d 53 aa ee 3d ae 7a 85 3d
       -0.20666596 0.07786415 0.116535805 0.0651754
0000a0 8d c3 08 3e b7 1a 79 bd 8b f4 a6 3c b1 28 fe bd
       0.13355847 -0.060816493 0.020380279 -0.12410105
0000b0 1d 5e a2 be 6c b7 16 bf a9 8b f6 be b3 d9 a5 3e
       -0.31712428 -0.5887363 -0.48153427 0.32392654
0000c0 ae a1 1b bf 8f 94 20 bf e4 18 de be 19 cf 65 be
       -0.6079358 -0.6272668 -0.43378365 -0.22442283
0000d0 d6 de a5 3e 9a 45 f4 bb 8a dd 34 be 87 d8 bf 3d
       0.32396573 -0.007454586 -0.17662635 0.09367471
0000e0 32 d4 8f be e1 73 98 be 83 77 2a 3d 3c a0 2a 3f
       -0.2809158 -0.2977591 0.04161788 0.6665075
0000f0 af 09 64 3d c8 2b 11 be 86 19 0f be 55 e7 43 be
       0.055673297 -0.14176857 -0.1397458 -0.19131215
000100 88 cd 6f 3e ce 22 d5 3c 55 65 db be 9d c6 a2 be
       0.23418248 0.026017573 -0.42850748 -0.31792155
000110 88 a7 c1 be e7 94 30 bf 98 ad 1d bf a9 56 09 bf
       -0.3782313 -0.68977207 -0.6159301 -0.5364786
000120 86 d3 1e 3e a2 4b 3d be f7 37 bd be f0 5f 40 be
       0.15510377 -0.18485883 -0.3695676 -0.18786597
000130 a5 0a 10 3f 00 f9 27 3f b8 83 2c 3f e4 9d 92 3e
       0.5626624 0.6561432 0.67388487 0.28636086
000140 3b 84 c9 be 20 59 be bd ba 0a 4d bf b7 9d 03 bf
       -0.39358696 -0.09294343 -0.8009449 -0.5141253
000150 eb 8c b4 be d8 a2 ba be a6 02 03 bf 70 42 a5 bd
       -0.35263762 -0.36452365 -0.51175916 -0.080693126
000160 c6 de 12 3e f6 50 41 3e 24 de 43 3e b5 a7 b5 3e
       0.14342794 0.1887854 0.19127709 0.35479513
000170 99 cb a4 be e3 f6 cb be 1e 3f 82 be 78 81 d6 be
       -0.32186583 -0.39836797 -0.2543878 -0.41895652
000180 3a ef fd 3d 02 16 c9 bd b9 ff 50 bd b1 d2 81 3e
       0.123991445 -0.09818651 -0.051025126 0.25356057
000190 6c 99 ca 3d d9 4e 2e be 30 8d 17 be 76 bd db bd
       0.09892544 -0.17022265 -0.14799953 -0.10729496
0001a0 82 26 d8 bc 03 e5 ce bd 2d e0 b2 bd 60 68 a6 be
       -0.02638555 -0.10102274 -0.087341644 -0.32501507
0001b0 1d 57 2d bc 80 c8 ac bb 35 58 47 be e8 ce 96 bd
       -0.010579851 -0.005272925 -0.19467242 -0.07363683
0001c0 52 6d fd be c2 c8 11 be cb 9f ba be 2e 4d 28 bf
       -0.49497467 -0.1423674 -0.36450037 -0.65742767
0001d0 9d 15 18 3e 6f f7 cf 3e b8 4f 8d 3e 89 42 c5 3e
       0.14851995 0.40618464 0.27599883 0.38527325
0001e0 a3 e1 e3 be 6c 7b ae bd 4b ff ec be c6 5d af be
       -0.44508085 -0.085196346 -0.46288523 -0.3425123
0001f0 59 bd 85 bd b7 29 f7 bd ec 44 b4 be 00 39 af 3c
       -0.06530256 -0.12068503 -0.35208833 0.021389484
000200 ff 75 6d 3e b6 6b a0 3d aa 62 94 be c6 19 93 be
       0.23189543 0.07833044 -0.28981525 -0.287306
000210 d8 8a d9 3e 6d 94 37 3c 6d b3 de be ac ea 92 be
       0.42488742 0.011204821 -0.43496266 -0.28694665
000220 ab c4 96 3e 3c d6 70 bd 7a 8b 0e bf 1b a4 5d be
       0.2944692 -0.05879806 -0.55681574 -0.21644633
000230 8b fd 96 be 22 07 1a bf c9 00 c8 be fd 18 93 be
       -0.29490313 -0.60167134 -0.390631 -0.28730002
000240 78 17 12 be 26 b9 2e be fd 9c 1d 3e 6b 97 bf 3d
       -0.14266765 -0.17062816 0.15391918 0.093550526
000250 e6 a4 28 3d d4 32 73 bd 63 e7 e2 3d 93 61 cf bd
       0.041172884 -0.059374645 0.1107929 -0.10126033
000260 89 48 e8 3d fc 91 0f 3e 42 e4 d5 be 6a f9 9c 3e
       0.1134196 0.14020532 -0.4177571 0.30659038
000270 1f 7c 40 3e 9a e7 69 be c8 63 8e be 64 2f af 3e
       0.18797348 -0.22842255 -0.27810502 0.34215844
000280 ec a4 68 be 4b 69 70 3e af 9e 30 3b 99 63 48 be
       -0.22719163 0.23477666 0.0026950052 -0.19569243
000290 3e cf ee bd 8f 4d b3 3e 5e 90 b9 3d 42 48 35 be
       -0.11660622 0.3502011 0.09060739 -0.17703345
0002a0 6f c3 87 be 45 16 b2 be f0 33 7f bc d5 a8 fc bd
       -0.26516291 -0.34782615 -0.015576348 -0.1233689
0002b0 4b bb d3 3e 8e 5e d5 3e 18 24 9b bc 1c 52 5e be
       0.4135383 0.41673702 -0.01893811 -0.2171101
0002c0 e3 17 e4 3d 4b ba 8d be 2e 24 09 3e 5e 33 30 3c
       0.111373685 -0.27681193 0.13392708 0.010754434
0002d0 32 ba 2f bf b3 94 a2 be 1d 36 8e 3d 0e 9a 95 3e
       -0.68643486 -0.31754074 0.06943915 0.29219097
0002e0 01 a4 ea bd 25 5f 20 3e cb 38 1c 3d cd ba cb be
       -0.114570625 0.15661295 0.0381401 -0.39790955
0002f0 6f 7b 8d 3d cc 25 10 bd 6c d5 2e be fa 05 2e be
       0.06908309 -0.035192296 -0.17073601 -0.16994467
000300 56 73 b8 3d d9 a4 9f 3e b8 2a 2e 3e e9 2c 37 3d
       0.090063736 0.31180456 0.17008483 0.044720564
000310 2b fb 28 3e 8b 85 12 3e c7 fc 80 be 19 00 e9 be
       0.16502063 0.14308755 -0.25192854 -0.45507887
000320 c6 8b d4 be d7 c0 a3 be f3 49 88 be 99 52 2f bf
       -0.4151289 -0.31983063 -0.2661892 -0.6848541
000330 7c fa 8b bf dd 97 9e be 8b 60 03 be 1a 82 34 bf
       -1.0935817 -0.30975237 -0.12829797 -0.7051102
000340 1d db e0 3d 80 b1 9e 3e a0 4f 49 3e 2b 3d 55 3e
       0.109792925 0.30994797 0.19659281 0.20824115
000350 8f 68 19 3e bb 00 9d 3d cd b0 db ba 4a 21 b2 be
       0.14981292 0.07666155 -0.0016761065 -0.34791023
000360 56 2a 1b 3e 62 79 6a 3e dd 5a cd be 06 21 27 bf
       0.15152869 0.22897866 -0.40108386 -0.65284765
000370 e4 af b4 be 9d 91 56 bf 5e a2 c0 3d 9a e4 a8 bd
       -0.35290444 -0.8381594 0.09405969 -0.08246727
000380 3d 90 0c bd c6 c6 90 3e ac 09 e1 bd e4 3a 37 3c
       -0.034317244 0.28276652 -0.10988173 0.011183474
000390 d8 88 cd 3e a3 40 cb bd 03 30 ad be 1a 4e 05 bf
       0.40143466 -0.09924438 -0.33825693 -0.520723
0003a0 10 49 22 bd 7d 97 e3 bd 5d 71 2b be d6 37 8b be
       -0.03962046 -0.111128785 -0.16742463 -0.27191037
0003b0 0c 8d 2d bc e5 76 33 3e 84 82 89 be 12 5d 6b bf
       -0.01059271 0.17525823 -0.26857388 -0.9193889
0003c0 3b 8c 8b 3d 79 cd ee 3d 4e f5 d5 3e 59 de 43 3e
       0.06813856 0.116602845 0.41788715 0.19127788
0003d0 93 e2 cc 3e 93 35 ac 3e 69 42 46 be 72 6c 19 bf
       0.40016612 0.33634624 -0.19361271 -0.599311
0003e0 d0 e1 4e bf 7f 98 17 3c f2 98 e7 3d e7 14 e6 3e
       -0.8081331 0.0092526665 0.11308469 0.44937822
0003f0 d2 c3 b7 be 81 0c 18 be b8 66 34 3e 82 fa 96 3e
       -0.35891587 -0.1484852 0.17617309 0.29487997

cnn.2.bias f4 [64]
000000 91 8e 8d be 5e 34 ad bd 11 68 86 be b2 a5 ae bd
       -0.27647832 -0.08457254 -0.2625127 -0.085276976
000010 24 9b 39 3d 19 d2 7e be 02 e4 a4 bd 1e b2 03 be
       0.04531397 -0.24884833 -0.080513015 -0.12860915
000020 4e 60 bb bd cd 6a 7b be de 2d 68 3d 7b 04 ed 3d
       -0.09149228 -0.2455246 0.056684367 0.1157312
000030 89 30 a5 be 2a c0 78 3d ee eb 72 3e a7 7f 1e 3c
       -0.32263592 0.060730137 0.23722813 0.009673989
000040 1f 1d 8a bd 2a 98 58 be 89 c0 b4 bd 7a b5 0d be
       -0.06743836 -0.21151796 -0.08825786 -0.13838759
000050 28 fc 24 be ff 52 18 be 7f 87 81 bd af 2b 13 3d
       -0.16111815 -0.1487541 -0.06324672 0.03593033
000060 59 5c 7f 3d 14 39 67 be 26 04 34 bd d5 af be 3d
       0.06234393 -0.22580367 -0.04394927 0.09310881
000070 40 68 3a 3e 59 4d 63 be 8f 9a 94 bd 82 ef 26 3e
       0.1820383 -0.22197475 -0.07256042 0.16302302
000080 ae 61 84 be 71 e0 f5 bc 77 31 b8 bc 97 38 92 bd
       -0.25855774 -0.030014249 -0.022484524 -0.071397
000090 0f ed 84 bd 4d b6 df be 33 ac 86 be 79 0c a5 3c
       -0.06490528 -0.43693772 -0.26303253 0.020147549
0000a0 58 b3 87 bc a8 a6 92 bd f0 77 08 3e 68 0f dc bd
       -0.01656501 -0.071606934 0.13327003 -0.10745126
0000b0 d2 3e b6 3c 88 17 ce 3c b5 50 ad be 2b ff 2f bd
       0.022246752 0.025157705 -0.33850637 -0.042967957
0000c0 13 71 63 be 98 e2 7c 3c 02 74 e9 bd cb 63 49 be
       -0.22211103 0.015434884 -0.1139908 -0.19666974
0000d0 d9 d7 56 3e 17 ce 0e be ae 69 a9 be 79 8a a4 be
       0.20980777 -0.13945805 -0.3308844 -0.32136896
0000e0 d9 8c d2 3d bf 08 6a be 03 ad fd bd 41 32 8d 3d
       0.10280771 -0.22854899 -0.12386515 0.06894351
0000f0 e4 b0 8c 3d 63 ba 91 bd 3e 2f f9 be 0f ea f9 3e
       0.06869677 -0.071156286 -0.48668855 0.48811385

lstm.weight_ih_l0 f4 [160, 64]
000000 72 f4 ca be 4b 5c 92 3e d1 a5 e1 be a0 05 28 bf
       -0.39639622 0.2858604 -0.4407182 -0.65633583
000010 b0 e8 16 bd 3c 34 5e 3e 85 05 63 be 6e a9 59 3e
       -0.036843 0.21699613 -0.22170074 0.21256039
000020 53 3e 93 3e 5b 90 5d be 10 4c 38 bf 84 20 ce be
       0.28758487 -0.21637098 -0.7199106 -0.40259182
000030 00 fa 03 bf aa 81 9b 3e 24 d6 bc be 25 ba 1d 3e
       -0.51553345 0.30372363 -0.36882126 0.1540304
000040 f0 a1 8d bd 78 e0 3a bf d8 03 cd 3c 6b 31 11 3e
       -0.06915653 -0.7299876 0.025026247 0.14179008
000050 a1 f8 21 bf 71 01 28 bf 3f 53 89 be cb 0c f5 bd
       -0.6327 -0.656272 -0.26821324 -0.11965331
000060 fb db 95 3d 23 cf 55 3e 2a 4a b6 3e ed 0d 85 bc
       0.073173486 0.20879798 0.35603458 -0.016241992
000070 b1 f3 80 be 84 30 59 3f 47 e6 b4 be 43 f8 ad bd
       -0.25185922 0.84839654 -0.35331938 -0.08494618
000080 06 67 02 3f 24 7d 4c 3f 37 4f 9f 3e 57 37 00 bf
       0.5093845 0.7987845 0.31115124 -0.5008444
000090 69 0e a5 be 1f 32 e5 3e a5 27 1f be a1 8d 06 bf
       -0.32237557 0.44764802 -0.15542467 -0.5255986
0000a0 f3 12 0c 3e 68 70 14 3e 4c f5 7f 3f af e1 fd bc
       0.13679104 0.14496005 0.9998367 -0.030991403
0000b0 9a 4b ac 3e 5d 8d 85 3e 3e 6f 6d bd c4 64 36 3e
       0.3365143 0.26084414 -0.057967417 0.17811877
0000c0 c9 fd cc 3d e9 4a cf 3d b7 06 54 3e ae 99 a0 bd
       0.10009343 0.1012171 0.20705687 -0.07841812
0000d0 39 2d 60 3e b1 9b 53 3e 6c d6 e7 3d 2c 5f c6 3d
       0.21892251 0.2066486 0.113201946 0.09686121
0000e0 36 a0 25 be f6 87 ce 3e 48 01 65 bd 19 ce f2 be
       -0.16174397 0.40338105 -0.055909425 -0.47422865
0000f0 17 c0 99 3e b8 99 ee 3e 10 8a 64 3f 0e 79 09 bf
       0.30029365 0.46601653 0.89273167 -0.5370034
000100 22 1b 6d be a3 76 f7 3e 7c 7b b0 be 73 7e c0 3e
       -0.23154882 0.483327 -0.3446921 0.37596473
000110 98 69 09 3f 18 7b 97 be 94 b2 12 3f 29 7d 42 3e
       0.5367675 -0.295861 0.5730374 0.18993057
000120 d0 2c da 3e ec d2 74 3e d3 15 88 3e f8 d0 b9 bb
       0.42612314 0.23908585 0.2657915 -0.005670663
000130 33 34 0f be b7 ec fe bd ef 95 d4 3e 71 c6 a1 3e
       -0.13984756 -0.124474935 0.4152064 0.3159671
000140 d0 f0 8c 3e ee 95 1f 3e 43 1f 21 be fd 8e 64 be
       0.27527475 0.15584537 -0.15734582 -0.2232017
000150 e1 d1 23 3f 65 81 88 be 14 bc 2c 3f 49 c2 63 be
       0.63992125 -0.2666122 0.67474484 -0.22242083
000160 36 6b 4b bd ba 28 18 3e 84 f9 3f 3e cc fc 47 bf
       -0.04966279 0.14859286 0.18747526 -0.7812011
000170 38 e1 7a 3d d3 79 bd be 14 10 9d 3e 09 3d de be
       0.06124994 -0.37007007 0.3067633 -0.4340594
000180 8f 62 91 3f a4 38 91 be 4a 54 b5 3d 81 aa 94 3d
       1.1358203 -0.28363526 0.088539675 0.072590835
000190 a8 73 92 be 68 c7 c3 3d d9 ed dd bd 16 2e d0 3e
       -0.28603864 0.09559518 -0.108363815 0.4066016
0001a0 39 f2 89 be 9f 5e 39 3d fb 62 0a 3f e4 ae 1a 3f
       -0.26942614 0.045256253 0.5405728 0.6042311
0001b0 e6 e8 cc be d0 fc 00 be a4 e7 f9 3d 77 0a 15 be
       -0.40021437 -0.1259644 0.12202385 -0.14554773
0001c0 59 13 12 bf de 82 86 3c 52 a3 15 be 93 1a 49 be
       -0.5706077 0.016419824 -0.14613083 -0.19639044
0001d0 51 a2 c1 be 48 91 82 3e 5c 9d b7 3d b6 1e 2a be
       -0.3781915 0.25501466 0.08965561 -0.16613278
0001e0 08 14 28 3d ba d6 0e 3e d8 9d 28 be 5f a8 00 bd
       0.04103473 0.13949099 -0.16466463 -0.03141057
0001f0 a9 e6 5b 3d 86 cf e3 3e 8c 68 93 3e 29 a8 df be
       0.05368677 0.44494265 0.287907 -0.43682984
000200 8c a1 a4 3e 10 c1 3a be e4 76 fd 3d be a5 08 3e
       0.321545 -0.1823771 0.12376192 0.13344476
000210 2c 27 21 3e 3f 8b f1 be 09 83 50 be 13 2f d6 3e
       0.15737599 -0.4717655 -0.20362486 0.4183279
000220 c2 d5 d2 3e 18 a0 8a 3e 69 06 ac 3d 6d 4f 07 3f
       0.4117871 0.27075267 0.0839966 0.5285557
000230 91 ee 20 3e 38 3d a7 3e 0a 55 8f 3f 3c 5f 71 bd
       0.15716006 0.32663894 1.1197827 -0.058928713
000240 64 9e 32 bd a7 bf 2d 3d 52 07 94 be 2f 48 42 be
       -0.043608084 0.042419102 -0.28911835 -0.18972848
000250 9e f8 e2 3e bc 41 fe 3b 3c a9 02 3f 8a 4a b5 bd
       0.44330305 0.007759301 0.5103948 -0.08852108
000260 d2 73 36 3e 84 1b 06 3e 86 81 65 be 1c 27 68 be
       0.1781762 0.13096434 -0.2241269 -0.22671169
000270 13 01 1a bf 2f 78 6d be e4 f5 6b 3f b0 af 71 be
       -0.6015789 -0.23190378 0.92172074 -0.23602176
000280 37 2c 8d 3f 5b 8e 9f 3d 77 d7 8e bd db 62 09 3d
       1.1029118 0.07790824 -0.069746904 0.03354154
000290 2d 21 ed bd fc 33 43 be f0 da 19 3e 22 8d e0 3d
       -0.115785934 -0.19062799 0.15024924 0.10964419
0002a0 a6 3b 95 3e ac 29 0a be 74 36 83 bf 34 a6 62 3e
       0.2914707 -0.13492459 -1.0250993 0.22133714
0002b0 63 79 79 bd 95 af 0c 3f 1f 62 12 3f a5 e0 14 bd
       -0.06090678 0.54955417 0.5718097 -0.03634705
0002c0 67 30 46 3f 66 1f 3b be 0e 3f 83 3e d5 df 92 be
       0.77417606 -0.18273696 0.25634044 -0.28686395
0002d0 1d 80 ca be ae 68 d1 3e e1 24 11 bf a9 98 b1 bd
       -0.39550868 0.40900177 -0.566969 -0.08671696
0002e0 69 83 4e be b6 93 5a be 5e 5f b6 3d 40 73 92 3d
       -0.20167316 -0.2134541 0.089049086 0.071508884
0002f0 9c ba f9 3e 35 ff 98 3f 50 de 2e be 96 0c 7f 3d
       0.48775184 1.1952883 -0.17076993 0.062267862
000300 ef 7a 6e bf 05 73 6e bd 50 22 28 bf 77 ea 06 3f
       -0.9315633 -0.05821516 -0.65677357 0.52701515
000310 07 33 14 3f 5e c9 5f 3d 0e ee 4d 3e 29 a7 5e be
       0.5789036 0.054635398 0.20110342 -0.21743454
000320 e6 79 61 be d8 28 d3 3e 21 01 ae bd 80 74 55 bf
       -0.22019157 0.412421 -0.08496309 -0.8338089
000330 c9 c1 0b 3f ec e9 7d bd 14 d0 0b 3f d2 bb df 3e
       0.5459257 -0.061990663 0.5461438 0.43697983
000340 38 71 07 bf d6 6c 44 3f 5c 52 41 be 36 5c fb bc
       -0.52907133 0.7672857 -0.18879074 -0.030683618
000350 e5 b5 2c be 48 ec 25 bd 27 b6 3a 3e 7c 96 47 be
       -0.16866262 -0.04050854 0.18233548 -0.19490999
000360 d9 94 fe 3e 41 48 2b bf f3 07 94 3e 1c b5 06 be
       0.49722937 -0.66907126 0.28912315 -0.13155025
000370 96 4e 31 bf 98 b0 5c bd cc 96 a6 3e 21 5b 00 bf
       -0.6926054 -0.05387935 0.32536924 -0.5013905
000380 5b 72 07 bf 70 42 69 3e 61 54 88 3e d5 34 66 be
       -0.5290887 0.2277925 0.26626876 -0.22481091
000390 fa 37 32 bf e3 c1 19 3d c6 27 46 3f 5e 41 2a 3f
       -0.69616663 0.03753842 0.7740444 0.6650599
0003a0 a4 3b 37 3f 19 77 73 3f 31 f5 e1 be 75 38 03 3e
       0.7157538 0.95103604 -0.4413238 0.12814505
0003b0 03 35 8f be 94 18 cb 3e a3 02 36 bc a6 2d 42 3e
       -0.27970132 0.3966719 -0.011109027 0.18962726
0003c0 2a 69 2b 3f 28 03 33 be 80 25 91 be 5b 5a 45 be
       0.6695734 -0.17481673 -0.28348923 -0.19272749
0003d0 09 0b 33 3e 9c 9b db bd 0b 72 78 be 05 0d e8 bd
       0.17484678 -0.107230395 -0.24262254 -0.11330608
0003e0 e5 4e c3 3c c8 a2 69 3e 88 06 43 3f e1 85 1a 3f
       0.02384133 0.22816002 0.7618184 0.60360533
0003f0 1b 9b 9e 3e 82 c4 b7 3e e6 90 d5 3d 37 c3 34 bf
       0.3097771 0.3589211 0.10428028 -0.70610374

lstm.weight_hh_l0 f4 [160, 40]
000000 0d 3c a8 3e 3c 8f 41 bd 7d 56 c6 bc d2 1c 20 be
       0.32858315 -0.04725574 -0.024211163 -0.15635994
000010 a7 d0 90 bc a1 44 0c 3f 3d 0d 08 bf cf 62 4b bf
       -0.017677618 0.5479222 -0.531452 -0.79447645
000020 02 98 c3 3e f5 10 32 3f 34 54 93 3e d8 56 17 3f
       0.3820191 0.69557124 0.2877518 0.5911689
000030 78 d2 82 be a3 fd 83 be 5c 66 37 bf bc eb e0 be
       -0.255512 -0.25779447 -0.71640563 -0.4392985
000040 29 fa b8 3e b6 ec 09 be 45 d4 01 bf 7e 94 3e bf
       0.36128357 -0.13469204 -0.5071452 -0.7444533
000050 f2 24 fc bd 53 99 3a bf a3 76 dd 3e 51 58 35 bf
       -0.12311734 -0.72890204 0.43254575 -0.70837885
000060 ed 30 a8 3e 40 d9 7a 3c 91 82 47 3e 0c ee a5 3e
       0.32849827 0.0153105855 0.19483401 0.32408178
000070 83 58 52 bf 43 62 03 3f 5c 4d 9b be 00 73 58 3e
       -0.8216631 0.5132181 -0.30332458 0.21137619
000080 8e 4b 92 3e c8 17 6f 3f 68 7e a4 3e 9b 2a 82 3f
       0.2857327 0.9339566 0.3212769 1.0169252
000090 c9 eb f6 3d 0d f6 02 3d ee 21 c2 3b c2 7d 3b be
       0.12056691 0.031972934 0.005924455 -0.18309692
0000a0 47 08 8f bf 42 6f 75 3e 00 26 0e 3f 3a 4f ae bc
       -1.1174401 0.23968223 0.55526733 -0.021278013
0000b0 57 f2 8b 3e b5 e3 ed 3d 3b 73 0a 3c 36 f4 2a 3f
       0.27333328 0.11615697 0.008450325 0.66778886
0000c0 13 b5 ab be 14 a1 97 be 58 9f 75 be 58 b4 31 3f
       -0.33536586 -0.2961508 -0.23986566 0.6941581
0000d0 3f 0c 95 3e 7f c6 d9 3e 89 0a 06 3e cc 5b 15 3e
       0.29110906 0.42534253 0.13089956 0.14585799
0000e0 17 2d 30 bf 62 bb 51 3f cc 25 58 3e 64 70 12 bf
       -0.688188 0.8192655 0.21108168 -0.57202744
0000f0 c5 4d 7b 3f bd ac 08 bf 4b 57 94 3e 5e 0e 49 be
       0.9816554 -0.5338858 0.2897285 -0.19634387
000100 d8 d7 b3 bf 5f 68 b4 3e 19 35 2e bf 79 54 00 bf
       -1.4050245 0.3523588 -0.6804977 -0.50128895
000110 15 8b 20 3e 71 b1 5f 3e f5 17 0d 3f 02 09 b0 3d
       0.15678056 0.21845032 0.5511468 0.08595468
000120 f3 5c 36 be b2 ca 65 3e 07 63 0e bf 3d a9 65 be
       -0.17808895 0.22440603 -0.55619854 -0.2242784
000130 27 66 16 3e 85 5c 1d be 84 7b a2 bd 46 86 95 3e
       0.14687406 -0.15367325 -0.07933715 0.29204005
000140 aa d3 2b bf e6 be fd 3b f2 ab 01 3e 4e 9a aa be
       -0.6711985 0.007743704 0.12663248 -0.3332085
000150 ca ef dc be 82 cb ac bd ff 13 c7 3c 63 37 07 3e
       -0.43151695 -0.084372535 0.024301527 0.13204722
000160 22 34 e5 3d 2f 66 5a be c0 68 fe bd a2 47 c6 3e
       0.11191584 -0.21328042 -0.12422323 0.38726526
000170 93 11 09 bf 41 e9 39 bd d7 ab ea 3e bd 74 d1 3e
       -0.5354244 -0.045388464 0.45834228 0.40909377
000180 a9 71 19 bf c7 f4 0f 3e 59 35 42 bf 0a d9 2d bd
       -0.59939057 0.14058219 -0.7586265 -0.042443313
000190 5f 68 56 3f 7f e5 1f be 3c b0 ca 3e b3 a2 8a 3e
       0.8375301 -0.1561489 0.3958758 0.27077255
0001a0 22 16 43 bd f9 6d 85 3e 0f 1f 58 3e 8b 4a b1 be
       -0.04762853 0.26060465 0.21105598 -0.34627184
0001b0 a6 98 94 bd 38 d0 08 3e 11 4c 75 3f 88 5e 88 3d
       -0.07255678 0.13360679 0.95819193 0.066586554
0001c0 29 dd 84 be 33 e5 d0 bd 25 75 ad 3e 67 16 a9 3e
       -0.25949982 -0.10199966 0.33878437 0.33024904
0001d0 30 08 f4 3e 23 47 9c be b1 68 40 bd a4 8f ee be
       0.47662497 -0.30523023 -0.04697484 -0.46593964
0001e0 39 e0 94 3f 19 c2 90 bb ff 1d b6 3d b1 0f 8e bb
       1.1630927 -0.0044176695 0.0889244 -0.0043353667
0001f0 02 c2 12 bf 95 11 bd bc 5f 76 93 be d7 11 41 3f
       -0.5732728 -0.023079673 -0.28801247 0.75417846
000200 24 a1 8a be 0f 6b 64 be 21 ac 64 bd eb 5f 19 bc
       -0.27076066 -0.22306465 -0.055828217 -0.0093612475
000210 9d d4 0c bf 41 40 b4 3d 64 af a4 3c 55 eb 06 3e
       -0.5501192 0.08801318 0.020103164 0.1317571
000220 e1 7c 27 bf 8e fe eb be 1b 79 7d be d0 41 29 bd
       -0.65424925 -0.46092647 -0.2475323 -0.04132253
000230 aa f1 1b be 48 ab c1 3e a0 aa 8d be c6 6c 3f be
       -0.15228906 0.3782599 -0.2766924 -0.18693838
000240 c7 77 c1 be 0d fe dc 3e 4d 0d 8f bc 1f 0e b4 3e
       -0.37786695 0.43162575 -0.017462397 0.35167024
000250 5b 4f 58 3e 3e e7 8a 3e 40 5d 94 3e cf b5 cd be
       0.21124022 0.2712955 0.28977394 -0.4017777
000260 6a 4b d3 3e 9d a9 d3 3d 47 8d 0b 3f 63 f3 83 3e
       0.41268474 0.103350855 0.5451245 0.25771627
000270 5c f9 18 3e 53 10 04 bf e7 26 92 bc a9 10 c3 be
       0.14938873 -0.5158741 -0.017840816 -0.38098648
000280 43 5d 82 bf 5e 53 c6 3e 20 39 b3 3d 1c fd 87 3e
       -1.0184711 0.3873548 0.0875113 0.26560295
000290 00 1a b7 be 67 bd 73 3f 8a aa 4f be 9d 40 2b 3f
       -0.35762024 0.9521088 -0.20279899 0.6689547
0002a0 7a f8 1f be 66 71 dc 3e 74 21 7d bd a1 ea 3a 3e
       -0.1562213 0.43055266 -0.06179948 0.18253566
0002b0 3f cb 9b 3e 43 0d 4c be 35 a5 d0 be 27 e6 a5 be
       0.30428502 -0.19926934 -0.40751043 -0.32402155
0002c0 37 48 ca 3d 68 03 c4 be f1 b5 13 be 12 ae c1 bd
       0.09877055 -0.3828385 -0.14424874 -0.094570294
0002d0 40 05 6f 3e d9 3c 38 bb 5f 9f 07 be bd d5 da be
       0.23341846 -0.002811244 -0.13244389 -0.42741194
0002e0 67 8e 07 bf 98 f3 bb be 30 8f e8 3e 70 35 15 3d
       -0.52951664 -0.36709285 0.45421743 0.036427915
0002f0 e1 a2 c8 bd df 8c 3a 3f 53 98 85 3e e0 7e 87 3f
       -0.09796692 0.728712 0.26092777 1.0585594
000300 d5 37 44 be 72 41 e3 3e e1 e2 37 3f bf dc 8c 3e
       -0.19161923 0.44385868 0.71830565 0.27512166
000310 74 7f 32 bf fa 28 cc 3e 69 1a 1b bf 4e 45 9e bd
       -0.6972573 0.39875013 -0.60587174 -0.077280626
000320 7e f9 07 bf ef d1 61 3e 06 96 2d 3e 78 6a 15 3f
       -0.5311507 0.2205274 0.1695176 0.58365583
000330 7b 98 5c be 85 a0 f7 bc 54 30 c6 be 24 09 c3 be
       -0.21542542 -0.030227909 -0.38708746 -0.3809291
000340 9b 65 bd 3e f7 81 b5 3e 3c 07 9d 3e 7f c7 40 3c
       0.3699158 0.35450718 0.30669582 0.011766314
000350 1f f4 22 3f 33 3f f1 bd e7 4f e9 3e 22 29 84 be
       0.6365375 -0.117796324 0.45568773 -0.25812632
000360 f9 dc 11 3f 1c 87 56 3d 3c de 02 3f 05 93 b1 3e
       0.569778 0.052374944 0.5112035 0.3468248
000370 f6 81 9b 3d 7d 00 c8 be 32 24 b8 be 83 f0 f2 be
       0.075931475 -0.39062873 -0.35965115 -0.4744912
000380 85 d8 63 bd c4 28 4d 3e 66 ad b2 be a2 69 0e 3f
       -0.05562641 0.20035082 -0.34897918 0.5562993
000390 cf f7 60 bc 8b d0 61 3e cc bc f9 bd fe d0 86 bf
       -0.013730957 0.22052209 -0.12194213 -1.0532529
0003a0 05 a0 a2 3d d1 f4 1c 3e a6 e9 79 3d bb 89 1e bf
       0.079406776 0.15327765 0.06101384 -0.6192891
0003b0 d7 43 d5 be 69 ea 46 be 87 51 1e be bc b2 0c bf
       -0.4165332 -0.19425358 -0.15460788 -0.54960227
0003c0 c7 89 45 3d a5 f0 08 bf da ef 56 be d6 34 d3 3d
       0.048227098 -0.53492194 -0.20989934 0.10312812
0003d0 2b d4 b7 be 52 cf e4 3d 4d eb 7a 3e 57 74 0b 3f
       -0.3590406 0.11172356 0.24503823 0.54474396
0003e0 c5 00 7e 3e 21 de 6d bd 15 10 8a 3e cd db 7d be
       0.24804981 -0.058073167 0.26965395 -0.24790879
0003f0 f6 70 b8 be cf 83 19 3f 09 28 8a 3e 87 98 bd 3d
       -0.36023682 0.5996675 0.2698367 0.09257608

lstm.bias_ih_l0 f4 [160]
000000 2c 1c 0a bf 57 0d 1d be 3a 20 6f be 1b 3a b8 be
       -0.53949237 -0.1533712 -0.23352137 -0.3598183
000010 cb 7d e0 3c cd 4d cd 3c 6e 95 ac be 52 3c 9e be
       0.027403733 0.025061512 -0.33707756 -0.30905396
000020 11 16 e2 be 65 e1 d6 be 68 cb 08 bf e2 8f 7e be
       -0.4415746 -0.41968837 -0.53435373 -0.24859574
000030 50 00 bf bc 73 e0 47 be f0 72 19 bf 15 ff e0 be
       -0.023315579 -0.19519214 -0.59941006 -0.43944612
000040 09 85 19 bd d4 46 c3 bd b1 9c a6 be 14 1c 20 bf
       -0.037480388 -0.09534994 -0.3254142 -0.62542844
000050 3f 4e c2 be 5a 1b 14 be d6 a3 ed be bf 52 c9 bd
       -0.37950322 -0.14463559 -0.4641406 -0.09830236
000060 a8 36 02 3e 2d b5 d7 be df f4 19 bf 7f d4 b3 3d
       0.12716162 -0.42130414 -0.6013927 0.08780765
000070 ae c1 8c be b5 1f 76 be f3 6b 96 bd df 61 4b be
       -0.27491516 -0.24035533 -0.073448084 -0.19861554
000080 f4 02 7f bd 92 61 43 be 4a d7 a4 be e7 9c ec bd
       -0.062258676 -0.19080189 -0.32195503 -0.11553364
000090 c1 65 96 3d 30 1d 54 be dc 3b f6 be 3c 3d 25 be
       0.07343627 -0.20714259 -0.48092544 -0.1613664
0000a0 fd 11 22 3e 01 db b9 3d 1e 2f a8 bd 56 c5 90 3e
       0.15827174 0.09074975 -0.08212112 0.28275555
0000b0 60 37 15 bd 77 e3 5c 3e 99 32 a2 bd ad 6a de 3d
       -0.036429763 0.21571146 -0.07919807 0.108601905
0000c0 f5 44 22 be 88 f7 70 3d 55 06 c0 3e 1d 0e 6f 3e
       -0.15846618 0.058829814 0.3750483 0.23345228
0000d0 14 97 14 3e fc 49 15 bd 53 63 55 bb 06 be 7b 3e
       0.14510757 -0.03644751 -0.0032560423 0.24584207
0000e0 aa 81 2e 3e a3 2b 84 be da 9a a0 3d 0b af ab be
       0.1704165 -0.25814542 0.078420356 -0.33531985
0000f0 c7 df 3b be c1 ea 9d 3d 61 ef a3 3e f4 29 4e 3e
       -0.18347083 0.077107914 0.3201857 0.20133191
000100 66 c9 36 be a9 97 93 be b7 3c 95 3c 13 7d e5 3d
       -0.17850265 -0.28826645 0.018217428 0.11205497
000110 f1 59 fd 3e 28 e9 57 bd 44 06 b5 3e 97 4f 00 3e
       0.49482682 -0.05271259 0.35356343 0.12530361
000120 2d cb 71 be f1 a4 75 be 1e 68 8f 3c 16 dd 9f 3e
       -0.23612662 -0.23988701 0.017505702 0.31223363
000130 e4 1e 90 3d 82 bb e6 be ba fd 40 3e 47 26 4a 3e
       0.07037142 -0.45064932 0.18846789 0.19741164
000140 7f 84 7b 3d 69 2d 84 3d e9 77 ed be 85 4b 8f 3d
       0.061405655 0.06453974 -0.46380547 0.06996826
000150 d7 85 c0 3d 3a 49 ee bd 59 34 5c 3d 77 87 60 3e
       0.09400528 -0.116350606 0.05376086 0.21926676
000160 73 86 2e be eb 1f 88 bc 7e c5 24 be c9 12 9e be
       -0.17043476 -0.016616782 -0.16090962 -0.30873707
000170 b0 09 7a bd bf 40 97 3d 68 7f 66 bb 14 c0 3d 3e
       -0.061044395 0.07385396 -0.0035171155 0.18530303
000180 36 7a c7 be 18 2e 99 3d cd 2f 39 be 3f c7 74 3e
       -0.38960427 0.07479495 -0.18084641 0.23904131
000190 b3 2e 0d 3d 46 0e 2a 3d 0d 5c de 3d d2 10 f4 3e
       0.034468364 0.04151752 0.10857401 0.47669083
0001a0 f2 7a 91 bd de e1 15 bd 8b 5e 8d be 36 85 29 be
       -0.07103528 -0.036592357 -0.27611193 -0.16554722
0001b0 85 2b 69 3e 7b fd a9 bd 67 2b 9e bd 32 0f e9 3d
       0.22770508 -0.08300301 -0.07723122 0.113798514
0001c0 08 59 bc be f8 52 88 be 49 a6 bd be e5 ca 78 be
       -0.36786675 -0.266258 -0.37040928 -0.24296148
0001d0 ca 73 1b 3e 3e 92 80 3e 08 75 c5 3c b5 b3 f4 3d
       0.15180889 0.25111574 0.024103656 0.11948339
0001e0 eb 25 be be a3 ad da 3d 77 ba 4a be 38 51 5b 3e
       -0.37138304 0.1067765 -0.19797693 0.21417701
0001f0 07 be 26 bc f2 2e 01 be c8 ae 82 bd 8f 1f 91 bc
       -0.010177142 -0.12615564 -0.06380993 -0.017715244
000200 b1 b9 99 bc ed 8a 92 be be 93 b5 bc d3 f8 49 bc
       -0.018765302 -0.28621617 -0.022165176 -0.012327391
000210 b0 18 e6 be c2 3d 78 3e 35 8b 8b bd 42 6d 69 be
       -0.4494071 0.24242309 -0.06813661 -0.22795585
000220 ce 26 9f be 7c 8c 82 3d 4d c3 dd be 97 3b 9b be
       -0.31084293 0.063744515 -0.43313065 -0.303189
000230 7f 20 34 3e 86 ba 2b bd c3 72 8c be 6d e7 49 3e
       0.17590521 -0.04192593 -0.27431306 0.19717188
000240 02 fc 27 3d 12 7d 8b be 88 23 92 be d1 d9 11 3e
       0.041011818 -0.2724386 -0.28542733 0.14243247
000250 51 aa c8 bd c9 ec 42 be 70 7a 83 be 6a ed 26 be
       -0.0979811 -0.19035639 -0.2567935 -0.16301504
000260 36 ca 4f be 4d 18 c7 bd 98 84 df 3a cd c4 9f 3e
       -0.20291981 -0.09721432 0.0017053066 0.31204835
000270 59 b6 80 3e 2f f5 86 be 7e c1 cd be 4a 50 22 3e
       0.2513912 -0.26358935 -0.40186685 0.1585094

lstm.bias_hh_l0 f4 [160]
000000 fa c7 0b bf 3f 7e b6 bd 5e 2e a0 be e1 b8 04 be
       -0.54602015 -0.08910798 -0.31285375 -0.1296115
000010 92 0b 96 3d 08 0f ca 3d 94 1d a9 bd f3 07 03 be
       0.073264256 0.09866148 -0.08257595 -0.12796001
000020 85 14 cd be d0 f8 22 be 1c 51 38 bf 93 1a 15 be
       -0.40054718 -0.15915227 -0.71998763 -0.14560919
000030 3a 4e 2f be 94 b1 b9 be 58 e8 0d bf b7 13 9e be
       -0.17119685 -0.36268294 -0.55432653 -0.30874416
000040 4e 2a 62 be 58 57 45 bd e3 03 a8 be f5 68 b9 be
       -0.2208645 -0.048179 -0.32815465 -0.36212888
000050 83 dd ac be 7a 2c 4c be 20 84 be be d8 28 01 bd
       -0.3376275 -0.19938841 -0.37210178 -0.031533092
000060 33 fc 92 3d a5 b6 c7 be 85 08 24 bf f4 7b 31 3e
       0.071770094 -0.39006534 -0.640755 0.1733244
000070 e1 11 6d be af 3e 66 be 30 a2 9e be 3e 89 e0 bc
       -0.23151352 -0.2248485 -0.30983114 -0.027409192
000080 e3 2f 84 bc c3 d6 d9 be 79 84 8d be 4d 3e a0 bd
       -0.016136115 -0.42546663 -0.2764013 -0.07824383
000090 33 4f a3 3d 42 aa 1d be 59 e7 71 be d8 30 1b bd
       0.079740904 -0.1539698 -0.23623408 -0.037888378
0000a0 71 85 9e 3c 3a 50 f7 3d 31 3b 53 bd ff 88 7e 3e
       0.01935074 0.12075849 -0.05157012 0.24856947
0000b0 7a a6 2f 3e 20 72 53 3d 5d 75 09 3d 77 c2 0a 3e
       0.1715335 0.05162251 0.033559192 0.13550745
0000c0 4e c7 89 be d2 59 5b 3e 3d c0 93 3e fb b8 5a 3e
       -0.2690987 0.21420982 0.28857604 0.21359627
0000d0 3f 65 9b 3e 62 2f b1 3d b4 ad 97 be 09 04 ae 3e
       0.30350682 0.08651616 -0.29624712 0.33987454
0000e0 e8 c2 1c 3c ce e6 7a be 22 c3 15 bd 2f f0 80 be
       0.009567954 -0.24502108 -0.036563046 -0.25183246
0000f0 b9 f4 6c be 34 54 3d 3e 81 8f 19 3e 80 38 86 3e
       -0.2314023 0.18489152 0.14996149 0.2621498
000100 89 0e ce be 89 ba b5 bc 30 00 09 3c 32 83 d8 bd
       -0.40245464 -0.022183673 0.008361861 -0.105718985
000110 63 fa d5 3e 4f e9 95 bc 39 a8 88 3e e8 9d 7b 3e
       0.41792592 -0.018299727 0.26690844 0.24571955
000120 2f ec 86 be 1c 7c b6 be 96 38 0b 3e 6c 56 0a 3e
       -0.2635207 -0.35641563 0.13595805 0.1350953
000130 41 12 66 3d 62 62 bd be c4 be 76 bd bf 6a 9e 3e
       0.056169752 -0.36989123 -0.060240522 0.30940816
000140 79 02 40 3e 8f f5 47 bd 79 8a c3 be c5 bb 70 bd
       0.18750943 -0.048818167 -0.38191584 -0.05877282
000150 5b 3f 37 3d bd 07 19 be 3b b2 60 3e ac 19 50 ba
       0.044738155 -0.14944358 0.2194299 -0.0007938396
000160 1d ba 99 3c 89 6b 9e be 03 6b f2 bc 2d c6 0a be
       0.018765504 -0.30941418 -0.029592043 -0.1355216
000170 2c 20 09 3e 1d 1c 35 be 88 a7 f2 3c c6 53 b1 3d
       0.13391179 -0.17686506 0.0296209 0.08658557
000180 7a c5 69 be 16 a0 1b be 9d 31 27 be 57 ac d4 3e
       -0.22829238 -0.15197787 -0.1632752 0.41537735
000190 93 f9 d9 3d 7e a2 96 3d 74 b8 a5 bc 22 50 cd 3e
       0.10643306 0.07355212 -0.020229556 0.401002
0001a0 ce f9 bd 3d 74 8c 5b be 6d 94 a2 be 51 65 ad be
       0.09276162 -0.21440297 -0.31753865 -0.3386636
0001b0 56 6c 76 3e f0 13 c7 be 67 96 2a be b0 2e 07 3e
       0.24064764 -0.388824 -0.16658936 0.13201404
0001c0 40 c7 a0 be d2 6b 85 be e7 33 a1 be 19 7a 41 be
       -0.31402016 -0.26058823 -0.3148491 -0.18894233
0001d0 a8 ba 2c 3e ef 44 69 3e ba 07 35 3e 5f 7c b1 3d
       0.16868079 0.22780202 0.17678729 0.086663
0001e0 51 3e ed be da ee 00 3e dc 22 6f be e5 bc 44 3d
       -0.46336606 0.12591115 -0.23353142 0.048031706
0001f0 50 29 4f be fb c3 1d bd 7c d3 67 be c5 9d b1 bd
       -0.20230603 -0.03851698 -0.22639269 -0.0867267
000200 8f 9e eb bd fc 95 5c be a7 5c 51 be 3e 21 1e be
       -0.11504852 -0.2154159 -0.204455 -0.15442368
000210 6a 27 bd be 39 31 56 3e a3 ae 3d bc d6 3f 43 bc
       -0.36944133 0.20917214 -0.011577281 -0.011917075
000220 ba b8 b1 be 24 80 c0 3d 25 21 f6 be c5 61 41 be
       -0.34711248 0.09399441 -0.48072162 -0.18884952
000230 c2 21 68 3c d9 b2 0c 3e d6 62 aa be be 46 ab 3d
       0.014168205 0.137401 -0.3327853 0.083631024
000240 35 48 29 3e 28 9e 98 be bc 60 a3 be 0d 17 88 3e
       0.16531451 -0.29808164 -0.3190974 0.26580086
000250 81 21 ec bc 91 80 0c be 18 5a 29 be 74 25 27 3d
       -0.02882457 -0.13720919 -0.16538274 0.040807202
000260 52 ec 3b be 51 e4 2d bd 11 48 78 3e 8b f5 88 3e
       -0.18351868 -0.042454068 0.24246241 0.26749834
000270 89 c8 e4 3d 11 f3 4b be 7e 9c 97 be 75 e6 5f 3e
       0.111710615 -0.19916941 -0.29611582 0.21865256

lstm.weight_ih_l1 f4 [160, 40]
000000 8c 6d 0c 3e 0d e0 d9 3e 5f 3b c1 3d 69 28 a2 be
       0.13713664 0.4255375 0.09435152 -0.31671456
000010 0e 4d bf 3e 19 7d 94 be 91 6d 43 be 21 0c 11 bf
       0.37363476 -0.29001692 -0.19084765 -0.5665913
000020 39 3f e0 3d a5 ab f8 bf b8 3c 2f 3e 82 f3 8d be
       0.10949559 -1.9427382 0.17113006 -0.27724844
000030 90 9c 2a 3e 6e ef 92 be 81 94 a1 bb c0 b1 98 be
       0.16661286 -0.28698295 -0.004931033 -0.29823112
000040 5a b0 e5 3d ab cb e3 3e ac 95 e7 3e 06 8e 4d 3f
       0.11215277 0.44491324 0.45231378 0.80294836
000050 94 5f e0 3e 94 d1 0f bf 82 dc 1e bf c2 07 4d 3f
       0.4382292 -0.56179166 -0.6205522 0.8008996
000060 23 82 9e 3e 0e 3a 3a 3e 71 1f c4 bf 75 5b a7 bd
       0.3095866 0.18186209 -1.5322095 -0.08171741
000070 84 07 6c 3e 32 dc bb be ba bf 3f 3c 39 fd 15 bf
       0.23049742 -0.36691433 0.011703426 -0.5858951
000080 2c 27 1c 3a 13 e4 68 bf 62 11 94 bd ce a3 8c be
       0.0005956765 -0.90973014 -0.07229878 -0.27468723
000090 86 cb 45 3e ae e2 8e bf 8e 7c 33 3f 88 49 c1 3e
       0.1931592 -1.1162927 0.7011193 0.37751412
0000a0 cc a2 df be 45 df 6f 3e 79 e1 bb 3d f8 23 70 bf
       -0.43678892 0.23425014 0.09173865 -0.93804884
0000b0 5a 43 3d 3e b7 88 0a be 2b 9b 3a bf b9 a4 12 3e
       0.18482724 -0.13528715 -0.7289302 0.14320649
0000c0 a4 e2 50 3c 85 5b dc 3e bb 27 8e 3d bc 3c 22 bf
       0.012749348 0.43038574 0.06941172 -0.63373923
0000d0 85 61 0d be 50 e5 11 bf 1b bb 78 3d d5 d7 80 be
       -0.13806732 -0.5699053 0.060725313 -0.25164667
0000e0 e5 cb ae 3c 9c af 0c bf 8a f6 90 3e b4 7f 08 3e
       0.021337459 -0.5495546 0.28313094 0.13329965
0000f0 a2 8a a9 be bd 33 42 be 17 05 bb be 89 77 f4 3e
       -0.3311358 -0.18965049 -0.3652732 0.47747448
000100 75 96 17 be 7d dd 38 bd 05 95 dd 3e 94 5e 1f 3f
       -0.14803489 -0.045133103 0.43277755 0.6225369
000110 db 79 bf 3d 22 8e 8b 3e 10 62 9a be 80 b5 99 be
       0.09349414 0.27256876 -0.3015294 -0.30021286
000120 2f 52 95 3d b0 c6 eb 3e 1d b3 87 be e7 ba 1b bf
       0.07291066 0.46050024 -0.2650384 -0.60832065
000130 56 36 88 be 29 3d 7f be f2 87 8f be 3b 42 a4 3e
       -0.26603955 -0.24925674 -0.28033406 0.3208178
000140 db f1 85 3e 6e 93 7d 3e fc 48 90 3e 45 c6 17 bf
       0.26161084 0.24763271 0.28180683 -0.5928691
000150 d9 c2 2c bd b2 8f bc be 28 c1 38 bf d1 ae e6 bc
       -0.04217801 -0.3682838 -0.72169733 -0.02815953
000160 e0 31 0a 3d f5 d4 c7 3e 51 e2 f2 be 95 b4 88 3e
       0.03373897 0.3902966 -0.4743829 0.26700273
000170 ae 1c b7 be fe 38 a2 be 7d a4 e9 bc c7 cd c4 be
       -0.35764068 -0.31684107 -0.028520817 -0.38438246
000180 d6 f7 67 bf 2e 2f 3f bf 0a 72 5c be ff db 90 3c
       -0.9061254 -0.74681365 -0.21527877 0.017683027
000190 9c d1 e6 be 2d 0b 04 3e ca 63 03 bf 91 7e af 3e
       -0.45081794 0.12894888 -0.5132414 0.3427625
0001a0 9a 88 bd 3c 63 fe d4 be 36 35 7c bd 6b 8d 85 be
       0.023136426 -0.41600332 -0.061574183 -0.26084456
0001b0 f4 95 1d 3f 81 ee 14 3f c9 38 c2 3e 5f c8 f2 3d
       0.61556935 0.5817643 0.3793395 0.11854624
0001c0 59 3d da 3e 79 f3 81 3d 46 03 06 3f 27 ad 2e be
       0.4262493 0.06345267 0.52348745 -0.1705824
0001d0 15 08 89 bc ad d5 15 3f 08 76 16 bf d8 f7 e4 3e
       -0.016727487 0.5852917 -0.5877385 0.4472034
0001e0 7f 5a 82 3e ad a3 8f 3e 5a 75 62 be ef 03 99 3e
       0.25459668 0.28054562 -0.22115079 0.29885814
0001f0 90 b5 b9 3e 7e 3c 54 3e c2 72 22 be 69 4c 17 3f
       0.36271334 0.20726201 -0.15864089 0.5910097
000200 1f 1f b3 3e ee 8c 58 be a9 a3 37 3e 87 5d fb 3e
       0.3498468 -0.2114751 0.17933525 0.49094793
000210 65 73 79 be c3 94 2f 3e a1 86 30 3e b8 3f 91 3b
       -0.24360426 0.17146592 0.17238857 0.0044326447
000220 65 ce e1 bd 02 dc 45 3d 34 44 e7 be a3 e8 cc bc
       -0.11025695 0.04830552 -0.45169222 -0.025013274
000230 9b 21 8b 3c a7 c6 b8 be 75 3c b2 be 95 69 8f bd
       0.016983798 -0.3608906 -0.3481175 -0.0700256
000240 31 5f 8e be d1 91 25 3e e3 82 ee be 2a 3a 34 3e
       -0.27807 0.16168906 -0.46584234 0.17600313
000250 98 07 5f be 70 be 55 bf 22 d9 01 3f 2c d1 04 bf
       -0.2178024 -0.8349371 0.50721943 -0.5188167
000260 e0 5c f8 3d b8 1d 78 be 3a eb 0f bf ac a7 06 be
       0.121270895 -0.24230087 -0.562183 -0.13149899
000270 ba f8 56 bd 43 39 19 3f 2d 4f 85 3e 96 ab 07 bf
       -0.052483298 0.59853 0.2603697 -0.52996194
000280 d5 34 30 bd 53 59 dc bd 2d c9 c4 be 28 ce 07 bf
       -0.043019135 -0.10759225 -0.38434735 -0.53048944
000290 e6 11 46 be 6a 2a 81 be c6 64 c9 be 87 91 7c 3e
       -0.19342765 -0.25227672 -0.39334697 0.2466489
0002a0 61 dc c2 bd 23 dd 09 3f 40 15 81 bc 28 78 8a 3d
       -0.0951469 0.5385305 -0.015757203 0.06761199
0002b0 d8 46 92 be 4f 4c b4 3e 2a 62 2d 3e 44 5e 07 be
       -0.28569674 0.3521447 0.16931978 -0.13219553
0002c0 05 11 5a bd ad 90 2c bf 29 60 a3 3e b1 ec 74 be
       -0.053238887 -0.6740826 0.31909302 -0.23918416
0002d0 08 77 69 bc 65 22 ed 3d 5b f0 3a 3e 00 9b 0b 3f
       -0.014249571 0.11578826 0.18255751 0.54533386
0002e0 ca c5 22 3f 0d aa 20 be dc 3d 4e 3e dc ca 6e 3e
       0.6358305 -0.15689869 0.20140785 0.23319572
0002f0 a4 10 4b be e8 39 23 3f 70 25 d9 3e 9c 9e ab bd
       -0.19830567 0.6376023 0.42411375 -0.08379862
000300 55 a7 a6 3e 8e ea b1 3e 5d b9 99 3e dc c1 19 bf
       0.3254954 0.34749264 0.30024233 -0.6006143
000310 07 71 8d 3e 58 d3 d2 3e 3a fd 62 3e 35 d8 bd 3e
       0.27625296 0.41176867 0.22166911 0.37079015
000320 02 f0 79 be f7 30 8a be 51 d8 94 be d8 d7 a2 be
       -0.24407962 -0.26990482 -0.29071286 -0.318053
000330 e0 90 3c 3e e2 4e 72 be 9a aa 92 3d e0 0c 2b be
       0.1841464 -0.23662904 0.07161446 -0.1670413
000340 33 de 09 be 10 de 43 3e e5 7d 1d 3f 85 f7 0e 3f
       -0.13463669 0.19127679 0.61520225 0.55846435
000350 5c a4 5d 3e 3e 5c cb 3e 61 82 3e be 99 87 92 3e
       0.2164473 0.39718813 -0.18604423 0.28619078
000360 0f ba 4f 3d 85 d5 26 bf e3 b4 12 be 76 8f 07 3f
       0.05071455 -0.65169555 -0.14326815 0.5295328
000370 24 e6 e3 3e 2b 52 d9 3e fb 18 16 bf ea cf cd be
       0.4451152 0.42445502 -0.5863187 -0.40197688
000380 7b 62 d7 bd 4d 52 4d bf cb 69 87 3e f9 c2 40 bf
       -0.105168305 -0.80203706 0.264479 -0.75297505
000390 0d 65 df 3d 8f b3 89 bd 9d 34 88 3e b5 e7 0e 3f
       0.10907946 -0.06723701 0.2660264 0.55822307
0003a0 b7 91 69 3e 66 48 9e be 5a d1 02 be 26 96 a6 bd
       0.22809492 -0.3091461 -0.12775174 -0.08134107
0003b0 f9 fc cd be 71 98 56 3f ce dc 17 be fd 26 49 3f
       -0.40232065 0.8382636 -0.14830324 0.78575116
0003c0 81 f0 8f 3e e4 57 ea 3e 4f a0 51 3f 89 ab 3b be
       0.28113177 0.4577018 0.81885237 -0.18327154
0003d0 b7 84 c3 3e 96 3a 8c be 9f fc e9 3e 7c 3e 69 3e
       0.3818719 -0.27388448 0.45700547 0.22777742
0003e0 aa 6f 37 be 30 b7 1b 3e 55 eb 0e 3f f4 53 48 be
       -0.1791369 0.15206599 0.5582784 -0.19563276
0003f0 51 7b 7e 3e d4 30 79 bf c7 8e 13 be 96 b1 ec be
       0.24851729 -0.9734013 -0.14409934 -0.46229237
