trained_models/56.pth (torch, 558517 bytes, 9 tensors)

lstm.weight_ih_l0 f4 [420, 11]
00000000: d2cd 983d 94e3 a53d ec01 913c 8f82 9abc
00000010: df8d 573e 8a55 b6bd 38c2 eabd cc93 a7bc
00000020: 0bbd d6bb 9b2c f2bd d163 033d 39a0 953c
00000030: 5ba9 933d 3af8 523d 9980 293e b169 d2bd
00000040: 1f03 e63d a1f3 1e3e a887 1fbe 91a7 2c3e
00000050: 8a5d 5abe fabd f6bd 675a 22bd 8e95 843d
00000060: 33cd d5bd 3300 80be 5dec cfbd 86ea d4bd
00000070: 3fdd a83c 7910 16be cf74 463e ad2a 85bd
00000080: 6b17 b43d 860b 853c 30cb 01bd 33d8 71bc
00000090: 3c71 2bbd 3806 31bd 0af0 943d 39c5 fdbd
000000a0: d988 223e a285 cdbc 4f82 823b 1fcc a73d
000000b0: 2511 673d 1ac0 2ebd ba7f 88bb 2cc6 3e3c
000000c0: 1104 053e ee03 093d 0c48 8ebd 2b6f 9bbd
000000d0: 3c7b 7ebd 38d6 503e 64dc d63d b292 253d
000000e0: 5ad6 fc3c 9628 5b3d 2294 a53d eed6 74bd
000000f0: df2b 05bd f905 df3b 24a6 1bbd 18f8 8abd
00000100: a96a 88bd f827 21be 0fc4 a53d 82eb 6cbd
00000110: 9a28 9dbd 5d01 a83c 607c 463e 6464 cf3d
00000120: 589f a63d 1f9d f5bd 1124 94be ca57 833c
00000130: 43a5 a4bd fae7 213d 1822 0f3d be72 b23c
00000140: 7aaf e8bd 3926 b2bd 2450 a93d 2d99 18be
00000150: 0a99 373e 5ad6 b5bd 63a7 e33d 7e75 2339
00000160: 15b9 49bd 58bc f33c 335e bfbd 6628 19be
00000170: 3877 403c b2a9 143e 9cb2 d23c 5fad 93bc
00000180: 2570 913d d53d 13be 392d 833d 3d63 c1bd
00000190: a7e9 64bd 4edb 84bb ee1b 25bb dd28 d5bc
000001a0: bf44 2c3d 7d2b 00bb fa66 cdbd 2094 0b3e
000001b0: 910e 88be fcf5 08bc 42c9 c73d 5aff 963c
000001c0: 2857 4b3d 64ea 1cbe f22b 20bd 2c9d 98bd
000001d0: a850 57bd 9fd4 88bd 6640 94bd 4c43 02be
000001e0: ac6d 213c 86bd 14bd 9598 ddbb 924d 08be
000001f0: 56c2 f3bd 630c 35be 6b76 a13c a751 92bd
00000200: 9fa8 df3d de2a 02bd ec5c 3d3d 4a4d c83d
00000210: 993e a9bd 2b50 8a3d 8c8a 633b 6faf 273d
00000220: 779b d9bd 3e96 b5bd 9002 4d3d 44c5 8fbd
00000230: 6112 1c3e d494 6cbe 4bf1 1a3d 0fb6 92bd
00000240: 830b 8abc 5340 30bc a756 06be afe4 153e
00000250: a2a8 083d a79e 3b3c 0ae1 b3bd a166 0bbe
00000260: 5fbf ff3d 4066 52be 540c b63d c6b0 92bd
00000270: ef90 113e c611 ab3d 21f0 643e 6de1 bfbd
00000280: 23c7 4c3e e135 bfbd ae66 92bd 7dc1 c0be
00000290: dafe c4bd c1de 6fbc 1b20 37bd 00cd a63c
000002a0: 84d3 e3bc 4514 84be 7328 99bc 0eda 9a3a
000002b0: 614b d73d 3f13 42bb 7126 1abe b6fc b2bc
000002c0: 4950 95bd 658e 0e3d cbde 1e3d 22df 2abe
000002d0: 62c9 093e 39d1 0b3d 4b74 47bc 67f7 6a3e
000002e0: 1141 39bd ef8d 033e 8279 0abd 557b 8cbc
000002f0: 83b2 d3bc ec78 c33d 3fc5 b73d 5c65 0e3c
00000300: 16e6 7d3c 0b96 833e 992f 1ebe 3138 94bd
00000310: 384d 6ebd 28c1 07be d532 c03c ea08 e03c
00000320: 3c8c eb3d 4508 1fbd 6900 243e 5511 93be
00000330: 26ce 6c3d 938e 9fbe b799 0abe e3de eebd
00000340: 9ea3 16be 73fd 063d 2be0 7e3d 9801 1ebc
00000350: f64b e6bd 6bb4 853b a549 4a3d ee7c 163d
00000360: 6dd2 d1bd c028 1dbd b7f4 36bd 8a4f 39bd
00000370: 035d 81bd e1e0 913d a7bc a4bd 947a 333e
00000380: 1928 6dbe e96a 793e eeec 0b3c 4126 263c
00000390: 1c26 9ebd 0801 323d 82c4 693d f409 953d
000003a0: 7be9 3f3d e75b 0f3d 0921 66bd d7bd 2fbd
000003b0: 4342 5c3c 7735 75bc 2624 c9bc 77d1 04be
000003c0: 78aa abbd e7c1 1bbe 92e4 a0bc c30b 66bd
000003d0: e397 86bd 8152 54be 58d5 8f3c 117d f2bb
000003e0: 2439 08bd 265e f5bc 0cd4 32bd 5123 ddbd
000003f0: 8f91 273e 77c4 41bd 5596 f4bc 1342 14be
0.07461132 0.08100048 0.017701112 -0.018861083 0.21050213 -0.08903034 -0.114628255 -0.020456217
-0.0065532974 -0.11824914 0.032077614 0.018264877 0.07210036 0.05150626 0.16552962 -0.10274065
0.11231064 0.15522625 -0.15579093 0.16860797 -0.21324745 -0.12047954 -0.039636996 0.06473838
-0.10439529 -0.25000152 -0.101525046 -0.10396294 0.02061331 -0.14654721 0.19380496 -0.065022804
0.08793529 0.016240846 -0.031687915 -0.014761019 -0.041856036 -0.04321882 0.07272346 -0.12391133
0.15872516 -0.025088135 0.003982819 0.0819323 0.056412835 -0.04266367 -0.004165617 0.011643928
0.12989832 0.033451013 -0.069473356 -0.07589563 -0.062129244 0.20394218 0.10491255 0.040423103
0.03086393 0.053505503 0.08084895 -0.059775285 -0.03251254 0.006806132 -0.03800024 -0.067856014
-0.06660969 -0.15737903 0.08094036 -0.057841785 -0.0767376 0.020508463 0.19383383 0.1012657
0.08135861 -0.11992859 -0.28933766 0.016033072 -0.08039334 0.03952787 0.034944624 0.021783229
-0.113615945 -0.08698697 0.08267239 -0.14902182 0.17929474 -0.08878775 0.11115911 0.0001558866
-0.049248774 0.029752895 -0.09344139 -0.14956817 0.011747174 0.14517859 0.025719933 -0.018027006
0.07101468 -0.14379056 0.0640511 -0.09442756 -0.05588689 -0.0040544635 -0.002519365 -0.026020462
0.04205775 -0.001955717 -0.10029407 0.13630724 -0.26573613 -0.0083594285 0.09755184 0.018432308
0.049643666 -0.15323788 -0.03910441 -0.07451853 -0.052567154 -0.06681179 -0.072388455 -0.12720984
0.009852808 -0.036313556 -0.006762574 -0.1331084 -0.11902301 -0.17680506 0.019709786 -0.0714448
0.10920834 -0.031779163 0.046231195 0.09780367 -0.08263893 0.06753572 0.0034720032 0.04093879
-0.10625356 -0.08866547 0.050051272 -0.07020047 0.15241386 -0.23103648 0.03782777 -0.07163631
-0.016851192 -0.010757524 -0.13118993 0.14638017 0.033363946 0.0114514 -0.08783157 -0.13613369
0.12487673 -0.20546818 0.0888907 -0.07162623 0.14215444 0.083529994 0.22357227 -0.093691684
0.1999784 -0.093364485 -0.07148491 -0.3764762 -0.096189216 -0.014640511 -0.044708353 0.020361423
-0.02781082 -0.25796714 -0.018696046 0.0011814253 0.10512424 -0.0029613522 -0.15053727 -0.021849018
-0.07290704 0.034803767 0.03878669 -0.16686681 0.13455728 0.034135077 -0.0121737225 0.22945939
-0.045228068 0.12847112 -0.033807285 -0.017148653 -0.025841957 0.095445484 0.089731686 0.008691158
0.015496751 0.2570041 -0.15447845 -0.0723728 -0.05817911 -0.13257277 0.023461739 0.027348
0.11501357 -0.038826246 0.16015781 -0.2872416 0.057813786 -0.31163463 -0.135352 -0.11663606
-0.14710853 0.03295655 0.062225502 -0.009643935 -0.11244957 0.0040803454 0.04938664 0.036740236
-0.10245214 -0.03836894 -0.044666972 -0.04524187 -0.06316569 0.0712297 -0.08043795 0.17527229
-0.23159827 0.24357189 0.008540375 0.010140956 -0.077221125 0.043458015 0.05707217 0.07277289
0.046853524 0.034999754 -0.05618385 -0.042905655 0.013443532 -0.01496636 -0.02455337 -0.1297053
-0.08382124 -0.15210687 -0.01964024 -0.05616356 -0.06571939 -0.20734598 0.017557785 -0.007400163
-0.03325762 -0.02995212 -0.043659255 -0.10797752 0.1636412 -0.047306504 -0.02985684 -0.1447833

lstm.weight_hh_l0 f4 [420, 105]
00000000: db1b aa3d 8856 c4bd 13cd 133d 9770 353d
00000010: c672 b2bd 81ce 6a3e 1983 80bd 3e8e 2e3e
00000020: 6736 fb3b 3625 52be 3b34 bfbb 525f e53d
00000030: 7d57 dabc f997 d1bd 15a7 48bb f4f2 f03c
00000040: ce8a 1b3c 5ffb 2e3e 22cb 51be 0868 2e3e
00000050: 99b8 903d 8151 263d 93df 2e3e 1fdd 94bd
00000060: e0d3 c43d de37 6dbd f083 30be 0621 a1bc
00000070: 3e7c fb3d a0a9 1e3e 67a9 07be 0ad8 263b
00000080: 9ce2 69bd 0d42 ce3d 9f65 3ebc 701b bebb
00000090: 9666 df3d 69a5 cebd a132 26be 9ddc 4dbb
000000a0: 1471 08bd 3850 0c3c 2354 75bd 39e4 58ba
000000b0: fab8 4ebc fe01 a4bd 686e 7f3d e023 3e3b
000000c0: be2a 993d a0b7 24bd 21ec 2d3c 9541 95bb
000000d0: 5b9e 6a3d b70f ce3d cda3 9c3c 8670 463d
000000e0: 0db4 c2bc 0d21 1b3e 183c 0b3d 9a9d 3c3d
000000f0: cf56 b2bd bb64 623d c4d0 26be 5db0 96bd
00000100: 5a0c 25bd bd5a 73bd 99a1 5c3d 9c87 4e3d
00000110: 343c 5fbe b739 663d 2ec3 1abd 0f25 adbc
00000120: 7c27 22be 2d51 ec3d 0562 cf3b 0d8a d63b
00000130: 3d05 f43d 1281 f6bd f14e 1c3d bf57 96bd
00000140: 9e37 6d3c 8e84 a63d 5d7c 9f3c 2f48 ef3d
00000150: 7727 6dbd 1fe5 27be 0f1f 2e3c fd52 183e
00000160: f67e fbbd b967 b6bc 4e37 743e 8b63 17bd
00000170: 2ecc b7bd 3f56 90bc f27f 16be cdc5 24be
00000180: 9a16 803d b764 b8bd 717e 583c e5d6 4f3e
00000190: c320 3c3e bf1b 333d fccd 943d 0b81 8bbc
000001a0: 0e69 493c 00fc 2c3d 2b5b 37bd 154c bd3d
000001b0: b624 963d 9695 1cbe 8ed0 b4bc 7e2a 74be
000001c0: 7de2 983a 2164 4a3e ad45 27be d59b febd
000001d0: b15e 2bbc 1ef9 37bd c3e5 69bd ecbd 94bd
000001e0: 6ac1 4b3e a060 c33d 6b16 b43d 6feb aabd
000001f0: 6749 4fbd cd18 41be 4f68 43bd d2e6 c8bc
00000200: 32eb 0bbe d82f 313e 48de 6ebd 9d24 273c
00000210: 3ce1 19be 2d5f 43bd 67d6 c93d f2ed d2bd
00000220: 5475 7ebd 35e9 143d 7872 b5bd e936 6f3d
00000230: b8c8 d13d ce26 b6bb 4242 3ebd 8b00 89bc
00000240: 9b03 093d bef5 5dbd 7fa8 583d de2d bfbc
00000250: 8e1c a3bc 24be 353d 9eee 1ebe 973a 23be
00000260: c77a 0ebe 45d3 123e 4613 913d 9bb7 4ebc
00000270: 2c20 423c 7fcf 2a3c 4f35 e9bd 379c 133b
00000280: 81e0 8f3d d84c 4b3d f1af 353d 33e5 adbd
00000290: 609c 2abe 2757 433d 5239 08bd f016 95bd
000002a0: 7aed e83b af5f a0bd 59ca 29bc 9491 2abe
000002b0: 4f24 713c 49dd b23d 9486 b7bd 64bb c7bc
000002c0: f4ad a1bd 8089 f8bd d532 f1bd a00f 913c
000002d0: 9721 f3bd 7da2 97bd 9d9c ad3d 92f8 ad3d
000002e0: 5662 a13d df62 823d 1134 3abd 917f 97bc
000002f0: 434f 5fbd cd03 b03b 4f8c 65be 69c3 043e
00000300: 0d02 30bd 1412 e7bd 487a 9a3d 6038 13bd
00000310: 2ce7 6c3d 10ef da3d 99ce 2dbd 6226 6f3d
00000320: eec8 11be 5ac8 c93d f7a5 c13d b1ec bd3d
00000330: c2c6 ad39 1313 913d 7e34 31be 77db f7bb
00000340: 66e6 9e3c 3c10 42be f0e2 de3d 9e34 923d
00000350: 2beb 0bbb d179 7b3d e1ca 113e 1dc3 243d
00000360: fbd5 3c3d a54c aa3e d379 32bb ce6a 01bd
00000370: e8ae d43d 6dd6 62be c7f8 993d ac42 e5bd
00000380: 677e ec3d 19e4 903c 6a35 a8bd ec74 c63d
00000390: 02bb 0cbe 0d24 babc 69ae 05be ff1e 283e
000003a0: 0e4b 173e 2ff4 eb3d 5fd9 a63d e260 023e
000003b0: 8bf7 04be 3232 e1bd 1dda a8bd c6ed dc3d
000003c0: 3c38 d5bc a89a 183d 6919 c43d 071d 84bd
000003d0: cd45 43bc ff66 e23c 0c0a 063d f1b8 7fbd
000003e0: 9496 9ebd 56ce c23d 4fb4 bf3d 0341 933d
000003f0: 7db5 573d 5aa3 3ebc f10c ecbd cb63 21bd
0.08306094 -0.09586817 0.036084246 0.044296827 -0.087132975 0.22930337 -0.06275005 0.17046449
0.0076663974 -0.20522007 -0.005835084 0.111998215 -0.026653046 -0.102340646 -0.0030617167 0.029412724
0.009493543 0.17088078 -0.20487645 0.17031872 0.07066459 0.040605072 0.17077474 -0.07268738
0.096107244 -0.057914607 -0.1723783 -0.019669067 0.12279557 0.15494394 -0.13248216 0.002545836
-0.057100877 0.10071192 -0.011620908 -0.0058016106 0.109082386 -0.10090143 -0.16230251 -0.0031412013
-0.033310965 0.0085640475 -0.059894692 -0.0008273754 -0.012617344 -0.080081925 0.06236115 0.0029013082
0.074788556 -0.04021418 0.01061538 -0.004554937 0.057279926 0.10061591 0.019121075 0.048447154
-0.023767496 0.15149327 0.033992857 0.046048738 -0.08707964 0.055271845 -0.16290575 -0.073578574
-0.040294982 -0.059412707 0.05386505 0.050422296 -0.2180031 0.056207385 -0.037783794 -0.021135835
-0.15835375 0.115389206 0.0063288235 0.0065472187 0.119150616 -0.12036337 0.038161222 -0.07340955
0.014478592 0.081307516 0.01946848 0.1168369 -0.057898965 -0.16395997 0.010627522 0.14875408
-0.12280075 -0.022266256 0.23849222 -0.036960166 -0.08974491 -0.01761925 -0.14697245 -0.1609108
0.06254311 -0.09003585 0.01321374 0.2029682 0.18371873 0.043727633 0.07265851 -0.017029306
0.012293113 0.042232513 -0.04476468 0.09243027 0.07331221 -0.15291438 -0.022072103 -0.23844334
0.0011664178 0.19764759 -0.16335173 -0.12432066 -0.010459588 -0.04491531 -0.057103883 -0.07262787
0.19898 0.09539914 0.087933384 -0.08345687 -0.05060711 -0.18857117 -0.0477069 -0.024524126
-0.13663939 0.17303407 -0.058317453 0.0102016 -0.15027326 -0.04769819 0.09855347 -0.10299291
-0.06212361 0.036355216 -0.08859724 0.058401976 0.10243362 -0.005558825 -0.046449907 -0.016723892
0.033450704 -0.054189436 0.052895065 -0.0233373 -0.019911077 0.044370785 -0.15520713 -0.15940319
-0.13914023 0.14338405 0.07083754 -0.012617017 0.011848491 0.0104254475 -0.11387121 0.0022523531
0.070252426 0.04963383 0.044357244 -0.08490982 -0.16661215 0.047690537 -0.03325779 -0.072797656
0.0071083875 -0.0783075 -0.010363185 -0.16657096 0.014718129 0.08733613 -0.089612156 -0.024381347
-0.07894507 -0.12135601 -0.117772736 0.017707646 -0.11871641 -0.07404039 0.08477137 0.08494677
0.07880084 0.063665144 -0.04545981 -0.018493446 -0.05451895 0.005371547 -0.22416805 0.12965168
-0.042970706 -0.11282745 0.075428545 -0.035942435 0.05783765 0.10690129 -0.042433355 0.058386214
-0.14236805 0.09852667 0.094554834 0.09273661 0.00033145217 0.07083716 -0.1730518 -0.007564004
0.019396972 -0.18951505 0.10883129 0.07138942 -0.0021349888 0.06139547 0.14237548 0.040225137
0.046102505 0.332616 -0.0027233257 -0.031595998 0.10384923 -0.2215211 0.07518154 -0.11194357
0.11547547 0.01768689 -0.08213313 0.0969027 -0.13743213 -0.022722268 -0.13054813 0.16418074
0.14774725 0.11521184 0.08146929 0.1273227 -0.12985055 -0.10995902 -0.08244727 0.10787539
-0.026027791 0.037256867 0.09575159 -0.06450849 -0.011918497 0.027637003 0.032724425 -0.062432233
-0.07743564 0.09512012 0.09360563 0.071901344 0.052663315 -0.011635626 -0.11525906 -0.03940181

lstm.bias_ih_l0 f4 [420]
00000000: 67d4 933c 019d 953c 44f5 523d cc71 a53d
00000010: 83b6 0c3e 3bdf d9bd 391d 083e 27df 0bbd
00000020: 6b1b 893d 9fca 3a3d 9d5c 56bd 0092 373e
00000030: 781b 233d 2fe6 d23d 1223 733e 6980 a93d
00000040: 5f8c 94bc e9e4 853d 6085 c73d 78de 8b3d
00000050: 0917 343e 15a0 8a3b d594 ce3d c369 feb9
00000060: 88aa 99bc 4419 fcbc 2128 a23d 08b1 1a3e
00000070: f7b9 1b3e 1dc6 523e 0ab7 df3c 7435 6abc
00000080: ab91 b63c 033a ac3b bd3c 443e 9988 d13d
00000090: f539 433e 9141 1bbd e45c b93d a983 563e
000000a0: 02a9 3abd 3106 0e3d 5616 5c3d 3c7c 8cbd
000000b0: 3299 d03d 16ed 2ebd a3e2 e63c 3435 b4bd
000000c0: aca2 a73b 581a 4d3b 2e21 4dbd 586b cd3b
000000d0: 0ab6 8d3d 36ff 973d 6209 263c b053 a33d
000000e0: 2de1 d13c e53a df3b fc91 9c3c b264 0cbd
000000f0: 6617 803d 57ff 423e 9bcb 963d 607e 9a3d
00000100: d6d5 8e3d 22f8 e93d 0df3 e43d e0ca 1d3e
00000110: 3e88 053d 37b1 ad3d a519 553d 5c07 f7bc
00000120: 8426 b03c 248a 553c 6898 033d f58d 063c
00000130: 22b6 233e 6a8b f03c 9666 183e 8662 ed3c
00000140: 7a3b 903d 5b54 f83d 33a1 c83d 2bc3 b7bc
00000150: c8b2 0c3e bd8e 9c3d a15c 223d 3392 ab3d
00000160: 93c2 e83d 9e13 d2bd 591b 95bd 32e1 833e
00000170: e0bf 35bc c696 873d 669a 423e d6d2 cf3a
00000180: bf79 2a3e 366a 583c 91c7 16bd 8339 c1bd
00000190: 022c c13b 8b7c 2f3c ba1c de3d 94c5 923c
000001a0: d7f2 8d3d 1189 fb3d 9edd 053e 1ad4 dc3d
000001b0: 59c3 d2bb 573c 4a3d 1acf 963c bdb8 913c
000001c0: 04f4 b2bd 915e b9bc d7f8 9f3d b1ea db3b
000001d0: 2c19 42bd 23ab 7d3d b6e8 0bbc 21c6 a43d
000001e0: 2598 263e 7c03 c93c b634 7fbd 3282 75bc
000001f0: 0c89 c1bc 5cfd eb3d e0b3 91bb 10af 4a3e
00000200: 0773 113e 1427 bf3d d561 833d 2849 853d
00000210: 1288 ea3c f712 3f3d 4d81 3d3e f314 15bc
00000220: 9d72 fe3d b0df 8a3d 836a 6c3d 8019 c83d
00000230: 0308 8e3d ab27 9b3c 0b5d 1a3d 46c8 b53d
00000240: 3d0b 2a3e 2027 8f3d 5d58 a9ba c5b6 d6bb
00000250: dc6a 46bd af25 d93d a15c 753d 20f5 a23b
00000260: 1c68 e83d 9713 1a3e d8a8 8bbd fb2f 8f3d
00000270: 052c 86bd 0e36 fd3d 4320 543e b783 d23c
00000280: 281a 0c3e 6c2a 3f3e 9ea7 df3d 7aa0 743d
00000290: 9f9c 02bd 686c e4bc 6375 113e 2f7d 72bd
000002a0: 824e 263e f326 3d3c b662 503d ceb8 fe3c
000002b0: a8dd b03d 9c21 80bd fe2f a03d 36f7 39bb
000002c0: ad09 db3d 9dcb 053e 796a f93c 1737 2cbb
000002d0: 1759 0dbc 8b42 033d 6259 9a3d d6a0 223e
000002e0: 817a 643e ab68 22bc b699 5f3d e501 883d
000002f0: fa38 50bd be72 c5bb bd10 913d e01c 5e3d
00000300: 6717 af3d 0496 9ebc 85fa 85bc d55c 613d
00000310: d1b9 c73d b949 dd3d 216e 923d 59b6 353e
00000320: 8fea 9d3b cd50 623d ca1b 493e 4372 bc3c
00000330: e6de c9bb af14 b13d 8552 573d c961 05bd
00000340: 7fed 9a3b 62db ee3d 15d2 0cbd 53c2 94bd
00000350: f8c4 47bd 5304 6f3d d8fa 9b3d 50d9 de3c
00000360: 0a5e 683c 7475 023c 7a2b 533d 6fd6 dcbd
00000370: e5ee a73d 5549 a0bc 7986 69bd 56ac c2bc
00000380: f3bd 823d 0d82 f83d 0d8e 9b3d 84f2 ffbd
00000390: 2c38 ad3c d4e5 9fbc 36d4 933d cfa9 5cbc
000003a0: f53b 89bd 79af 73ba 80bd dcbc 8971 a2bc
000003b0: 57dc 463b 325f 823a bc31 9abc c0c9 b43d
000003c0: 02b2 d9b9 95e3 b9bc 6b14 cebd 4b8a 98bc
000003d0: 09d1 3e3d c676 813d ac78 42bc 342e 85bd
000003e0: 136e bcbd 1c94 9dbd 8eb4 99bd 4bc0 2fbd
000003f0: 8d09 b3bb ee62 84bd dc1c 7dbd 6fc2 06bc
0.018045617 0.018263342 0.051503435 0.08078346 0.13741498 -0.10638281 0.13292398 -0.03414836
0.06694683 0.04560339 -0.052334417 0.17926788 0.039821118 0.1029781 0.23743847 0.082764454
-0.01813334 0.06537802 0.09742236 0.06829542 0.17586912 0.004230509 0.10086981 -0.00048525454
-0.018758073 -0.030773766 0.0791781 0.15106595 0.15207659 0.20583387 0.02730896 -0.014294971
0.022286257 0.005255939 0.19163795 0.10231132 0.19065078 -0.037904326 0.090509206 0.20948662
-0.045571335 0.034673873 0.05373224 -0.06859633 0.1018547 -0.04270657 0.02818424 -0.0879921
0.0051158275 0.003129622 -0.05008047 0.0062689 0.06919487 0.074217245 0.010134073 0.079749465
0.025620067 0.0068124407 0.01911258 -0.034275718 0.06254463 0.19042717 0.073630534 0.07543635
0.0697438 0.11424281 0.11179171 0.15409422 0.032600634 0.08481067 0.05202641 -0.030154876
0.02150274 0.013033424 0.032127768 0.008212556 0.15987447 0.029363353 0.14882883 0.028977644
0.07042594 0.121254645 0.09796371 -0.02243193 0.13740075 0.07644413 0.03963912 0.08377495
0.11365237 -0.10257648 -0.07280607 0.25757748 -0.01109311 0.066205546 0.19004211 0.0015855681
0.16648005 0.013208916 -0.036811415 -0.094347976 0.0058951387 0.010710846 0.10845323 0.017916478
0.06931084 0.12282003 0.13072821 0.10782643 -0.0064319787 0.04937395 0.0184093 0.017788285
-0.087379485 -0.0226281 0.07811134 0.006711327 -0.047387287 0.061930787 -0.008539369 0.080456026
0.16268976 0.024537794 -0.06230613 -0.014984654 -0.02362492 0.11522934 -0.0044464916 0.19793344
0.14204036 0.093336254 0.06415144 0.06508094 0.028629337 0.046648946 0.18506356 -0.009099233
0.124242045 0.06780946 0.057718765 0.09770489 0.06935122 0.018939814 0.03768639 0.0887609
0.1660585 0.069898844 -0.0012920011 -0.0065525495 -0.048441753 0.10602891 0.05990279 0.004973069
0.11347982 0.15046535 -0.06819314 0.069915734 -0.06551365 0.12363826 0.20715432 0.025697572
0.13681853 0.18668526 0.10920642 0.059723355 -0.031887647 -0.027883723 0.14204936 -0.059201416
0.16240886 0.011544931 0.050875388 0.031093981 0.086360276 -0.062564105 0.07821654 -0.002837611
0.10695205 0.13065954 0.030446278 -0.0026277953 -0.008627198 0.032045882 0.0753658 0.15881667
0.22312357 -0.00991265 0.05458995 0.06640986 -0.050835587 -0.006025641 0.07083271 0.054226756
0.085493855 -0.019358642 -0.016354809 0.055020172 0.097522385 0.10805077 0.07149912 0.17745341
0.0048192213 0.05525284 0.19639507 0.023003703 -0.006160605 0.08646523 0.05256893 -0.03256396
0.004728019 0.11662938 -0.034380037 -0.07263627 -0.04877183 0.058353733 0.07616204 0.027203232
0.014182577 0.007962573 0.051555134 -0.107830875 0.081998624 -0.019566217 -0.05701301 -0.023763817
0.06383886 0.1213418 0.075954534 -0.12497428 0.021144949 -0.01951877 0.072182104 -0.01346822
-0.06700889 -0.0009295862 -0.02694583 -0.019829528 0.0030343735 0.0009946583 -0.018822543 0.08827543
-0.00041522091 -0.022691527 -0.10062488 -0.01862063 0.04658607 0.06321482 -0.011869591 -0.06502953
-0.092006825 -0.07694265 -0.07505141 -0.042907994 -0.005463785 -0.06464182 -0.0617951 -0.0082250675

lstm.bias_hh_l0 f4 [420]
00000000: 1104 84bc d31f d83d 98fc 89bc c662 983d
00000010: 66f6 f03d ab60 83bc 412e 8f3e 4896 fc3d
00000020: 24c6 ddbc 3437 8e3d ea81 6dbd 6918 953d
00000030: bcc5 c63c 6e3b 223d 4ec5 653e df64 1f3e
00000040: 664d ea3d b382 d43d 4bbc 1f3e 2c1a e23d
00000050: 3f7a 1e3e 1245 ab3c 48f3 d13d 9f3f 2ebd
00000060: 007c 9cbc 67ee 393d 719b 3c3d 1d36 003e
00000070: 8278 ef3d 5666 cc3d 44ec 5a3d a746 363d
00000080: fbc5 ae3d a818 0fbd dc70 ed3d 4b41 973d
00000090: 2c38 dd3d 08d0 a7bd 61f7 8b3d f201 003e
000000a0: 1ff9 b23d 182e 133b 0bbf 9abd 2674 3ebd
000000b0: 1653 d73d 2f8e 443b 9875 d6bd a925 39bd
000000c0: f612 023e 213e 233e ef65 0ebc 3d69 cfbb
000000d0: e71e 803d 5ef7 6bbb 0112 1c3e 91ea 21bd
000000e0: a4ef 4e3d 3c1b f83d 89e4 b43d 1f4a b63d
000000f0: e3ca 353d 90ee 333e 8c99 103e ba9c 0c3e
00000100: 230e d63c bd74 493c 2c36 4a3e e984 ac3d
00000110: 7e9b 4bbd d111 d93d 0084 86bc 929a 453d
00000120: a218 f03d 45cc 31bc 17b9 f33d fb78 b93d
00000130: 6d28 803d 2566 653c a582 3c3d e7f8 013d
00000140: 4c3f 8b3d 5308 873d e07e 1e3d 0386 0e3d
00000150: d967 313c a9da d53b bcc8 8f3c 1d3a dc3d
00000160: fcb3 1c3e c1d1 5abd 4d93 a63d b01c 0c3e
00000170: ad4d 643c a0f5 8abc 5c97 013e 5aa9 483d
00000180: 5216 8a3d ab52 063e f54b 0a3d c53b 96bd
00000190: 95b8 0b3e 06a9 323d f337 e53d 14b8 ef3d
000001a0: d34e b538 a2bf febc 835a 2d3e 348d e8bc
000001b0: 0c62 483d 4609 1f3e c10b 0e3c 1569 973d
000001c0: 2950 bebb daf9 0d3c 92c5 aa3d 7b67 a7bd
000001d0: b772 6c3d 3261 8dbc 66e1 893d 45ac ec3c
000001e0: 384e 063e cb97 ac3d 05f4 b8bc 7133 86bc
000001f0: 21d1 103d bdf2 e53d 5ca9 953d 63d4 7f3d
00000200: 36e0 5f3d 2b75 823d edd9 853d b5ce 073e
00000210: f093 de3b 7de8 8f3d bda8 f13d 6258 ac3b
00000220: 6270 a73c bca2 b7bc 2be2 a83c c7e2 593c
00000230: a1ba c83d 84eb 3c3d b4f0 15bd da2e 3ebd
00000240: 10c6 0d3e 584e 52bc cba7 c53c 6d1f f1bc
00000250: ea06 9c3c 75e6 cd3c b18c 4dbd c872 a33d
00000260: 9718 cb3d 8b35 323e 8f7d 6f3d 8e82 953d
00000270: c50f d93d 8981 413d 6139 533e 2e14 9bbc
00000280: 4253 b73b 7929 163d 0925 463d c1d3 923d
00000290: 2e4a babb 98c6 d83d 2855 3a3e b2b0 873b
000002a0: bc28 6f3d c76f 8f3d 7039 88bd 7b00 8b3b
000002b0: f799 a63d 2aeb 8bbc 3c49 133e bc09 033d
000002c0: 4e3d 103e f8c0 303e b8ad 153e f3d1 073e
000002d0: 3ad6 e03c c9bb 403d 5423 113e bb7d 863d
000002e0: 6f66 fb3d 8927 b03d d901 1c3e b743 553e
000002f0: 5d16 5e3d bb71 d73d 07c6 913d e922 ed3c
00000300: ddfb 3cbd ce3c 3cbd 21e5 783d ca0e a23c
00000310: ad19 bf3c 485c 15bd 95a9 8b3a de23 183e
00000320: 8b06 ef3c 0a53 af3d 4ffc f03d 09cf 003e
00000330: 1d70 463d 0af3 dc3c a017 913c 5309 923d
00000340: 6f58 ea3d 01c6 883d 5796 a0bc 5615 f83b
00000350: aabb f1bd cdec 853d 4fb6 6e3d 8af8 2d3d
00000360: 7ba5 d4bd be5d a03c 6fce 2b3d 7805 8abd
00000370: 4fdc dbbb 9f39 e73c 4a54 923d 5008 b53d
00000380: 5fe6 34bd c8c1 7bbd f2e2 b33c 6cad fd3c
00000390: 4525 e13d 4ebe 813d 8164 a6bc d687 61bd
000003a0: 538b 0d3d f772 58bd 790f 4e3d 81ff 233c
000003b0: ced1 cfbb ac80 cc3c fc67 023e 1e6c 2dbc
000003c0: 8a88 523d 61fe 5c3d de70 793d a9a7 0f3e
000003d0: 6dc9 d8bb 9376 803d a34d 5b3d 12ce 3bbb
000003e0: 8ae9 87bd 8c5a 2b3c d3ff aabc 72ea 17bd
000003f0: 77f7 e13d c937 a7bd be7c a43d 476c 33bd
-0.01611522 0.10552945 -0.016844079 0.074407145 0.11765747 -0.016037306 0.27964976 0.123333514
-0.02707202 0.06944123 -0.057985224 0.072800465 0.024264209 0.039607458 0.22438547 0.15565823
0.11440544 0.103764914 0.15599172 0.11040148 0.1547632 0.020906959 0.1025148 -0.042541143
-0.019102097 0.045393374 0.046046678 0.12520643 0.11692907 0.099804565 0.053447977 0.044500973
0.085338555 -0.034935623 0.11593792 0.073855005 0.108017296 -0.08193976 0.06834293 0.12500742
0.08738922 0.0022457894 -0.0755597 -0.046497487 0.10513894 0.0029991975 -0.10471648 -0.04520193
0.12702546 0.15941669 -0.008691295 -0.006329684 0.06255894 -0.0036005597 0.15241243 -0.03953034
0.050521508 0.121145695 0.08832652 0.08900856 0.04438294 0.17571473 0.14121073 0.13731661
0.026129788 0.012295899 0.19747227 0.08423788 -0.049708836 0.10599101 -0.016420364 0.048243113
0.11723448 -0.010851924 0.119005375 0.09056278 0.062577106 0.014001404 0.04602303 0.031731512
0.06799182 0.065933846 0.038695216 0.034795772 0.010827982 0.0065263105 0.017551772 0.10753272
0.15303034 -0.053422693 0.08133564 0.13682818 0.013934535 -0.016962826 0.12655395 0.04898963
0.067425385 0.13117473 0.033763845 -0.07335619 0.13644631 0.043618225 0.11192312 0.11705032
8.645435e-05 -0.031097237 0.16929059 -0.028387643 0.04892163 0.15530881 0.008669795 0.0739309
-0.0058078957 0.008665526 0.08338465 -0.08174034 0.057726588 -0.01725826 0.067324445 0.028890738
0.13115776 0.0842739 -0.022577295 -0.016381951 0.03535569 0.11227939 0.07307693 0.062458407
0.054657184 0.06370004 0.06535707 0.13262446 0.006792538 0.070267655 0.117997624 0.0052595595
0.02043933 -0.022416465 0.020615658 0.013298697 0.09801222 0.046123043 -0.036606506 -0.0464314
0.13845086 -0.012836061 0.024127861 -0.02943393 0.019046266 0.025134305 -0.050183002 0.07980877
0.099167995 0.17403238 0.05846935 0.07300292 0.10598711 0.047242675 0.20627357 -0.01893052
0.005594642 0.036660645 0.048375163 0.07169295 -0.0056851124 0.10584754 0.18196547 0.004140937
0.058388457 0.07003742 -0.0665158 0.0042420006 0.08134835 -0.017079908 0.14383405 0.031991705
0.14085886 0.17261112 0.1461705 0.13263683 0.027445901 0.047054086 0.14173633 0.0656695
0.12275397 0.08601291 0.1523508 0.20826612 0.054220546 0.10519739 0.07117849 0.02894731
-0.046138633 -0.045956425 0.06076539 0.019782443 0.023327673 -0.03646496 0.0010655398 0.14857432
0.029177925 0.0856076 0.11766874 0.12578978 0.048446763 0.026971359 0.01771146 0.07130685
0.114426486 0.06678391 -0.019602938 0.007570903 -0.11803372 0.06539307 0.05827933 0.042473353
-0.103831254 0.01957595 0.041944917 -0.06739324 -0.0067096124 0.028225718 0.07144983 0.08839476
-0.04416501 -0.0614641 0.021958802 0.030966483 0.10993437 0.06335126 -0.020311596 -0.055061184
0.034556698 -0.052844014 0.050307725 0.010009647 -0.0063421493 0.0249637 0.1273498 -0.010584859
0.051399745 0.053953532 0.060898654 0.14028801 -0.0066158087 0.06272616 0.053540837 -0.0028656763
-0.06636341 0.0104586 -0.02087394 -0.03708882 0.11033528 -0.08164937 0.08031605 -0.043804433

lstm.weight_ih_l1 f4 [420, 105]
00000000: ab4a 36be c0d1 61bd d7ea fbbd d8ba eb3d
00000010: fc80 133e f311 acbd af76 ec3c 357a 3ebd
00000020: 6ad3 263e 7772 3ebe 0d37 943d ea06 1ebd
00000030: 858c d7bd 9363 4c3d 9d1d 7cbe f501 9abd
00000040: 3f3f b2bd 620a 1bbe b742 a63e 12df 893d
00000050: 8bb1 773c 9948 37bd 0b0f f23d 1dbc 243d
00000060: 7ebe 26be b14b 0a3e 83ad de3c 058e ef3d
00000070: 18f3 233e 0d6f ec3b 48f1 1b3d 8463 d93d
00000080: 87d5 4c3e e9c9 913e b1f8 ae3d cce2 cd3e
00000090: 1072 d8bd 6d26 c13c a576 c4bd 1ef2 4a3d
000000a0: 21d1 21be 7dc2 82bd 9856 cfbb 40e1 91bd
000000b0: cce9 22bd 14ab 103d 1a54 113e 85dd 893d
000000c0: cc19 8dbd 90ef 833d c1ed 01be 51b4 a0be
000000d0: 3f23 88bb 643b 8b3c 7dd8 223e 855b 86bd
000000e0: 533b be3d 817d abbc 9ba7 2a3e 7eda 123e
000000f0: 7031 853d f74a b3bc 23d1 4a3c 862c 6d3c
00000100: 299d 8abd 9769 5dbd a0dd b73e 9714 613e
00000110: b6da e73d e6a1 20bc 6877 5e3c 443a dbbd
00000120: 920b 043e 69d8 c3bd 4ea1 383e 6c9a 0d3c
00000130: b995 6e3e 9408 88bd e1f6 8abd c53f 1d3e
00000140: 092e b83d c30c 2a3c 8c0b 2e3e a7e9 ac3c
00000150: 2271 d8bd ee76 e73c 8caf d2bd 6132 3abe
00000160: 94a4 b73d 9d0e cdbc e89d 51bd e2f7 72bd
00000170: f493 39bd c08e d13c 462e 05be 4b12 733d
00000180: 88ad 27be b1d4 8abd 0b2f 1a3e da3a 5f3e
00000190: ea68 82bd c329 01bc 8f8e 31be f32f 4e3a
000001a0: b594 303e 754a 893d bc9e c83d bfd3 96bd
000001b0: 3d2b 03bd f31b ecbc b73f 843d 98e7 1f3c
000001c0: 3be2 01be 32f8 c73d e538 073d 734c 203c
000001d0: 92a5 df3c fdba 0cbd bdb1 673d a63d 89be
000001e0: dbfe ea3d 114a 103e 3ca7 e33d 5537 af3d
000001f0: 0342 39bd d27e 243e c27b 02bd 4baf 793d
00000200: 0977 ed3c bbab ea3b c900 213d 56a0 643d
00000210: 0de9 cf3d 2623 e4bb 76a8 dd3d 43c5 193c
00000220: 9fae 563d 8269 37be f10b 9abd 42cc f3bc
00000230: ef41 4b3e dd7c bfbd 82a3 8d3d 10c3 8a3d
00000240: b794 1a3d b26f d9bd baae 663d d197 673e
00000250: 6632 723d 3fe2 c03d f779 883d fbc9 4a3d
00000260: a782 de3d 9e57 61bd 4f1d 81bd 1570 613d
00000270: 4533 133e f858 213e 14fc 3bbd 5a5f 433d
00000280: 3d71 20bc 5a66 e5bc 16b1 b2bd b977 723c
00000290: 2ddd 303e 02d6 0f3d dc93 00be 62cc 1cbe
000002a0: a6c4 abbd d590 a43c 101b 19be 8f67 4abc
000002b0: 14cc 093d a5fc 8d3d e6d0 94bd 0815 1c3c
000002c0: 0d5f 4dbb 900a f93d 08a2 353c 1447 b23d
000002d0: 5ac7 1d3e 078d 913c 1433 93bc 9ae7 313d
000002e0: 0c49 493e c15a 2f3e b7f9 c13d ab99 f93d
000002f0: e6a0 9d3b d7d8 15be 7dad 4dbc c767 683c
00000300: 99ab 55bd 0ece d1bd cec7 113e 51e7 8bbc
00000310: 941c 8d3d 1f91 283c b0bf 9abd dd69 1dbd
00000320: de6a 093d e4d7 9b3c 06ec 7c3d 44be 003e
00000330: 2b1a 66bd aa21 95be eb33 0bbd f98f b7bd
00000340: 499f cd3c 8fbd 08be ecb7 9e3a b293 cfbd
00000350: 9d4b 78bd c9b2 32bd 20f5 c5bd 38dc 23bd
00000360: 2aa7 0d3d 1074 123e b21a 5e3d 0386 39bd
00000370: 8aaa 39be 159d 873c 3f3a 003e 55e9 91bd
00000380: 0df5 113e 913d 933d d21e b03c d557 c0bc
00000390: cd98 a33d 10f3 15bd ac66 203e bcf4 393d
000003a0: a0f3 82bd 31b1 e8bd fdd0 40bd d395 943d
000003b0: 0f94 a73d ef55 f0bd a269 963d a591 6c3d
000003c0: f532 9b3c 5e9b 33be 001c 7fbb 4ee4 71bc
000003d0: 0663 013e b756 c1bd 3b34 393e e5cf b8bd
000003e0: 62b2 1b3c 37a2 c5bd 0092 7ebb 0d93 0b3d
000003f0: 0786 14be 175e 39bc fb5d 0bbe c427 95bd
-0.17801921 -0.055131674 -0.123006515 0.11510247 0.14404672 -0.08401861 0.028865186 -0.046503264
0.16291586 -0.18598352 0.072370626 -0.038580813 -0.10524849 0.04989965 -0.24620672 -0.075199045
-0.087034695 -0.1514068 0.32472774 0.067320004 0.015118013 -0.04474697 0.118192755 0.04021846
-0.16283605 0.13505436 0.027182346 0.1169701 0.16010702 0.0072153867 0.0380719 0.10614684
0.20003329 0.28474358 0.08543528 0.40212095 -0.10568631 0.023577893 -0.09592942 0.049547307
-0.15802433 -0.06384752 -0.0063274615 -0.07123041 -0.039773747 0.035319403 0.14192238 0.067317046
-0.06889686 0.06442177 -0.12688352 -0.3138757 -0.0041545923 0.016996093 0.15902896 -0.06560425
0.09288659 -0.020933868 0.16665499 0.1434116 0.0650357 -0.021886332 0.012378964 0.014475947
-0.06768257 -0.054055776 0.35911274 0.2198051 0.11321013 -0.009804225 0.013578273 -0.10704473
0.12895039 -0.09562761 0.18030283 0.008642774 0.23299302 -0.06642261 -0.0678537 0.15356357
0.089931555 0.010379019 0.16996592 0.021107508 -0.10568453 0.028254952 -0.10287389 -0.1818328
0.08966938 -0.025031382 -0.05117598 -0.05931843 -0.045307115 0.025580764 -0.13005933 0.059343617
-0.1637479 -0.06778849 0.15057008 0.21799794 -0.06367667 -0.007883492 -0.17339538 0.00078654214
0.17244227 0.06703655 0.09795901 -0.07364606 -0.032023657 -0.028821921 0.06457465 0.009759806
-0.12683956 0.097641364 0.033013243 0.009783852 0.02730063 -0.034358013 0.05656599 -0.26804847
0.11474391 0.14090754 0.11115882 0.085554756 -0.04522897 0.16064003 -0.031856306 0.060958188
0.028987424 0.007161585 0.03930739 0.05581697 0.10151873 -0.006962198 0.10823147 0.00938541
0.052412625 -0.17911342 -0.07521809 -0.029760484 0.1984937 -0.09349988 0.06915952 0.067754865
0.03773948 -0.10617007 0.056318976 0.22616507 0.059130095 0.09418153 0.06663888 0.04950903
0.10864764 -0.0550152 -0.06304418 0.05503853 0.14375027 0.15756595 -0.045894697 0.047698356
-0.009792623 -0.028002907 -0.08725183 0.014799052 0.17271872 0.035116203 -0.12556404 -0.15312341
-0.08387117 0.020088593 -0.1495173 -0.012353792 0.03364189 0.06932954 -0.07266407 0.009526499
-0.0031337172 0.12160218 0.011085995 0.08704963 0.15408078 0.017767442 -0.017968692 0.043433763
0.19656771 0.17124464 0.094714575 0.12187513 0.0048104404 -0.14633499 -0.01255357 0.014184899
-0.0521656 -0.1024438 0.14236376 -0.017078074 0.068902165 0.010288506 -0.07556093 -0.038431037
0.033549182 0.019023843 0.061748527 0.1257258 -0.0561773 -0.29127246 -0.03398506 -0.089630075
0.025100367 -0.13353561 0.0012109256 -0.101355925 -0.060618985 -0.043627534 -0.096658945 -0.04000494
0.03458325 0.14302087 0.054224677 -0.04529382 -0.18131462 0.016554395 0.12522219 -0.07124583
0.14253636 0.07189477 0.021499071 -0.023479382 0.07988129 -0.036608756 0.15664166 0.045399413
-0.06394124 -0.113619216 -0.047074307 0.07255139 0.08182537 -0.117351405 0.073443666 0.057756085
0.018945197 -0.17539737 -0.0038926601 -0.014763905 0.1263543 -0.09440368 0.1808633 -0.09024028
0.009502979 -0.09650081 -0.0038844347 0.034075785 -0.14504252 -0.011313937 -0.1361007 -0.07282975

lstm.weight_hh_l1 f4 [420, 105]
00000000: 2086 2abd f970 083e 2dcb 1f3e 6ca2 e13b
00000010: 30df 7cbc 5b0c b43d 6c88 b53d 4c58 013e
00000020: 1d73 a8bd c93b 90bd d3dd e2bd f5c1 4a3d
00000030: 9de8 21bd 8244 323d 32fd a1bc f0c9 ba3d
00000040: b44a a33d 8bb8 e43c 406f 1d3d d028 6b3c
00000050: ef15 e1bc b460 85bd a450 03be 6e45 c2bb
00000060: aa36 4a3d 2db4 183e 7980 32bd 7f17 d13d
00000070: 80d8 d43c 2c1e 4a3b 9c91 91bc d4e3 4f3d
00000080: 5750 e33d d280 763d 57d3 0e3c dde2 723d
00000090: a664 83bd f077 63be 9cbc 2b3e facf a6bd
000000a0: 7d29 8fbd 87b5 93bd d899 ad3b 19e0 623d
000000b0: b454 ee3c 76c4 84bb 5421 203e a027 52bd
000000c0: 988e fabc ff6c d5bd 2537 bdbd 6d93 3fbd
000000d0: 8c92 453d 5d01 d9bc e2ea be3d 0a8e 343e
000000e0: 5feb 17bd 21c9 863e 1604 7cbc f8fb 6d3d
000000f0: c727 33be 2df9 153d d2d7 29be e4f7 9d3d
00000100: 8a31 d13c 2629 e9bd 1ea4 f63d 44bd af3d
00000110: 915d 533e 6e37 94bd 7aea c43d 5998 a93a
00000120: e14d 7e3d 75a4 f5bb 0ebf 10bd 448a a83c
00000130: b615 acbd 37b2 d83d bc15 5ebd 4c4c 18be
00000140: c022 bebd 1260 d43d a4f6 a03c a18d cdbc
00000150: f8e7 b43d 73dc 4b3d 4eee 5a3e 8a96 08be
00000160: 8399 2b3e 018c 05be 6458 013d de70 be3c
00000170: 78d7 7a3d 753b e5bc f4a6 7f3d 5dfd f8bb
00000180: 8af0 26bd d18f 9fbd 3ca1 b13c 7378 4d3d
00000190: e0fe 753d 273a 6abe d973 a3bb 8cc5 093d
000001a0: af81 5f3c 7903 11be 1fe6 1dbd d8f9 903d
000001b0: d2fc eb3b 407d 5abd a4c5 833d 71d7 1e3d
000001c0: 448f 30be 910b 923d 154e 213e a384 c83b
000001d0: 1614 ebbd 59ae 873d c5e3 fb3c 0f02 4cbd
000001e0: 4c3b 10bb 2338 b43d 6138 b1bd bcf0 9c3d
000001f0: 56ac a4bd 8e47 403d 8ddf d23d 7c66 d8bd
00000200: 14a2 9b3c 2f53 87bb 7c5c 203e c057 a93d
00000210: a03b bdbd bde6 2fbd 6475 0abd 25bd cabd
00000220: 2ae5 a0bd c786 113e 32c6 3fbd d43c 4ebd
00000230: 89e4 cc3d 204b b9bd 3edb 603d 783b d6bb
00000240: cdc2 7cbc 7e38 653e 5f2f afbd 5657 d63d
00000250: 5446 1e3e d13f f93c b884 55bc 8a04 153e
00000260: 6cb4 c73b 539f e9bd 6846 59bd e388 79bd
00000270: db05 cb3c c64e b2bc 0994 6abe 1f6a 0ebe
00000280: 41b3 283e ff40 ab3d 402a 0c3c 1c5e 91bd
00000290: e350 293d 125c 2f3d b6e8 84bd 721a 03bd
000002a0: adce 5bbd 483b 5cbd e642 86bd ab1f 9dbc
000002b0: 4233 32bd 0150 323e 4880 76bd 93e2 893d
000002c0: 2645 87bd 00b2 243d 501a dabc aafd b13d
000002d0: 925e 1cbe fc6c 26be efc7 5bbd 7a99 abbd
000002e0: accd 893d 146e 35bd 09f2 c63c 7796 153d
000002f0: fcac 4ebd 84c1 8abd f9fa 8cbd 66d7 9bbc
00000300: 79b3 923d ce47 aabd 0607 9fbc c25b 09be
00000310: 998e 9a3d 79d9 0a3e e8f6 313c 78dc 93bd
00000320: 455e 5abe 4101 babd c55c 6a3d 8a9d d9bd
00000330: 27ed fe3d 0591 d3bd 5336 17be 3e7e 02be
00000340: f801 48bc 2273 0bbe 8a23 f4bd 5c18 7dbb
00000350: bc0a 443d 31ee f2bd c58d b1bd fd2e c2bd
00000360: 20d1 5c3c d985 2cbd 56a8 35bd 5145 d73d
00000370: a025 af3c 9c1c 8e3d 25fc 923d a03f fd3c
00000380: f3bf 923d ac0e 99bd ce59 033d 4948 b53c
00000390: b51c 973c 6019 2cbd e724 64bd c4fd 843d
000003a0: c82a 6fbe 0293 1cbe 6031 0cbe e37f db3d
000003b0: f285 2d3e 7bb9 b8bd 9ec7 473e ad60 f6ba
000003c0: eb1f 9dbd 0438 103e f7c5 80bd 5ef3 3a3e
000003d0: 73a5 ef3c c5e0 83be 3ea1 4e3d 566a 473c
000003e0: 85a1 8abd 78d2 243c 4fbc 513e c346 853d
000003f0: cc39 8d3c 3c83 1d3e f35e 23be 1f2d 56be
-0.041631818 0.13324346 0.15604849 0.0068858173 -0.015434071 0.08791419 0.08863911 0.12631339
-0.08225081 -0.07042653 -0.11077466 0.049501378 -0.039528478 0.043522365 -0.019774053 0.09120548
0.07973233 0.027920028 0.038436174 0.014352992 -0.027476279 -0.06512585 -0.1282373 -0.005928687
0.049368538 0.14912482 -0.043579552 0.1020956 0.025982141 0.0030840738 -0.017769627 0.050754383
0.11099308 0.060181446 0.0087173795 0.059298385 -0.064156815 -0.22213721 0.16771168 -0.08145137
-0.06990335 -0.07212358 0.0052978806 0.055389497 0.029093124 -0.0040517403 0.15637714 -0.05130732
-0.030585572 -0.1042118 -0.092390336 -0.046771456 0.04823546 -0.026489908 0.09322144 0.17632309
-0.0370897 0.26325324 -0.015381834 0.058101624 -0.17495643 0.036614586 -0.16586235 0.07713297
0.025536317 -0.113848016 0.120430216 0.085810214 0.20641162 -0.07237135 0.09615035 0.001293908
0.06208599 -0.0074964114 -0.035338454 0.020573743 -0.084025785 0.10580867 -0.054219946 -0.14872855
-0.09283972 0.103698865 0.019648857 -0.025091948 0.08833307 0.049770784 0.21379969 -0.13338676
0.16757779 -0.13041689 0.031578436 0.023247179 0.061240643 -0.027982453 0.06241508 -0.0075985626
-0.04075674 -0.07791103 0.021683328 0.050163697 0.06005752 -0.22873746 -0.0049881754 0.03363566
0.013641759 -0.14161481 -0.03854954 0.07078904 0.0072017694 -0.053342104 0.06434181 0.03877968
-0.17242151 0.07131112 0.15752442 0.006119327 -0.114784405 0.06625051 0.030748257 -0.04980665
-0.0022008 0.0879977 -0.086533315 0.07663104 -0.08040683 0.04694324 0.10296545 -0.10566422
0.018998183 -0.0041297893 0.1566028 0.0826869 -0.09239888 -0.04294466 -0.03380336 -0.09899358
-0.078562096 0.1421157 -0.046819873 -0.05035098 0.10004527 -0.09047532 0.054896586 -0.006537851
-0.0154273035 0.22384831 -0.08553957 0.10465877 0.15456516 0.030425938 -0.013032131 0.14552513
0.006094506 -0.11407342 -0.05304566 -0.06092156 0.024783066 -0.021766078 -0.22908033 -0.1390767
0.1647463 0.083620064 0.008554995 -0.07098028 0.041336905 0.042812414 -0.064896986 -0.032007642
-0.0536639 -0.053767473 -0.065557286 -0.01918014 -0.043505915 0.17413332 -0.060180932 0.06732669
-0.06604986 0.040208817 -0.026623875 0.08690961 -0.1527045 -0.16252512 -0.05365747 -0.08378883
0.06728682 -0.04429443 0.024285333 0.036520448 -0.05045794 -0.067751914 -0.06883807 -0.019023608
0.07163138 -0.08314477 -0.019412529 -0.13413909 0.075467296 0.13559522 0.01086209 -0.072197855
-0.21325023 -0.090822704 0.05721738 -0.10625751 0.12447577 -0.10330395 -0.14766817 -0.1274347
-0.012207501 -0.13618138 -0.11920841 -0.0038619256 0.0478618 -0.11861838 -0.086696185 -0.094816186
0.013477594 -0.042119835 -0.04434999 0.10511268 0.021380246 0.069390506 0.07176999 0.030914128
0.07165518 -0.074735016 0.032068066 0.022129195 0.018446306 -0.042016387 -0.055699255 0.064937145
-0.23356164 -0.15290454 -0.1369071 0.10717752 0.16945627 -0.090197526 0.19509742 -0.0018797122
-0.076721035 0.14083868 -0.06287759 0.182569 0.029253697 -0.25757423 0.05044674 0.012171349
-0.06769089 0.010059945 0.2048199 0.06507637 0.017239474 0.15382093 -0.15954189 -0.2091565

lstm.bias_ih_l1 f4 [420]
00000000: b11b 903d 9ecb d23d e760 1c3d eb96 783d
00000010: 3f7a 373e 0f33 d33d d22b cebd 0212 893d
00000020: 0e58 1c3e 7ffb 063e 5fd1 b53d 8d9a e83d
00000030: e3d8 b13d 4445 003d e1b1 21bd 3bd5 c73d
00000040: f773 683d 0f88 e73d 9f9e 34bb 30b9 9d3d
00000050: 6ec6 e63d faad 623c 99cb 233b ff62 dd3d
00000060: 336f 653d 3e4a 743d 5e58 d73d e303 2e3e
00000070: 9275 303e 4f37 14bc 4954 71bc b4e4 a63d
00000080: 10a0 623e 2aeb dd3d 25c6 473d b96b 133e
00000090: d343 6b3d b6a5 213e ee7c 6d3a 62af c23d
000000a0: e46e 2f3e 94e3 e93d cae9 85bd 8f89 093d
000000b0: 57a9 6c3d c7bf 8b3d 8bec 673d b799 ef3d
000000c0: 7de3 ec3d 5322 343d a7b4 82bd 8ca2 233d
000000d0: 5af6 0f3d 59bb 273e 7edb aa3c 57bb 093b
000000e0: 2cf6 113e 582b 223d 94f4 02bc cece e73d
000000f0: 5c01 063e 679d 323e 5e5b 04bc 5a01 c73d
00000100: e1ce c9bd c095 8b3d 28d8 083e 308b 1a3d
00000110: 63a3 983c 425c 5a3d 6a78 433e 23e2 4d3e
00000120: c5ec 893d 6f22 743c 567a ab3d f309 533b
00000130: 3842 8d3d 1991 443e 03e2 233d 09af 123e
00000140: 3165 fe3d 415d c2bb c0e1 af3d c402 2d3e
00000150: 2460 8b3d 5e1d abbc f4cf 1f3e dfa3 f43d
00000160: 139f 063e c00e 083e 6159 373e bff6 5b3e
00000170: 019e c93c 06ba b3bc 3e47 b43d 7b59 683d
00000180: 2f63 1dbc 296d cc3d b97f 2c3d 40ed 2c3e
00000190: 5545 6f3d 1121 673e d620 10bc 81fd c23d
000001a0: d42b 783e 8446 e33d 1c27 7a3d fffc e53d
000001b0: 8da8 823c b1c4 89bd 4048 57bc 2ab1 1ebd
000001c0: fa69 9a3c e609 543c 9616 edbd da7c 203e
000001d0: 6fe3 9b3d aa9b 0b3e 40cf 383e bf75 ee3d
000001e0: 33b7 da3d e695 21bb 0577 173e 4ea1 86bd
000001f0: 4b8e 8e3c 7365 6c3d dc97 d23d 17ae d33d
00000200: a6d6 46bc 2f51 083d 85da e53d 143a 5a3e
00000210: a6b0 1ebd 8bd1 d03d a17a 443e d563 133e
00000220: 6bfe 203e f54f 5d3d 919c 093e 7fde 05bd
00000230: 0e5b 203e ede8 103e b322 c73d 313a 973d
00000240: da41 093e 06d0 e43d fc2d 733b 9895 863d
00000250: bc1a 78bc 2ab3 ba3d 0beb a13d adf2 363d
00000260: 74bc 153e 7635 8e3d 87b2 1ebd 0222 d9bc
00000270: 1953 913d 4bef edbc 7569 5d3d 1c45 c23d
00000280: 02a5 043e 4327 7abc dd28 e33d 6451 513e
00000290: 0274 56bc 5ced 563d cb87 013e fb71 bd3d
000002a0: bb2c f83d 9b06 3c3e f6d6 b33c a2df cf3d
000002b0: c354 223c 18b5 2f3d 2f64 5eb8 e69c c23d
000002c0: 2350 69bd 3524 fe3d a554 19bd fd71 cf3d
000002d0: 41c7 a43d 0399 f23d 0907 4c3d 084d 6a3d
000002e0: b40c b03d b5c6 45bb 979c 453e b8ea 203e
000002f0: e20f 3cbd 8b5f f63d ccc6 ba3d 6aec f7bc
00000300: 95a1 0a3e 9553 e63d f07c 2a3e af88 c63d
00000310: d0ca 12bd 2de8 ee3c 76dc 3e3c bf3b 92bc
00000320: e5b7 04bd 9778 3c3d ee5b eb3d 698b afbc
00000330: 37a8 fd3d 5570 d03d 0491 5b3e ffc9 17bd
00000340: 5deb 823e 8360 483e 61f9 fabb cc30 de3d
00000350: 7541 d83d 903e b5b9 9ddb cc3d ba01 9a3d
00000360: 0592 6fbd 432a ae3c 562a aebd 64c8 e23d
00000370: 13f1 593c 4ad5 01bd 7394 95bd 378c 25bd
00000380: 9d52 8f3d dc6f 5ebc e880 53bd ff7f 4bbd
00000390: e62a b6bc 242e 733d 0046 9dbd 6522 a03d
000003a0: 469c 0ebd 9144 633d f368 8c3d 93f8 913d
000003b0: aca9 763b 5b6a 8ebd f02d 93bd 16ba f3bb
000003c0: 5f28 a03c aaf2 a2bc 9a5f 50bb f778 cabd
000003d0: 4306 c23d befc e2bc 7723 a73d 3d1b 0bbd
000003e0: 661e 673c db85 743a 0427 7ebd c94b c1bd
000003f0: 3aad 8bbd 493c 01bd 9317 b2bc 3be4 44bd
0.07036532 0.10292743 0.03817835 0.0606908 0.17917727 0.10312473 -0.10066952 0.06692888
0.15267965 0.13181876 0.08877825 0.11357603 0.08683946 0.031316057 -0.03947628 0.09757467
0.056751218 0.11305248 -0.0027560366 0.07701337 0.11268316 0.013835425 0.002499318 0.10809898
0.05601425 0.059641115 0.105149016 0.1699367 0.1723235 -0.00904639 -0.014729568 0.081490904
0.22131371 0.108358696 0.04877295 0.14396562 0.05743773 0.1578587 0.00090594485 0.09506108
0.17132145 0.1142036 -0.06538732 0.03357845 0.057778683 0.06823688 0.05662207 0.11699241
0.115668274 0.043978047 -0.06382113 0.03994994 0.03514705 0.16380061 0.020856615 0.0021016204
0.14254063 0.039592117 -0.007992882 0.11318742 0.13086456 0.17442857 -0.008078424 0.09717055
-0.09853912 0.06815672 0.13363707 0.037730396 0.018632596 0.05331064 0.19088903 0.20105796
0.06734613 0.014900788 0.08372943 0.0032201975 0.06897396 0.19195975 0.040010463 0.14324583
0.124216445 -0.005931527 0.0858798 0.16895586 0.06805447 -0.020888027 0.15606672 0.119453184
0.1314662 0.13286877 0.17905189 0.21480845 0.024611475 -0.021939289 0.08802651 0.05672596
-0.009606167 0.09981758 0.042113993 0.16887379 0.05841573 0.22571208 -0.008796891 0.09521008
0.24235469 0.11097434 0.061072454 0.11229896 0.015949512 -0.06726969 -0.013139784 -0.038743176
0.018849362 0.012941813 -0.115765736 0.15672627 0.07611739 0.136336 0.1804781 0.11643552
0.10679474 -0.0024655997 0.14791496 -0.06573735 0.017401835 0.057713937 0.10282871 0.103359394
-0.012136137 0.033280548 0.1122332 0.21311218 -0.038742684 0.10196217 0.19187404 0.14393552
0.15722053 0.05403133 0.13438632 -0.032682892 0.15659735 0.14151354 0.09723415 0.07384146
0.13404027 0.1117249 0.0037106266 0.065715015 -0.015143093 0.09116204 0.07906159 0.044665027
0.1462267 0.069437906 -0.038744476 -0.026505474 0.07095928 -0.029044768 0.05405565 0.09485838
0.1295357 -0.01526815 0.110917784 0.20441204 -0.013089182 0.052472457 0.12649457 0.09250256
0.12117907 0.18361895 0.021953087 0.101500764 0.009907904 0.042897314 -5.3022228e-05 0.09502582
-0.05696119 0.1240925 -0.03743424 0.101291634 0.08045817 0.11845591 0.049811397 0.05720237
0.08596173 -0.0030178253 0.19298016 0.15714538 -0.045913585 0.12029942 0.09119949 -0.030264098
0.13538201 0.11246411 0.16649222 0.09694039 -0.03583795 0.029163444 0.011649242 -0.017850755
-0.032401938 0.04601344 0.114921436 -0.02142878 0.123856 0.10177676 0.21442038 -0.037057873
0.25570193 0.19568066 -0.007659123 0.10849151 0.1055936 -0.00034569623 0.100028254 0.075198606
-0.058488864 0.021260386 -0.08504169 0.11073378 0.0133021055 -0.03169755 -0.07303705 -0.040416922
0.06998179 -0.013576474 -0.051636606 -0.049682613 -0.022237252 0.059370175 -0.07679367 0.0781906
-0.034817003 0.055485312 0.06855955 0.0712749 0.0037637753 -0.069538794 -0.07186496 -0.0074379547
0.0195505 -0.019891102 -0.0031795264 -0.098863535 0.094738506 -0.027708407 0.08161061 -0.033961523
0.014106369 0.00093278073 -0.062048927 -0.09438283 -0.0682015 -0.031551633 -0.021739757 -0.04806922

lstm.bias_hh_l1 f4 [420]
00000000: 80d4 1e3d d0a9 b7bd 16b5 c73d 7e59 303d
00000010: eef4 283e 9971 d53d 4102 ccbc f08d 4d3e
00000020: 9c83 05bb c532 983e 1efd 523e c08e 933d
00000030: 8530 36bd afda 133d a05b f03c 338c f13d
00000040: a77d 4fba 189a f23d b13e 283d 695b 3d3d
00000050: 7475 433c 0848 9e3d 4dfa bb3d 0893 973d
00000060: 02d6 23bd 3a20 4a3d 2b7d c13d a090 423e
00000070: 5ddf 113e 88f9 c3bc e7e2 923d 4a9e 95bd
00000080: dbba 7e3d 411a 133e 3630 dd3d 5379 453e
00000090: 42f7 693d 0a71 143e 8a91 143d 5ed7 0a3d
000000a0: a980 8a3e 8bf2 a13c 8aa7 a1bd f2ed 123e
000000b0: d8b8 313e 90a1 24bc c1b0 79bc 53be 173e
000000c0: b2df 5f3e 792c 33bd ae2f 833d eab5 533e
000000d0: 3ec8 963d 766b 183e 2a6b 483d da99 993d
000000e0: 4ddd 4d3e 0261 9dbc 0198 6c3a 050f c53d
000000f0: ed47 463e 0413 e83c 47ee f63d 0a1e 903d
00000100: bfd4 91bc f0bb a23d 07b9 b13d 7f7b f5bd
00000110: c997 b4bd 89ff 9b3d addb 773d b14d 953d
00000120: d832 1e3e 6f5e 0e3e 4c9f 30bd 0170 1fbc
00000130: a470 efbb 2598 3b3e f368 b73d 1fb0 4e3e
00000140: 2194 10bd 6c92 943c ccbe dc3d afb8 4c3e
00000150: a012 15bd 7aa2 b03b ef36 823d 828c 9f3d
00000160: 24aa 25bd 44f5 3abd 50ae dc3d 23ad 1d3d
00000170: 6769 843d 6c79 8a3d 5a29 5d3d f725 bcba
00000180: 07d9 fdbc 2251 473e 3aa1 cc3c 240d 693e
00000190: 52ad 293d 41e5 803e 4d77 aabc 9f84 b63c
000001a0: 8b83 db3d ddfe c53c c606 a33d 6e2f 623e
000001b0: 1360 283d 73ce b43d 7507 1e3e 616d cd3d
000001c0: 618e a83d 8149 013e b6b5 313d af0a 643d
000001d0: 66bf c23d 388b 6f3c 3020 0c3d 6da7 bbbc
000001e0: 0d06 ea3d dcac d33d 72e1 90bb 710a 49bd
000001f0: c94b 6e3d 7787 093e f759 0a3e 5be2 dbbc
00000200: 91eb 8bbd 1419 1c3e ec8c 023e 7906 fc3d
00000210: fa3b 0c3e 39c0 b93d 8c95 3a3e bd8a 413d
00000220: c4f0 553d 9554 9c3d 8eab 613c 5276 863c
00000230: 597e 933d e4bb d23c 8191 8b3d a362 f83d
00000240: 7b05 5d3d 2f56 2a3d 9749 213d b4ce 943d
00000250: 0b2f e03d f71e d03d f43a c43d 50bb 1e3e
00000260: 1ccc 083e 200f 073d 7ae7 24bd f73a 00bc
00000270: 9bd1 a33d 0a71 cf3d 5178 3d3e d4b7 d43d
00000280: 5a5a 4d3c 0330 6fbd 4722 283e 980e d13d
00000290: 7de0 923d f6e2 b6bc 0b7f 733d 3fde 763d
000002a0: 8b54 333e d5c4 f33d 9933 4b3d 4d40 bdbc
000002b0: 5ffe 8a3d 148e 3e3e 8cd7 573d f240 df3b
000002c0: 8d18 7c3d e00b a23d aad0 26bc b483 e83d
000002d0: 88a5 3a3d e8b7 863d 0ee2 49bc 5af3 0a3e
000002e0: b8a0 bc3d bbc6 e8bc 2f67 7c3d dbc2 383c
000002f0: cf49 4bbd 17e1 963d 18d1 3fbd 2ad4 bb3c
00000300: 57f3 b83b 7d69 a13c d84f 4b3e 5967 2d3e
00000310: 8264 b03d 4ef4 c23d e47c f13d 2abc 713c
00000320: d814 993c 6107 e23d 3b29 e13d dddc e83d
00000330: 0d3c b03d daba dd3d cbbe 493d 12b7 833d
00000340: dae4 633e c1f6 8c3d 92af 9f3d 8c6e 243d
00000350: f04b 903d d756 48bd 66c1 283d ad84 3c3c
00000360: 26d5 9b3d e5eb 293d 769b b9bd 4df9 ebbc
00000370: ed9d 9fbd bbc0 3e3d 908e b73d c541 6f3d
00000380: 1f45 723c 9bb6 8ebd 2563 023e d887 c8bd
00000390: 4249 83bd c002 8dbd fdc8 183d 6c93 9f3d
000003a0: 4f94 9cbd 4b57 023d 576a 3f3c ae22 973c
000003b0: 2d71 66bc 2e44 cbbd c20c c23d fac2 403d
000003c0: 95cc cb3c e385 1a3c a0b5 ccbd e130 eebd
000003d0: 9d54 7b3d bf0a 8b3d bbc6 293d 45fa 06bd
000003e0: f0c6 f9bc b3e5 0f3d f285 d03d 6611 8bbd
000003f0: 1538 b7bc 1eec 9a3d edd7 83bd a688 95bd
0.038776875 -0.08967936 0.09751336 0.043054096 0.16499683 0.10422058 -0.024903418 0.20073676
-0.0020372635 0.29726234 0.20604369 0.07204962 -0.044479866 0.036097225 0.029340565 0.11794319
-0.0007915147 0.11845797 0.041075412 0.046229754 0.0119298585 0.077285826 0.091786005 0.07401091
-0.039999016 0.04934714 0.09447702 0.19000483 0.14245363 -0.023922697 0.071721844 -0.07305582
0.062189918 0.14365484 0.10800211 0.19284563 0.05712057 0.14496246 0.03627161 0.033896796
0.27051285 0.019768974 -0.07893284 0.14348581 0.17355669 -0.010048285 -0.015239895 0.14818697
0.21862677 -0.043743584 0.064055786 0.20674863 0.07362412 0.14884743 0.048930325 0.07500048
0.20103951 -0.019211296 0.0009025336 0.096220054 0.19363375 0.02832938 0.120571665 0.070369795
-0.01780164 0.079460025 0.08677869 -0.11986446 -0.08818013 0.07617099 0.060512234 0.07290209
0.15449083 0.13903211 -0.043120667 -0.009731294 -0.007307129 0.18319757 0.08955564 0.20184372
-0.035297517 0.018136226 0.10778579 0.19992326 -0.036394715 0.0053904625 0.06358134 0.077904716
-0.040445462 -0.04564406 0.10775435 0.038495194 0.064654164 0.06761441 0.053994514 -0.0014354576
-0.030987276 0.19464543 0.024979223 0.22758919 0.041425057 0.25174907 -0.02080884 0.022280036
0.10718449 0.02416938 0.07960276 0.22088405 0.04110725 0.088284396 0.15432532 0.10030628
0.082302816 0.12625696 0.043386184 0.05567425 0.095091626 0.014620595 0.034210384 -0.022906983
0.11426935 0.10335705 -0.0044214064 -0.049082223 0.058177743 0.13430582 0.13510881 -0.026841333
-0.0683204 0.15243942 0.1274907 0.12305922 0.13694754 0.09069867 0.1822111 0.04725145
0.052231565 0.0763332 0.013773812 0.016413841 0.07201833 0.025724359 0.06814862 0.121281885
0.053960305 0.041586097 0.03937682 0.07265988 0.10946473 0.10162156 0.09581557 0.15501142
0.13359112 0.03297341 -0.040259816 -0.007826558 0.079989634 0.10128982 0.18502928 0.10386625
0.0125337485 -0.058395397 0.16419326 0.10207862 0.07171724 -0.02232502 0.05944733 0.060270544
0.1751272 0.11902777 0.049609754 -0.02310195 0.06786799 0.18608886 0.052695796 0.006813162
0.06154685 0.07912421 -0.010181585 0.113532454 0.04556802 0.06578046 -0.012321962 0.13569394
0.09210342 -0.028415075 0.06162184 0.011276926 -0.049630936 0.07367151 -0.046830267 0.022928316
0.0056442427 0.019703621 0.19854677 0.16933955 0.0861292 0.09519254 0.11791399 0.014754334
0.018686697 0.11036564 0.10994192 0.11370251 0.08605204 0.10826655 0.04925422 0.06431402
0.22255269 0.06883002 0.07797159 0.04014449 0.07045734 -0.048910942 0.041200064 0.011506242
0.07609014 0.041484732 -0.09062855 -0.0288054 -0.07793794 0.04657052 0.089627385 0.058412332
0.014786988 -0.06968423 0.12733133 -0.09791535 -0.06410457 -0.0688529 0.037301052 0.0779179
-0.07645475 0.03182153 0.011683068 0.018449154 -0.014065069 -0.099251136 0.094750896 0.047060944
0.024877826 0.009431335 -0.0999558 -0.11630417 0.06135999 0.06789159 0.04144929 -0.03295352
-0.030490369 0.035131168 0.10181798 -0.06790428 -0.02236561 0.07564567 -0.06437669 -0.07301454
