trained_models/57.pth (torch, 607897 bytes, 5 tensors)

lstm.weight_ih_l0 f4 [752, 11]
0	0x3d646449	0.055759702
1	0x3d77f313	0.060534548
2	0xbd525968	-0.051354796
3	0x3cf265a7	0.029589487
4	0xbd7fafbd	-0.062423456
5	0x3cb11e70	0.021620959
6	0xbe9dd72b	-0.30828223
7	0x3ddaec7d	0.10689638
8	0x3de9e169	0.11419947
9	0x3d096fc0	0.03355384
10	0x3e7fd25a	0.24982587
11	0x3c5fa43b	0.013649995
12	0x3d5cb49b	0.053883176
13	0x3e8b1ff8	0.27172828
14	0x3ea3d1fb	0.3199614
15	0xbe152158	-0.14563501
16	0xbd1933f7	-0.037403073
17	0x3f150307	0.58207744
18	0xbd0c98fd	-0.03432559
19	0x3d0c44fb	0.034245472
20	0x3c8ed0b8	0.01743351
21	0xbd6fda06	-0.058557533
22	0xbcf2aa22	-0.029622141
23	0x3d462b79	0.048381303
24	0xbe4c36e9	-0.19942822
25	0xbd6660c0	-0.05624461
26	0xbd8f1a96	-0.06987493
27	0x3e20a61c	0.15688366
28	0x3d62ec3c	0.055401072
29	0xbeb5a4d4	-0.35477316
30	0x3d930279	0.07178206
31	0x3e0adcf2	0.13560846
32	0x3e681d86	0.22667512
33	0x3c46dbcb	0.012137364
34	0xbcc1ffbb	-0.023681512
35	0x3d348409	0.04407123
36	0x3d6cf58c	0.05785136
37	0x3d021847	0.031761434
38	0x3db96780	0.09052944
39	0xbda56fc7	-0.080779605
40	0x3d913ad0	0.07091296
41	0x3ddb9244	0.10721257
42	0x3daa7ac3	0.08324196
43	0x3e125479	0.14290036
44	0x3d2caf42	0.042159326
45	0xbd0298e3	-0.031884085
46	0x3d1a5a46	0.037683748
47	0x3ceee9eb	0.029164275
48	0x3e24f86d	0.16110392
49	0xbb0a9800	-0.0021147728
50	0xbe121564	-0.14265972
51	0x3db90c26	0.0903552
52	0x3e25dd9b	0.16197817
53	0x3d100920	0.035164952
54	0xbdeae209	-0.11468894
55	0x3cf77a2e	0.030209627
56	0x3cbcf450	0.023065716
57	0x3de84511	0.11341298
58	0x3d25a090	0.040436327
59	0x3e16b574	0.14717656
60	0xbea4c799	-0.3218353
61	0x3e49f201	0.19721223
62	0x3df20cd8	0.11818856
63	0x3e22f60a	0.15914169
64	0x3e5b7b90	0.21433854
65	0x3d5036eb	0.050833624
66	0x3d77c3f6	0.060489617
67	0xbd310f09	-0.04322723
68	0xbe0712b6	-0.13190731
69	0x3d8eb341	0.06967784
70	0x3e9dc2b8	0.3081262
71	0x3e932e23	0.28746137
72	0x3e89afef	0.2689204
73	0xbe36b772	-0.17843416
74	0x3c5ae571	0.013360367
75	0x3e53e77c	0.20693773
76	0x3dcaf7cb	0.09910544
77	0x3cf1ff1b	0.02954059
78	0x3cd5efe5	0.026115367
79	0x3d58eacb	0.05295829
80	0xbc9f0e1a	-0.019415904
81	0xbdc396b0	-0.09550226
82	0x3dd4a51d	0.10383055
83	0xbd91bb8c	-0.0711585
84	0x3d6bec3b	0.057598334
85	0x3dffc293	0.12488284
86	0x3d704247	0.058656957
87	0xbde3ffb6	-0.11132757
88	0xbd16c139	-0.036805365
89	0x3cb62704	0.022235401
90	0x3e2653f0	0.16242957
91	0x3e245700	0.16048813
92	0xbe15f21a	-0.14643136
93	0xbcc24e2b	-0.023718914
94	0x3cf84268	0.030305102
95	0xbd9133c8	-0.070899546
96	0xbd935690	-0.07194245
97	0xbe167285	-0.14692123
98	0xbeed29d1	-0.46320966
99	0xbd908687	-0.07056909
100	0xbd2b131b	-0.041766267
101	0x3cc0908a	0.023506422
102	0xbdc712d2	-0.097203866
103	0x3cdad4aa	0.026712734
104	0xbe0cf602	-0.1376572
105	0xbdfe90da	-0.12429972
106	0xbd6b34a2	-0.05742324
107	0xbda6f07f	-0.0815134
108	0xbe20ec1e	-0.15715072
109	0xbce2eb6d	-0.02770015
110	0x3d954ead	0.07290397
111	0x3c61b10d	0.013775122
112	0x3ce42531	0.027849765
113	0x3d10aef6	0.035323106
114	0x3ddb3212	0.107029095
115	0x3e067179	0.13129224
116	0x3dcce831	0.100052245
117	0x3d41b38b	0.047290366
118	0xbe894330	-0.26809072
119	0xbdc4baed	-0.09605966
120	0xbe64fd4a	-0.22362247
121	0xbcde5162	-0.027138416
122	0xbba59b4c	-0.005053913
123	0xbdac98a9	-0.08427555
124	0xbd379e30	-0.044828594
125	0xbd847b76	-0.06468861
126	0x3d8b7691	0.06809724
127	0xbc16a382	-0.009194257
128	0xbd1c78c5	-0.038201112
129	0xbde016b4	-0.1094183
130	0x3e72cbf9	0.23710622
131	0x3d43fcf9	0.047848675
132	0xbd7cf706	-0.061759017
133	0x3d4ebb93	0.050471853
134	0xbd96d384	-0.07364562
135	0xbdbb7741	-0.09153605
136	0xbdee535a	-0.11636992
137	0xbd757456	-0.0599254
138	0x3cad7a53	0.021176493
139	0xbd5da40a	-0.054111518
140	0x3db61b2f	0.088919036
141	0xbb54432b	-0.0032388668
142	0x3d19c740	0.037543535
143	0xbd5b48f4	-0.05353637
144	0xbc4e54f6	-0.012593498
145	0xbe66a4ea	-0.22523847
146	0xbdd50142	-0.104006305
147	0xbcd673b3	-0.026178217
148	0x3e89972e	0.26873153
149	0xbdf0e97f	-0.11763286
150	0x3e172d60	0.14763403
151	0xbeaba23d	-0.33522215
152	0x3dffa242	0.1248212
153	0xbe811449	-0.2521079
154	0x3d880d14	0.066431195
155	0xbd5b410f	-0.05352884
156	0xbe511926	-0.2041975
157	0xbe6eb746	-0.23312101
158	0xbdded53f	-0.10880517
159	0xbd971c1c	-0.07378408
160	0x3ec9505c	0.39319122
161	0x3dde8a07	0.108661704
162	0x3de9c307	0.11414152
163	0xbeb16473	-0.3464695
164	0x3dbf637f	0.09345149
165	0xbc334376	-0.010941377
166	0xbd08db2d	-0.033412147
167	0x3dde61af	0.108584754
168	0xbd38824c	-0.045046136
169	0xbdf4dae5	-0.11955813
170	0xbe910272	-0.28322178
171	0x3d6df791	0.058097426
172	0x3d2c76d1	0.0421055
173	0xbe23cdbe	-0.15996453
174	0xbee47df0	-0.44627333
175	0xbe1b4ec4	-0.15166765
176	0xbd5f2cbf	-0.054486033
177	0x3cd51320	0.026010096
178	0xbd50996f	-0.050927576
179	0xbe52f956	-0.20602927
180	0xbd487f1c	-0.048949346
181	0xbd4fb881	-0.050713066
182	0x3e8baf5f	0.27282235
183	0xbd528ff7	-0.051406827
184	0xbdb0c22d	-0.08630786
185	0xbd255da0	-0.04037249
186	0xbe1bdd86	-0.15221223
187	0xbc51f95d	-0.0128158005
188	0xbc9e357e	-0.019312616
189	0xbdba78ce	-0.09105073
190	0x3c622758	0.013803326
191	0xbd0bfcb7	-0.034176555
192	0x3e8922d1	0.26784375
193	0xbcf8951e	-0.030344542
194	0x3d69af5b	0.057051998
195	0x3d02a1be	0.03189253
196	0xbb58b858	-0.0033068862
197	0x3d1131d9	0.03544793
198	0x3c8fa309	0.017533796
199	0x3ca76de2	0.020438138
200	0xba17dd1a	-0.00057931396
201	0x3dc2b638	0.09507412
202	0x3e8ea4cf	0.27860114
203	0x3d63a605	0.05557825
204	0x3e351c9b	0.17686693
205	0xbda17533	-0.07883682
206	0xbc78df97	-0.015190027
207	0xbe5f846a	-0.21827856
208	0xbdbafbb3	-0.09130039
209	0x3cc9c409	0.02462961
210	0x3d3e7a49	0.04650334
211	0xbcbab46a	-0.022791106
212	0xbe63822d	-0.22217627
213	0xbde31a07	-0.11088949
214	0xbdb827f9	-0.08991999
215	0x3e2a1f78	0.16613567
216	0xbdda2537	-0.106516294
217	0xbe3241b6	-0.17407879
218	0xbcdd0103	-0.026978021
219	0xbe84bc4a	-0.25924903
220	0xbd415b0c	-0.04720597
221	0x3d5a0a52	0.0532325
222	0xbe66270e	-0.22475836
223	0xbe27f427	-0.1640173
224	0xbd88b95e	-0.06675981
225	0x3df98734	0.12183991
226	0x3e9434b0	0.28946447
227	0x3ea188d4	0.31549704
228	0xbd6de999	-0.058084104
229	0xbe434293	-0.19068365
230	0x3bc3450b	0.0059591583
231	0x3d5ec3a0	0.05438578
232	0x3d0f6c37	0.03501531
233	0x3e6b8e49	0.23003496
234	0x3e3df0d9	0.18548907
235	0x3dea6621	0.11445261
236	0xbce758b3	-0.028240537
237	0x3c64f3f5	0.0139741795
238	0xbeba5bf3	-0.36398277
239	0x3e567266	0.20942077
240	0x3eb48660	0.3525877
241	0x3e1837b0	0.14864993
242	0xbc707b61	-0.014677853
243	0xbd2bebeb	-0.041973036
244	0xbdfcf938	-0.12352222
245	0xbccc3195	-0.024925986
246	0xbce3b8e9	-0.027798133
247	0x3ebcb3bc	0.36855876
248	0x3c2573ef	0.0100984415
249	0x3e4f6b8b	0.20255868
250	0x3d9c88ff	0.076433174
251	0xbe2757c7	-0.16342078
252	0x3d2a218b	0.041535895
253	0xbd10cf30	-0.03535384
254	0xbcb6c9ed	-0.022313083
255	0x3ab0e7b4	0.0013496787

lstm.weight_hh_l0 f4 [752, 188]
0	0xbd2e57ff	-0.04256439
1	0xbe4094f5	-0.18806823
2	0x3e730e8e	0.23736021
3	0x3dcece2e	0.100979194
4	0xbdad9e66	-0.08477478
5	0x3d370775	0.044684846
6	0x3d4d9cc7	0.050198343
7	0x3d83b59e	0.06431125
8	0xbd6f958c	-0.05849223
9	0xbc108d25	-0.008822714
10	0x3e032559	0.12807216
11	0x3d0c06e2	0.03418625
12	0x3c01a165	0.007912015
13	0xbe17f090	-0.14837861
14	0xbe05df96	-0.13073573
15	0xbdbbabfd	-0.091636635
16	0xbe7323fb	-0.23744194
17	0x3cd4d51a	0.025980521
18	0x3a0de928	0.0005413466
19	0xbe2ea004	-0.17053229
20	0xbcf766e4	-0.03020043
21	0x3c0135d4	0.007886369
22	0xbdf7d1f7	-0.121005945
23	0x3da6e4dd	0.08149121
24	0x3dfc8628	0.12330276
25	0xbc7f2e67	-0.015575028
26	0x3d5a6aa5	0.05332436
27	0xbe054a8c	-0.13016719
28	0x3d6efeba	0.058348395
29	0xbe46d520	-0.19417238
30	0xbcb9b714	-0.022670306
31	0xbda08d46	-0.07839446
32	0xbe27d85e	-0.16391131
33	0x3dc6ba81	0.097035415
34	0x3d95b36a	0.07309611
35	0xbd33e248	-0.04391697
36	0x3e2ef223	0.17084555
37	0x3dfe4688	0.124157965
38	0xbd4fa3ed	-0.05069344
39	0x3cbef07a	0.023308028
40	0xbe3b8fc6	-0.18316564
41	0xbb5b516e	-0.0033465284
42	0x3ddb3144	0.10702756
43	0x3c73de28	0.014884509
44	0xbe2fff8a	-0.17187324
45	0x3d48abd7	0.048992004
46	0x3dac881f	0.084244005
47	0xbe6cc1a6	-0.23120746
48	0x3eb28a16	0.34870976
49	0xbd1630bb	-0.036667567
50	0x3dbb6f08	0.09152037
51	0x3db7ba83	0.08971121
52	0xbd918bb5	-0.07106725
53	0x3d2ebe49	0.04266194
54	0xbe09bdc5	-0.13451298
55	0x3e910e29	0.28331116
56	0xbe246305	-0.16053398
57	0xbe6ab65c	-0.22921127
58	0x3e33e85c	0.17569107
59	0x3d30aa00	0.043130875
60	0x3d5f1ccb	0.05447082
61	0x3e7700cc	0.24121398
62	0xbe5174ff	-0.20454787
63	0x3dabfdf1	0.08398045
64	0x3cd237a7	0.025661303
65	0xbdf0845e	-0.11743997
66	0x3d633b07	0.055476215
67	0xbd6039ad	-0.054742504
68	0xbb1b4961	-0.002369486
69	0x3c8de2f1	0.017320128
70	0xbd1eb9e4	-0.038751498
71	0xbdd0d605	-0.10197071
72	0xbddb27b4	-0.10700932
73	0xbbdb65d3	-0.006695488
74	0xbd8c2f4f	-0.06844961
75	0x3b8afa3e	0.004241257
76	0x3ceb4181	0.028717758
77	0x3de51fa3	0.11187675
78	0xbb1b728d	-0.00237194
79	0xbd1a4985	-0.03766777
80	0xbdc377ca	-0.09544332
81	0xbbe767bf	-0.007061928
82	0x3e14cae6	0.14530525
83	0x3d43b56b	0.047780436
84	0xbdc77fda	-0.097411826
85	0xbccf7ae4	-0.025327154
86	0x3b085fb3	0.0020808994
87	0xbc0fc1d4	-0.00877424
88	0xbc9b8f3d	-0.0189892
89	0xbc203a6a	-0.009779552
90	0xbe11ab48	-0.14225495
91	0xbc2e05b7	-0.01062148
92	0x3dddb020	0.10824609
93	0x3d034301	0.03204632
94	0xbe368912	-0.17825726
95	0xbb9c7920	-0.0047751814
96	0xbd0ba4a3	-0.034092557
97	0x3d0c34f9	0.034230206
98	0x3e83e256	0.25758618
99	0xbdc8ac04	-0.097984344
100	0x3ba810fa	0.005128977
101	0x3d19e7c0	0.03757453
102	0x3daab560	0.08335376
103	0xbc2d1f3a	-0.010566527
104	0xbca6e0c2	-0.020370845
105	0x3e3cf0a7	0.18451177
106	0x3e272bfa	0.1632537
107	0x3d4ee3e9	0.05051032
108	0x3df61b77	0.12016957
109	0x3e8fdd41	0.2809849
110	0x3d672711	0.05643374
111	0xbe868fad	-0.2628149
112	0xbd94ffb4	-0.07275334
113	0x3d8556a0	0.06510663
114	0xbd6287b0	-0.055305183
115	0x3be7b88d	0.0070715607
116	0x3dc29ddc	0.095027655
117	0x3d2c284f	0.04203063
118	0x3e647c3a	0.22313014
119	0xbe1bf49e	-0.15230033
120	0xbd8bded2	-0.06829609
121	0xbca8239c	-0.020524792
122	0x3d9df579	0.07712836
123	0x3d90e94d	0.070757486
124	0x3d027b3c	0.031855807
125	0x3d3b5ee2	0.045744784
126	0x3e159182	0.14606288
127	0x3e06d3fc	0.13166803
128	0x3c1df249	0.009640285
129	0xbdf37df8	-0.11889261
130	0xbd321bef	-0.04348367
131	0xbc8c6d6f	-0.017142026
132	0x3c829a4a	0.015942711
133	0xbe269800	-0.16268921
134	0xbdadbed0	-0.0848366
135	0xbda4d806	-0.08049016
136	0x3d9df995	0.077136196
137	0xbe04409c	-0.12915272
138	0x3d749c04	0.0597191
139	0xbcb8eec7	-0.022574795
140	0x39861906	0.00025577116
141	0x3dafd83a	0.08586164
142	0x3d43f19b	0.047837835
143	0xbd25df45	-0.04049613
144	0xbe59aae2	-0.21256593
145	0xbd9ea741	-0.07746745
146	0x3e8b50b7	0.27210018
147	0xbe051b0a	-0.12998596
148	0xbe7219a5	-0.23642595
149	0xbd284124	-0.041077748
150	0x3e753278	0.23945034
151	0xbe26fcfc	-0.16307443
152	0x3d551ffc	0.052032456
153	0xbee84e82	-0.45372397
154	0x3ca3c4e8	0.019991353
155	0x3e1c6871	0.15274216
156	0x3c53ad57	0.012919745
157	0x3e39f093	0.18158178
158	0x3dfe666b	0.124218784
159	0xbc82f8b6	-0.015987735
160	0xbdc1d169	-0.0946377
161	0x3da6f884	0.08152869
162	0x3db1a8ea	0.08674796
163	0xbd39681b	-0.0452653
164	0xbe823588	-0.25431466
165	0xbdf800d1	-0.12109531
166	0xbe0e0010	-0.13867211
167	0x3d36790d	0.044549037
168	0xbcd01970	-0.025402755
169	0xbd2225c8	-0.039586812
170	0xbe188efa	-0.14898291
171	0x3b111925	0.0022140231
172	0xbdcec2d4	-0.10095754
173	0x3dcf7f45	0.101316966
174	0x3b9cbf37	0.004783537
175	0x3dca7f7f	0.09887599
176	0xbcc95735	-0.024577716
177	0x3cb466bc	0.022021644
178	0x3e4dbf4b	0.20092504
179	0x3d7243ef	0.059146818
180	0x3caafda0	0.020872891
181	0xbe58b2a6	-0.21161899
182	0xbd6d31fb	-0.057908993
183	0xbdf2b5c6	-0.11851077
184	0x3c6cd7d1	0.0144557515
185	0x3d871952	0.06596626
186	0xbc7314b0	-0.014836475
187	0xbe117693	-0.14205389
188	0x3ddce400	0.10785675
189	0x3d944cd1	0.07241214
190	0x3e601fea	0.21887174
191	0xbdfc00a4	-0.1230481
192	0x3de82224	0.11334637
193	0xbd3c6411	-0.04599387
194	0x3d272330	0.04080504
195	0xbce27c8f	-0.027647285
196	0xbd8a23a2	-0.06745078
197	0x3d6840e9	0.05670253
198	0xbc19933a	-0.00937348
199	0x3e4f7d0c	0.20262545
200	0x3e376cc3	0.17912583
201	0x3b590139	0.00331123
202	0xbdd6a35c	-0.10480377
203	0xbe569d14	-0.20958358
204	0x3e3d9726	0.1851469
205	0x3d8b6e4f	0.06808149
206	0x3d3be8d3	0.045876335
207	0xbe30eb3c	-0.17277235
208	0xbd2e5c25	-0.042568345
209	0x3e292a19	0.16519965
210	0x3db080b1	0.08618296
211	0xbc8c3236	-0.017113786
212	0x3dee2787	0.11628633
213	0xbd98a295	-0.07452885
214	0x3eccea16	0.40022343
215	0x3d7277ef	0.05919641
216	0xbc3e7bd0	-0.011626199
217	0x3e53c0a2	0.20678952
218	0x3e3207d8	0.17385805
219	0x3e03933d	0.12849136
220	0x3e093000	0.13397217
221	0x3d89d349	0.067297526
222	0xbcd12cf2	-0.025534127
223	0xbdd251df	-0.10269522
224	0xbd53f172	-0.051743932
225	0x3dc454ff	0.09586524
226	0xbde48b24	-0.111593515
227	0x3ce21019	0.027595567
228	0x3d355fd6	0.04428085
229	0xbd79a0ce	-0.06094437
230	0x3e2af615	0.16695435
231	0xbe188d36	-0.14897618
232	0x3e27ed29	0.16399063
233	0xbe8b8dcd	-0.27256623
234	0x3dd1c264	0.10242155
235	0x3e106269	0.1410004
236	0x3e18613f	0.14880846
237	0x3e48693a	0.19571391
238	0xbe0bf451	-0.13667418
239	0x3d87dc0a	0.06633766
240	0xbd9c262c	-0.07624468
241	0x3c229319	0.009922766
242	0xbd4909ae	-0.049081497
243	0xbdf9f686	-0.12205224
244	0x3e82d37a	0.2555197
245	0x3e60e09b	0.2196068
246	0xbd1d8159	-0.038453434
247	0xbd98a031	-0.07452429
248	0xbe895c10	-0.2682805
249	0x3e079913	0.13241987
250	0xbe717f34	-0.2358368
251	0x3c850343	0.016236907
252	0xbd8f366a	-0.069928005
253	0x3d09bf9a	0.03362999
254	0xbe0ab8ef	-0.13547109
255	0xbddfb9c3	-0.10924103

lstm.bias_ih_l0 f4 [752]
0	0xbd140908	-0.036141425
1	0x3d48f561	0.049062137
2	0x3e0b7785	0.13619812
3	0xbd058c41	-0.03260446
4	0xbdfeb032	-0.1243595
5	0x3d69f0c7	0.05711439
6	0x3d5c2dc8	0.053754598
7	0xbd9a6383	-0.075385116
8	0x3dff6ec6	0.124723
9	0x3cd29ef3	0.025710559
10	0xbdecf6b3	-0.11570492
11	0xbcb18515	-0.021669904
12	0xbe153305	-0.14570244
13	0xbe19d56e	-0.15022823
14	0xbdae92f4	-0.08524123
15	0xbe0d0951	-0.13773085
16	0xbda03c3c	-0.07823989
17	0xbde93c2b	-0.11388429
18	0xbd63c5f6	-0.055608712
19	0xbd125714	-0.035727575
20	0xbc403b48	-0.011732884
21	0x3d856d41	0.06514979
22	0xbddd8a67	-0.10817414
23	0xbd57fd9e	-0.052732103
24	0xbdd509bb	-0.104022466
25	0xbdced315	-0.100988545
26	0xbd73ee8b	-0.059553664
27	0xbdc17a19	-0.094471164
28	0x3df3fba9	0.11913235
29	0xbd09e20e	-0.03366285
30	0x3d033bd7	0.03203949
31	0xbd0063f5	-0.031345326
32	0xbcf53c7a	-0.029936064
33	0xbe259de4	-0.16173512
34	0xbe43c099	-0.19116439
35	0xbe4557b1	-0.19271733
36	0xbdd24d41	-0.10268641
37	0x3dc35801	0.0953827
38	0xbd85d448	-0.0653463
39	0xbe18ae98	-0.14910352
40	0xbc7d0839	-0.015443855
41	0xbcda0b95	-0.02661685
42	0x3c94b22a	0.018151361
43	0x3e7d94f2	0.2476385
44	0xbdc3800f	-0.095459096
45	0xbd10c304	-0.03534223
46	0x3b12ce05	0.002240063
47	0xbd178995	-0.036996443
48	0x37b4e8dc	2.1566106e-05
49	0x3c4b6512	0.012414234
50	0xbe272568	-0.16322863
51	0x3c5a68d1	0.013330654
52	0x3c50bf83	0.012740972
53	0xbbcab98d	-0.00618667
54	0xbe5c8b37	-0.21537481
55	0xbd926d65	-0.071497716
56	0xbdb0d226	-0.08633833
57	0x3e4e2e89	0.20134939
58	0xbdf00868	-0.11720353
59	0x3d845b4c	0.06462726
60	0xbc786d28	-0.015162744
61	0x3d891c90	0.06694901
62	0xbd191dd3	-0.03738196
63	0xbdf7aa63	-0.120930456
64	0xbd2abb67	-0.041682627
65	0xbdf50836	-0.11964457
66	0xbdcaeb25	-0.099081315
67	0xbe103c3d	-0.14085479
68	0xbded3390	-0.115821004
69	0xbdda7fd9	-0.10668916
70	0xbe18a3b6	-0.14906201
71	0x3e0a91cc	0.1353218
72	0x3c8f9c22	0.017530505
73	0x3d46909d	0.048477758
74	0xbd98ce5d	-0.07461236
75	0xbcf0ff0d	-0.029418493
76	0xbdb4919b	-0.088168345
77	0xbd4ea942	-0.050454386
78	0x3e36d857	0.17855965
79	0x3d02a6f7	0.03189751
80	0xbd12aeae	-0.03581112
81	0x3e885d43	0.26633653
82	0xbd85d04b	-0.06533869
83	0x3e192a5c	0.14957565
84	0xbdcdbbae	-0.10045563
85	0xbdc1f3bf	-0.09470319
86	0xbdf40839	-0.11915631
87	0xbdbef895	-0.09324757
88	0xbd94053e	-0.07227562
89	0xbd8ee155	-0.069765724
90	0xbdb5b262	-0.088719144
91	0xbe85122b	-0.25990424
92	0xbde653d1	-0.112464555
93	0xbe024fd9	-0.12725772
94	0xbd3e25a3	-0.046422612
95	0xbdadc013	-0.08483901
96	0xbc3417a0	-0.010991961
97	0x3d1340e6	0.035950564
98	0x3db09603	0.086223625
99	0xbe9378c1	-0.28803065
100	0x3dfda648	0.12385231
101	0xbd67c363	-0.05658282
102	0xbe046976	-0.12930855
103	0xbdc6df0e	-0.09710513
104	0x3c89cf3c	0.01682245
105	0xbda9db6d	-0.08293805
106	0x3ce14d54	0.027502693
107	0x3d857bdf	0.06517767
108	0xbdd555b5	-0.10416738
109	0xbdf581df	-0.119876616
110	0xbc14641b	-0.00905707
111	0xbd6912a3	-0.05690254
112	0xbc21378c	-0.009839904
113	0x3d862181	0.06549359
114	0xbe72e3de	-0.23719737
115	0xbe0e202f	-0.13879465
116	0x3de211df	0.11038565
117	0xbe1f6aef	-0.15568136
118	0xbe01f959	-0.12692775
119	0xbdb8bede	-0.0902078
120	0xbe013739	-0.12618722
121	0xbcaa3a84	-0.020779856
122	0xbb88df09	-0.0041769785
123	0xbd96a1a4	-0.07355049
124	0x3e101a71	0.14072587
125	0xbc40263b	-0.011727865
126	0xbdbcfa88	-0.092274725
127	0x3d664dd7	0.056226578
128	0xbd9fb831	-0.077988036
129	0xbcf8f517	-0.030390305
130	0xbd1494ec	-0.036274835
131	0xbc4dbf3e	-0.012557803
132	0x3d6ed98a	0.05831293
133	0xbd46ae8b	-0.0485063
134	0xbe1d1363	-0.15339427
135	0xbd686591	-0.056737486
136	0xbcddcfae	-0.027076568
137	0xbde269a2	-0.11055304
138	0xbdce2e03	-0.1006737
139	0xbdc7fe26	-0.09765272
140	0xbdf41b2e	-0.119192466
141	0x3d375c76	0.044765912
142	0xbdd6e603	-0.1049309
143	0xbd305093	-0.04304559
144	0xbe110f48	-0.14165986
145	0xbd65fb84	-0.056148067
146	0x3cbf9a4a	0.023389
147	0xbd2f17da	-0.042747356
148	0x3c995bd1	0.01872054
149	0xbe04b693	-0.12960272
150	0xbd8a9a87	-0.06767755
151	0x3c9e352e	0.019312467
152	0xbd8fa34e	-0.0701357
153	0xbd8ddcb3	-0.06926861
154	0x3e6472ec	0.22309464
155	0xbe1eb9b8	-0.15500534
156	0x3ddc14dd	0.10746167
157	0xbce33c5e	-0.027738746
158	0x3e3779c8	0.1791755
159	0xbd459b4f	-0.048243817
160	0x3dd8aa6e	0.10579382
161	0xbd8a5728	-0.06754905
162	0x3d0d3e8c	0.034483477
163	0xbd44ee61	-0.0480789
164	0xbd976855	-0.07392947
165	0x3cfe4507	0.031038774
166	0xbd86d8ce	-0.06584321
167	0x3d88ed2b	0.06685861
168	0xbd3e132f	-0.046405014
169	0x3cee18c1	0.029064538
170	0xbe0ccf38	-0.13750923
171	0x3c1d55d8	0.009602986
172	0x3c8edd59	0.017439531
173	0xbd923253	-0.07138505
174	0x3dadc477	0.08484738
175	0xbd465355	-0.048419315
176	0x3c868009	0.016418474
177	0xbc52ad19	-0.0128586525
178	0xbd949355	-0.07254664
179	0x3df9808f	0.12182724
180	0x3d2b9f3a	0.041899897
181	0x3d1ec048	0.038757592
182	0xbe2bf5e1	-0.16793014
183	0xbd2c02f0	-0.04199499
184	0x3d5e266e	0.05423587
185	0x3d56aec4	0.052412763
186	0xbcd5443b	-0.026033511
187	0xbe0806dd	-0.13283868
188	0xbe51b67a	-0.20479766
189	0x3d367dd0	0.044553578
190	0x3d387f60	0.04504335
191	0x3e2176cc	0.15767974
192	0xbd9cb37b	-0.07651421
193	0x3e40030d	0.18751164
194	0x3c546f7b	0.012966032
195	0x3d002035	0.031280715
196	0x3ddf4ff4	0.10903922
197	0x3deb4532	0.11487807
198	0xbdca9de9	-0.098934
199	0x3de509e4	0.11183527
200	0x3c329d69	0.010901787
201	0xbb05b3db	-0.0020401392
202	0x3dcd7d46	0.1003366
203	0xbc9399df	-0.018017707
204	0x3d0a9993	0.033837866
205	0x3e475779	0.19466962
206	0x3dafb627	0.08579665
207	0x3dbbf87d	0.09178255
208	0x3c89c490	0.016817361
209	0x3e5ef4c7	0.21773063
210	0xbdb271a4	-0.087130815
211	0x3d83e76f	0.06440627
212	0x3e175cd2	0.14781502
213	0x3d7e05cd	0.06201725
214	0x3d44ab84	0.048015133
215	0x3dbc51f0	0.09195316
216	0x3d410be1	0.04713047
217	0x3e1c56da	0.15267506
218	0x3e160f8d	0.1465437
219	0x3d2c071e	0.041998975
220	0x3d83b975	0.064318575
221	0x3d27cb31	0.040965263
222	0x3dca3aa5	0.09874467
223	0x3e067de9	0.13133968
224	0x3d3a6435	0.04550572
225	0x3d5e9906	0.054345153
226	0x3cae8df0	0.021307915
227	0xbbbd84f8	-0.0057836734
228	0x3e24b60e	0.16085073
229	0xbd6afe1f	-0.057371255
230	0x3d44d54d	0.048054982
231	0xbd92467b	-0.07142349
232	0x3d486af0	0.04893011
233	0x3e1bc4a6	0.15211734
234	0x3cf474ee	0.029840913
235	0x3e09adda	0.13445225
236	0xbdc225c5	-0.0947986
237	0x3cd1a3d4	0.025590815
238	0xbd2c24be	-0.042027228
239	0xbccc65b4	-0.02495084
240	0xbdaba445	-0.08380941
241	0x3da0e188	0.07855517
242	0x3d37f8d2	0.044915028
243	0x3e0b443d	0.1360025
244	0xbcd575ff	-0.026057241
245	0x3d3893be	0.045062773
246	0x3d5fb27f	0.054613587
247	0x3e0318e7	0.12802468
248	0x3d948221	0.072513826
249	0x3e357d40	0.1772356
250	0x3d8af883	0.06785681
251	0x3d2ac04b	0.04168729
252	0x3ddcabd5	0.10774962
253	0xbb5108ca	-0.0031896108
254	0x3dc80efc	0.09768483
255	0x3aa68323	0.0012703877

lstm.bias_hh_l0 f4 [752]
0	0xbe0bcd8a	-0.13652626
1	0xbd401a51	-0.046900097
2	0x3da152b2	0.07877101
3	0xbc6a2587	-0.014291174
4	0xbe5ebf74	-0.21752721
5	0x38493b3c	4.79773e-05
6	0xbd02e799	-0.03195915
7	0xbdd8cf2d	-0.10586391
8	0x3e0df9e7	0.13864861
9	0xbd4ce383	-0.05002166
10	0xbe3ffc47	-0.1874858
11	0xbd60c9a3	-0.054879796
12	0xbe312bac	-0.17301816
13	0xbce6c9e3	-0.028172439
14	0xbdea96ec	-0.11454567
15	0xbe75edc1	-0.24016477
16	0xbe1b31d2	-0.15155724
17	0xbe087a11	-0.13327815
18	0x3c5f38c7	0.013624377
19	0xbd10657f	-0.035253044
20	0xbd22f939	-0.03978846
21	0x3d84d28f	0.06485473
22	0xbe093404	-0.13398749
23	0x3a9308d7	0.0011217844
24	0xbe121aa0	-0.14267969
25	0xbc83ca8e	-0.016087797
26	0xbdabd02b	-0.08389314
27	0xbc0a5e41	-0.008445323
28	0x3e05946c	0.130449
29	0x3d0dd575	0.034627397
30	0xbd7884a8	-0.060673386
31	0xbbff52b7	-0.007791843
32	0x3c67b46a	0.014142135
33	0xbe2ceb41	-0.16886617
34	0xbdc3917a	-0.09549232
35	0xbe48e28c	-0.19617671
36	0xbdd128f1	-0.10212887
37	0x3dad4b5e	0.08461641
38	0xbdd0b7a5	-0.101912774
39	0xbdd1cba2	-0.10243918
40	0xbd298877	-0.04138991
41	0xbd933fd0	-0.07189906
42	0x3dd07b96	0.10179822
43	0x3e34cdfe	0.17656705
44	0xbcd4649f	-0.025926886
45	0xbe1b76f0	-0.1518209
46	0x3df11e7c	0.117733926
47	0xbdc47519	-0.09592647
48	0xbd80a3ce	-0.06281243
49	0xbd3b980c	-0.0457993
50	0xbd4fbc29	-0.050716553
51	0x3cbd760b	0.023127576
52	0xbd894fea	-0.067046955
53	0xbc35573f	-0.011068164
54	0xbe416323	-0.18885474
55	0xbd47d76c	-0.048789427
56	0x3c5c7ed5	0.0134579735
57	0x3e349f26	0.17638835
58	0xbc8d3d05	-0.01724101
59	0xbd54f57c	-0.051991925
60	0x3ce703c3	0.028200036
61	0x3dc363e6	0.095405385
62	0xbd1eb684	-0.03874828
63	0xbc822293	-0.015885627
64	0xbcc059e8	-0.02348037
65	0xbdebe3f7	-0.1151809
66	0xbc028b57	-0.0079677915
67	0xbd896714	-0.06709114
68	0xbe17c3e5	-0.14820822
69	0xbdced024	-0.100982934
70	0xbe220195	-0.15820916
71	0x3e394c3f	0.18095492
72	0x3dead6b0	0.1146673
73	0x3d5f824e	0.054567628
74	0xbd84b8b6	-0.06480543
75	0xbc33db7a	-0.01097762
76	0xbdb894ce	-0.09012757
77	0xbd2bdcf2	-0.041958757
78	0x3e414249	0.18872942
79	0x3ce26215	0.02763466
80	0xbc81ed29	-0.015860157
81	0x3e3776e6	0.1791645
82	0xbd6fd715	-0.058554728
83	0x3e179acb	0.14805143
84	0xbdf09bf1	-0.117484935
85	0x3c42235c	0.011849251
86	0xbe286527	-0.16444837
87	0xbe498663	-0.1968017
88	0xbdf796ca	-0.120893076
89	0xbdbfc0de	-0.09362958
90	0xbd808d5f	-0.062769644
91	0xbe166398	-0.1468643
92	0xbe333896	-0.17502055
93	0xbcd47455	-0.025934378
94	0xbdd29aae	-0.10283409
95	0x38f2a31a	0.00011569839
96	0xbb2c0321	-0.0026246982
97	0x3d811672	0.06303109
98	0x3d13c920	0.03608048
99	0xbe80f30b	-0.25185427
100	0x3e1a120a	0.15045944
101	0xbc7e85f2	-0.015534865
102	0xbe42d10d	-0.19025059
103	0xbdd50631	-0.104015715
104	0x3c8afeba	0.016967166
105	0xbd2a9b20	-0.041651845
106	0x3db51bc6	0.08843188
107	0x3c9ea1a0	0.019364178
108	0x3cc2e1d2	0.02378932
109	0xbe2b33e5	-0.16719015
110	0x3d19369a	0.037405588
111	0xbd957583	-0.07297804
112	0xbc22a2bc	-0.009926494
113	0x3cf97d35	0.030455211
114	0xbe3c33f5	-0.18379195
115	0xbd89a122	-0.06720187
116	0x3e473205	0.19452675
117	0xbd5b8c3d	-0.05360054
118	0xbdacfba9	-0.08446438
119	0xbdd8f29c	-0.10593149
120	0xbd87c179	-0.06628699
121	0xbd4295e1	-0.047506217
122	0x3ddec6fb	0.10877796
123	0xbd973985	-0.07384018
124	0x3e0acd5b	0.135549
125	0xbb5b79e7	-0.0033489408
126	0xbdda2848	-0.10652214
127	0xbd63174a	-0.055442132
128	0x3ccf7144	0.025322564
129	0xbd8bfaae	-0.06834923
130	0xbdc22853	-0.094803475
131	0x3cdbf3f5	0.026849726
132	0x3d82ab3a	0.06380315
133	0xba9ea0bb	-0.0012102345
134	0xbdf522f7	-0.1196956
135	0xbdf3e78c	-0.119093984
136	0xbcb0a0af	-0.021560995
137	0xbe557264	-0.20844418
138	0xbdf2f8f3	-0.118638895
139	0xbd625f98	-0.055266947
140	0xbe16072b	-0.14651172
141	0x3cb69088	0.022285715
142	0xbdeee219	-0.116642185
143	0xbe09267a	-0.13393584
144	0xbe1bf01f	-0.15228318
145	0xbd033c6a	-0.032040037
146	0x3d148a9f	0.036265012
147	0xbe04f2d7	-0.12983261
148	0x3c66108e	0.014042033
149	0xbdb6f09f	-0.089326136
150	0xbcef6224	-0.029221602
151	0xbcfb7cff	-0.030699251
152	0x3bc79bfd	0.0060915933
153	0x3d764eeb	0.060133856
154	0x3e1437d9	0.14474429
155	0xbd12b4dd	-0.035817016
156	0x3c6f31a2	0.014599236
157	0xbde2f98f	-0.11082756
158	0x3e8d5f5f	0.27611825
159	0xbb2170e5	-0.002463394
160	0xbc8fc257	-0.017548723
161	0xbcbe23ec	-0.023210488
162	0xbcf17123	-0.029472893
163	0xbde7a5cc	-0.1131092
164	0xbd8d21b1	-0.06891192
165	0x3dcf1d06	0.10112958
166	0x3d573c93	0.052548002
167	0x3d9499f6	0.07255928
168	0x3d6c53ed	0.057697225
169	0xbd295dc9	-0.041349206
170	0xbdb6adc4	-0.08919862
171	0x3d251c1e	0.040310018
172	0xbbaa08a7	-0.0051890197
173	0xbe02e8be	-0.12784097
174	0x3df5ae02	0.1199608
175	0x3d5eda97	0.054407682
176	0xbccfaa5a	-0.025349785
177	0x3cfaea93	0.030629432
178	0xbd994c40	-0.07485247
179	0x3d7e7728	0.062125355
180	0x3d9e4fd0	0.07730067
181	0xbd6d4c82	-0.05793429
182	0xbda9f697	-0.082989864
183	0xbd817f5b	-0.06323119
184	0x3d4ef543	0.05052687
185	0x3c8ab3a8	0.01693137
186	0xbb56ed5c	-0.0032795286
187	0xbd855d2d	-0.065119125
188	0xbe483884	-0.19552809
189	0x3d99bad9	0.075063415
190	0xbc5eaae9	-0.013590553
191	0x3d27fcfe	0.041012757
192	0xbe38b8cf	-0.18039249
193	0x3e473a36	0.194558
194	0x3de416f4	0.111371905
195	0xbc3293f7	-0.010899535
196	0x3d45abba	0.048259474
197	0x3d8ffdf0	0.070308566
198	0xbd712ed6	-0.058882557
199	0x3e01ba7e	0.12668797
200	0xbc0b99d8	-0.008520566
201	0xbd00d71f	-0.031455155
202	0x3c73872b	0.0148637695
203	0xbd689ec6	-0.056792043
204	0x3d8c6750	0.06855643
205	0x3e5840d6	0.21118483
206	0x3d19f7ae	0.03758972
207	0x3e0573a4	0.13032395
208	0x3cd14b30	0.025548548
209	0x3e1b4e77	0.1516665
210	0xbd72d6df	-0.05928695
211	0x3bf0df8b	0.007350867
212	0x3cb6a84b	0.022297045
213	0x3d25c7c3	0.04047371
214	0x3d407d52	0.046994515
215	0x3d3f351e	0.046681516
216	0x3ca582bc	0.02020394
217	0x3ddee7f9	0.10884089
218	0x3e081b6d	0.13291712
219	0x3d7d7fc9	0.061889444
220	0x3d8e20cf	0.069398515
221	0x3c9b5cff	0.018965242
222	0x3d8b1a8c	0.06792173
223	0x3d49b25b	0.04924236
224	0x3cdfe0fc	0.02732896
225	0x3dc2bd4c	0.09508762
226	0x3d81bfae	0.06335388
227	0x3d6f21e3	0.058381926
228	0x3d9c6440	0.07636309
229	0xbd3e9598	-0.046529382
230	0xbb534b9d	-0.0032241114
231	0xbe07dd03	-0.13267903
232	0x3e0c72f5	0.13715728
233	0x3dc58ff7	0.096466
234	0x3d275190	0.04084927
235	0x3d8f3241	0.06992007
236	0xbb1b2060	-0.002367042
237	0xbd31d62c	-0.04341714
238	0x3d21a1d9	0.03946099
239	0xbc070d46	-0.008242911
240	0x3c44eef8	0.012019865
241	0x3dfcf080	0.12350559
242	0x3dffc78e	0.12489234
243	0x3df977e5	0.12181071
244	0x3d1a66e2	0.037695773
245	0x3e0da617	0.1383289
246	0x3e428f69	0.19000019
247	0x3d70546d	0.058674265
248	0x3de4a5f7	0.11164468
249	0x3e18fbc3	0.1493979
250	0x3d12488d	0.03571372
251	0xbbb91087	-0.005647722
252	0x3d858e43	0.06521275
253	0x3d9973ed	0.07492814
254	0x3dd5d232	0.10440482
255	0x3dbd292b	0.09236368

hidden2label.weight f4 [1, 188]
0	0x3f32bc51	0.698186
1	0xbf3b8604	-0.73251367
2	0xbd20a62d	-0.039220978
3	0xbdc1ab53	-0.094565056
4	0x3e23a8b7	0.15982328
5	0xbee9f362	-0.456935
6	0xbf15e4f2	-0.5855247
7	0xbe434106	-0.19067773
8	0xbf5e21f4	-0.8677056
9	0xbdbf3384	-0.09335998
10	0xbe21d7b1	-0.15804936
11	0xbe21c6b6	-0.15798458
12	0xbd29121d	-0.04127704
13	0x3f05dbf4	0.52288747
14	0xbf117647	-0.568211
15	0x3e78ef98	0.24310148
16	0xbdf8bdc0	-0.12145567
17	0x3d0decc8	0.03464964
18	0x3f2ebee4	0.68260026
19	0xbdd9c04a	-0.10632379
20	0xbf035842	-0.51306546
21	0xbd9dcb11	-0.077047475
22	0x3f4176e9	0.7557207
23	0x3e2b7786	0.16744813
24	0x3dac2037	0.08404582
25	0xbf09e7b7	-0.53869194
26	0x3f0d3e35	0.55173045
27	0xbf33d002	-0.7023927
28	0xbf8688ce	-1.05105
29	0xbee0331a	-0.43788987
30	0x3de8f539	0.113748975
31	0x3f29b210	0.66287327
32	0x3f497935	0.7870057
33	0x3e3421f1	0.17591073
34	0xbe83a9f6	-0.25715607
35	0xbe8d8771	-0.27642396
36	0x3e6e8a33	0.23294906
37	0xbf0c4661	-0.5479489
38	0xbdf46ea8	-0.119351685
39	0x3e0b2d0b	0.13591401
40	0x3de0fcc0	0.10985708
41	0x3f4f914e	0.8108109
42	0x3f77c017	0.9677748
43	0x3f74d93f	0.9564399
44	0x3dfb3b6d	0.12267194
45	0xbef05dbd	-0.46946517
46	0xbf468d6e	-0.77559555
47	0xbe8e03e7	-0.27737352
48	0x3f191a4f	0.5980577
49	0x3e39ae65	0.18132932
50	0xbed59020	-0.4171152
51	0x3db63eff	0.08898734
52	0x3e05ffee	0.1308591
53	0x3ef99917	0.4874961
54	0x3e1513df	0.14558361
55	0xbdb36864	-0.08760145
56	0xbf13ee70	-0.577857
57	0xbf82bd92	-1.0214102
58	0xbe85c277	-0.26124927
59	0xbe3a9f8e	-0.18224928
60	0x3d9b244b	0.07575282
61	0xbe53065c	-0.20607895
62	0x3e26704a	0.16253772
63	0x3eb85504	0.36002362
64	0xbf048370	-0.5176306
65	0xbd769de9	-0.06020919
66	0x3e9566dc	0.29180038
67	0xbee5c6ac	-0.44878137
68	0xbee507a6	-0.44732398
69	0xbe34edec	-0.17668885
70	0xbed5ad60	-0.41733837
71	0x3f9a198d	1.2039047
72	0x3ede6789	0.43438366
73	0xbf1a58d3	-0.60291785
74	0x3e614c0e	0.22001669
75	0x3ec5faa3	0.38667783
76	0x3f1a6b16	0.6031965
77	0x3e765ea0	0.24059534
78	0xbefaeb46	-0.49007624
79	0xbeba5abe	-0.36397356
80	0x3e9cc9e0	0.30622768
81	0xbf37612e	-0.7163266
82	0xbb94abd4	-0.004537085
83	0xbf69ea6f	-0.9137334
84	0xbee38f7c	-0.44445407
85	0x3e2af583	0.16695218
86	0x3da12b27	0.07869559
87	0x3db7f2ee	0.08981882
88	0x3ecd8d4f	0.40146872
89	0x3e11376d	0.141813
90	0x3e869b33	0.26290283
91	0xbe5858d2	-0.21127632
92	0x3efb0676	0.49028367
93	0x3ecb2471	0.3967624
94	0xbe9d65b9	-0.3074167
95	0x3df753e9	0.120765515
96	0x3f43c74a	0.76475966
97	0x3f177070	0.5915594
98	0x3f0dea88	0.5543599
99	0x3e7eff2b	0.24902026
100	0x3f166da1	0.5876103
101	0xbecc2ef4	-0.39879572
102	0x3e21c9d1	0.15799643
103	0x3ea5ca3f	0.32380864
104	0x3da6f5b5	0.08152334
105	0xbcde4ad0	-0.027135283
106	0xbe5b9a0c	-0.21445483
107	0xbf22c4cb	-0.6358153
108	0xbd9f7af5	-0.07787124
109	0x3e3cb897	0.1842979
110	0x3ef9cf7a	0.48791105
111	0xbf2564c5	-0.6460689
112	0xbf3ad8ac	-0.72986865
113	0xbecaa086	-0.39575595
114	0x3eb0b277	0.34511158
115	0x3bb9867a	0.005661783
116	0xbf6f0ae9	-0.9337602
117	0xbead68b8	-0.33868957
118	0x3ea7bea0	0.32762623
119	0xbee72bb4	-0.4515053
120	0x3eafda42	0.34346205
121	0x3ecf226e	0.40455955
122	0xbf8bbfbf	-1.0917891
123	0xbe4a4cb4	-0.19755822
124	0x3f92abb4	1.145865
125	0xbeff0871	-0.49811128
126	0x3d8ac008	0.06774908
127	0x3f6c8db1	0.92403704
128	0x3f18e91e	0.5973071
129	0xbeaf6c63	-0.3426238
130	0xbeee4d52	-0.46543366
131	0x3c06ba15	0.008223076
132	0xbf8a93e7	-1.0826386
133	0xbec5a6d3	-0.3860384
134	0xbde99a07	-0.114063315
135	0xbeb7dcb3	-0.35910568
136	0x3e8296a4	0.25505555
137	0x3e913781	0.2836266
138	0x3df22ac1	0.11824561
139	0xbec32fe3	-0.38122472
140	0x3eb5f17f	0.3553581
141	0x3d836aae	0.06416832
142	0x3e4da770	0.20083404
143	0xbec66f60	-0.38756847
144	0xbe0b7b98	-0.13621366
145	0x3e0f4028	0.13989317
146	0xbea5dc09	-0.32394436
147	0x3ea52e5c	0.32261932
148	0x3f1d551d	0.61458
149	0x3e7c0dd7	0.24614654
150	0xbee27a99	-0.4423416
151	0x3e1c0e84	0.15239912
152	0xbebf2ffb	-0.37341294
153	0x3f2dd26a	0.6789919
154	0xbf94f8d0	-1.1638432
155	0xbdaa7e79	-0.08324904
156	0x3ee088c7	0.43854353
157	0xbd905731	-0.070478804
158	0xbf6b584e	-0.9193162
159	0xbf175a06	-0.5912174
160	0x3e5b1247	0.21393691
161	0xbe908cf9	-0.28232554
162	0xbeb44499	-0.35208586
163	0x3d700d4a	0.058606423
164	0x3e812cd7	0.25229523
165	0xbf1b81b7	-0.60744804
166	0x3f245e48	0.6420636
167	0xbefdbe8c	-0.49559438
168	0x3e721ecc	0.2364456
169	0xbeb98957	-0.36237594
170	0x3dc69aa3	0.09697463
171	0xbf194c02	-0.59881604
172	0xbed02590	-0.40653658
173	0xbd84232f	-0.06452023
174	0x3f84b2db	1.0367082
175	0x3eea124b	0.4571708
176	0xbee883dc	-0.454131
177	0xbe6632a0	-0.2248025
178	0x3ea5102b	0.32238898
179	0x3f2cdad5	0.6752141
180	0xbec05db9	-0.37571505
181	0x3eac3395	0.33633104
182	0x3e9eb17e	0.3099479
183	0xbef4d6ee	-0.47820228
184	0x3f2722bd	0.6528738
185	0xbf2f645e	-0.68512523
186	0x3ea95c00	0.33078003
187	0xbea233ab	-0.31680045
